…
I tensorflow/core/common_runtime/gpu/gpu_device.cc:916] 0:   Y 
I tensorflow/core/common_runtime/gpu/gpu_device.cc:975] Creating TensorFlow device (/gpu:0) -> (device: 0, name: Tesla K80, pci bus id: 0000:00:1e.0)
Loaded 66318 data samples
Train sample has size 53054
After balancing and removing mode we have 66318 data samples
X_aug shape (66318, 120, 120, 3)
y_aug shape (66318, 1)
_________________________________________________________________
Layer (type)                 Output Shape              Param #   
=================================================================
images (InputLayer)          (None, 120, 120, 3)       0         
_________________________________________________________________
lambda_1 (Lambda)            (None, 120, 120, 3)       0         
_________________________________________________________________
conv2d_1 (Conv2D)            (None, 60, 60, 24)        1824      
_________________________________________________________________
spatial_dropout2d_1 (Spatial (None, 60, 60, 24)        0         
_________________________________________________________________
conv2d_2 (Conv2D)            (None, 30, 30, 36)        21636     
_________________________________________________________________
spatial_dropout2d_2 (Spatial (None, 30, 30, 36)        0         
_________________________________________________________________
conv2d_3 (Conv2D)            (None, 15, 15, 48)        43248     
_________________________________________________________________
spatial_dropout2d_3 (Spatial (None, 15, 15, 48)        0         
_________________________________________________________________
conv2d_4 (Conv2D)            (None, 15, 15, 64)        76864     
_________________________________________________________________
spatial_dropout2d_4 (Spatial (None, 15, 15, 64)        0         
_________________________________________________________________
conv2d_5 (Conv2D)            (None, 15, 15, 64)        102464    
_________________________________________________________________
spatial_dropout2d_5 (Spatial (None, 15, 15, 64)        0         
_________________________________________________________________
flatten_1 (Flatten)          (None, 14400)             0         
_________________________________________________________________
dropout_1 (Dropout)          (None, 14400)             0         
_________________________________________________________________
dense_1 (Dense)              (None, 100)               1440100   
_________________________________________________________________
dense_2 (Dense)              (None, 50)                5050      
_________________________________________________________________
dense_3 (Dense)              (None, 10)                510       
_________________________________________________________________
dropout_2 (Dropout)          (None, 10)                0         
_________________________________________________________________
steering_output (Dense)      (None, 1)                 11        
=================================================================
Total params: 1,691,707.0
Trainable params: 1,691,707.0
Non-trainable params: 0.0
_________________________________________________________________
None
Train on 66318 samples, validate on 13264 samples
Epoch 1/150
  512/66318 [..............................] - ETA: 696s - loss: 0.1144
…
