{"config": {"layers": [{"config": {"batch_input_shape": [null, 80, 80, 3], "name": "images", "dtype": "float32", "sparse": false}, "class_name": "InputLayer", "inbound_nodes": [], "name": "images"}, {"config": {"function_type": "lambda", "name": "lambda_1", "arguments": {}, "function": ["\u00e3\u0001\u0000\u0000\u0000\u0000\u0000\u0000\u0000\u0001\u0000\u0000\u0000\u0002\u0000\u0000\u0000S\u0000\u0000\u0000s\f\u0000\u0000\u0000|\u0000\u0000d\u0001\u0000\u001bd\u0002\u0000\u0018S)\u0003Ng\u0000\u0000\u0000\u0000\u0000\u00e0_@g\u0000\u0000\u0000\u0000\u0000\u0000\u00f0?\u00a9\u0000)\u0001\u00da\u0001xr\u0001\u0000\u0000\u0000r\u0001\u0000\u0000\u0000\u00fa\bmodel.py\u00da\b<lambda>\u00ea\u0000\u0000\u0000\u00f3\u0000\u0000\u0000\u0000", null, null], "output_shape": null, "output_shape_type": "raw", "trainable": true}, "class_name": "Lambda", "inbound_nodes": [[["images", 0, 0, {}]]], "name": "lambda_1"}, {"config": {"dilation_rate": [1, 1], "name": "conv2d_1", "data_format": "channels_last", "bias_regularizer": null, "kernel_initializer": {"config": {"scale": 1.0, "distribution": "normal", "mode": "fan_avg", "seed": null}, "class_name": "VarianceScaling"}, "strides": [2, 2], "bias_initializer": {"config": {}, "class_name": "Zeros"}, "filters": 32, "use_bias": true, "padding": "same", "kernel_constraint": null, "kernel_regularizer": {"config": {"l2": 0.0010000000474974513, "l1": 0.0}, "class_name": "L1L2"}, "activation": "linear", "kernel_size": [5, 5], "bias_constraint": null, "trainable": true, "activity_regularizer": null}, "class_name": "Conv2D", "inbound_nodes": [[["lambda_1", 0, 0, {}]]], "name": "conv2d_1"}, {"config": {"gamma_initializer": {"config": {}, "class_name": "Ones"}, "beta_initializer": {"config": {}, "class_name": "Zeros"}, "name": "batch_normalization_1", "gamma_regularizer": null, "beta_constraint": null, "momentum": 0.99, "gamma_constraint": null, "beta_regularizer": null, "trainable": true, "center": true, "moving_mean_initializer": {"config": {}, "class_name": "Zeros"}, "axis": -1, "scale": true, "moving_variance_initializer": {"config": {}, "class_name": "Ones"}, "epsilon": 0.001}, "class_name": "BatchNormalization", "inbound_nodes": [[["conv2d_1", 0, 0, {}]]], "name": "batch_normalization_1"}, {"config": {"alpha": 1.0, "name": "elu_1", "trainable": true}, "class_name": "ELU", "inbound_nodes": [[["batch_normalization_1", 0, 0, {}]]], "name": "elu_1"}, {"config": {"dilation_rate": [1, 1], "name": "conv2d_2", "data_format": "channels_last", "bias_regularizer": null, "kernel_initializer": {"config": {"scale": 1.0, "distribution": "normal", "mode": "fan_avg", "seed": null}, "class_name": "VarianceScaling"}, "strides": [2, 2], "bias_initializer": {"config": {}, "class_name": "Zeros"}, "filters": 32, "use_bias": true, "padding": "same", "kernel_constraint": null, "kernel_regularizer": {"config": {"l2": 0.0010000000474974513, "l1": 0.0}, "class_name": "L1L2"}, "activation": "linear", "kernel_size": [5, 5], "bias_constraint": null, "trainable": true, "activity_regularizer": null}, "class_name": "Conv2D", "inbound_nodes": [[["elu_1", 0, 0, {}]]], "name": "conv2d_2"}, {"config": {"gamma_initializer": {"config": {}, "class_name": "Ones"}, "beta_initializer": {"config": {}, "class_name": "Zeros"}, "name": "batch_normalization_2", "gamma_regularizer": null, "beta_constraint": null, "momentum": 0.99, "gamma_constraint": null, "beta_regularizer": null, "trainable": true, "center": true, "moving_mean_initializer": {"config": {}, "class_name": "Zeros"}, "axis": -1, "scale": true, "moving_variance_initializer": {"config": {}, "class_name": "Ones"}, "epsilon": 0.001}, "class_name": "BatchNormalization", "inbound_nodes": [[["conv2d_2", 0, 0, {}]]], "name": "batch_normalization_2"}, {"config": {"alpha": 1.0, "name": "elu_2", "trainable": true}, "class_name": "ELU", "inbound_nodes": [[["batch_normalization_2", 0, 0, {}]]], "name": "elu_2"}, {"config": {"pool_size": [4, 4], "data_format": "channels_last", "strides": [2, 2], "name": "average_pooling2d_1", "trainable": true, "padding": "same"}, "class_name": "AveragePooling2D", "inbound_nodes": [[["elu_2", 0, 0, {}]]], "name": "average_pooling2d_1"}, {"config": {"dilation_rate": [1, 1], "name": "conv2d_3", "data_format": "channels_last", "bias_regularizer": null, "kernel_initializer": {"config": {"scale": 1.0, "distribution": "normal", "mode": "fan_avg", "seed": null}, "class_name": "VarianceScaling"}, "strides": [1, 1], "bias_initializer": {"config": {}, "class_name": "Zeros"}, "filters": 32, "use_bias": true, "padding": "same", "kernel_constraint": null, "kernel_regularizer": {"config": {"l2": 0.0010000000474974513, "l1": 0.0}, "class_name": "L1L2"}, "activation": "linear", "kernel_size": [5, 5], "bias_constraint": null, "trainable": true, "activity_regularizer": null}, "class_name": "Conv2D", "inbound_nodes": [[["average_pooling2d_1", 0, 0, {}]]], "name": "conv2d_3"}, {"config": {"gamma_initializer": {"config": {}, "class_name": "Ones"}, "beta_initializer": {"config": {}, "class_name": "Zeros"}, "name": "batch_normalization_3", "gamma_regularizer": null, "beta_constraint": null, "momentum": 0.99, "gamma_constraint": null, "beta_regularizer": null, "trainable": true, "center": true, "moving_mean_initializer": {"config": {}, "class_name": "Zeros"}, "axis": -1, "scale": true, "moving_variance_initializer": {"config": {}, "class_name": "Ones"}, "epsilon": 0.001}, "class_name": "BatchNormalization", "inbound_nodes": [[["conv2d_3", 0, 0, {}]]], "name": "batch_normalization_3"}, {"config": {"alpha": 1.0, "name": "elu_3", "trainable": true}, "class_name": "ELU", "inbound_nodes": [[["batch_normalization_3", 0, 0, {}]]], "name": "elu_3"}, {"config": {"rate": 0.5, "name": "dropout_1", "trainable": true}, "class_name": "Dropout", "inbound_nodes": [[["elu_3", 0, 0, {}]]], "name": "dropout_1"}, {"config": {"dilation_rate": [1, 1], "name": "conv2d_4", "data_format": "channels_last", "bias_regularizer": null, "kernel_initializer": {"config": {"scale": 1.0, "distribution": "normal", "mode": "fan_avg", "seed": null}, "class_name": "VarianceScaling"}, "strides": [1, 1], "bias_initializer": {"config": {}, "class_name": "Zeros"}, "filters": 32, "use_bias": true, "padding": "same", "kernel_constraint": null, "kernel_regularizer": {"config": {"l2": 0.0010000000474974513, "l1": 0.0}, "class_name": "L1L2"}, "activation": "linear", "kernel_size": [5, 5], "bias_constraint": null, "trainable": true, "activity_regularizer": null}, "class_name": "Conv2D", "inbound_nodes": [[["dropout_1", 0, 0, {}]]], "name": "conv2d_4"}, {"config": {"name": "add_1", "trainable": true}, "class_name": "Add", "inbound_nodes": [[["conv2d_4", 0, 0, {}], ["average_pooling2d_1", 0, 0, {}]]], "name": "add_1"}, {"config": {"gamma_initializer": {"config": {}, "class_name": "Ones"}, "beta_initializer": {"config": {}, "class_name": "Zeros"}, "name": "batch_normalization_4", "gamma_regularizer": null, "beta_constraint": null, "momentum": 0.99, "gamma_constraint": null, "beta_regularizer": null, "trainable": true, "center": true, "moving_mean_initializer": {"config": {}, "class_name": "Zeros"}, "axis": -1, "scale": true, "moving_variance_initializer": {"config": {}, "class_name": "Ones"}, "epsilon": 0.001}, "class_name": "BatchNormalization", "inbound_nodes": [[["add_1", 0, 0, {}]]], "name": "batch_normalization_4"}, {"config": {"alpha": 1.0, "name": "elu_4", "trainable": true}, "class_name": "ELU", "inbound_nodes": [[["batch_normalization_4", 0, 0, {}]]], "name": "elu_4"}, {"config": {"dilation_rate": [1, 1], "name": "conv2d_5", "data_format": "channels_last", "bias_regularizer": null, "kernel_initializer": {"config": {"scale": 1.0, "distribution": "normal", "mode": "fan_avg", "seed": null}, "class_name": "VarianceScaling"}, "strides": [1, 1], "bias_initializer": {"config": {}, "class_name": "Zeros"}, "filters": 32, "use_bias": true, "padding": "same", "kernel_constraint": null, "kernel_regularizer": {"config": {"l2": 0.0010000000474974513, "l1": 0.0}, "class_name": "L1L2"}, "activation": "linear", "kernel_size": [5, 5], "bias_constraint": null, "trainable": true, "activity_regularizer": null}, "class_name": "Conv2D", "inbound_nodes": [[["elu_4", 0, 0, {}]]], "name": "conv2d_5"}, {"config": {"gamma_initializer": {"config": {}, "class_name": "Ones"}, "beta_initializer": {"config": {}, "class_name": "Zeros"}, "name": "batch_normalization_5", "gamma_regularizer": null, "beta_constraint": null, "momentum": 0.99, "gamma_constraint": null, "beta_regularizer": null, "trainable": true, "center": true, "moving_mean_initializer": {"config": {}, "class_name": "Zeros"}, "axis": -1, "scale": true, "moving_variance_initializer": {"config": {}, "class_name": "Ones"}, "epsilon": 0.001}, "class_name": "BatchNormalization", "inbound_nodes": [[["conv2d_5", 0, 0, {}]]], "name": "batch_normalization_5"}, {"config": {"alpha": 1.0, "name": "elu_5", "trainable": true}, "class_name": "ELU", "inbound_nodes": [[["batch_normalization_5", 0, 0, {}]]], "name": "elu_5"}, {"config": {"rate": 0.5, "name": "dropout_2", "trainable": true}, "class_name": "Dropout", "inbound_nodes": [[["elu_5", 0, 0, {}]]], "name": "dropout_2"}, {"config": {"dilation_rate": [1, 1], "name": "conv2d_6", "data_format": "channels_last", "bias_regularizer": null, "kernel_initializer": {"config": {"scale": 1.0, "distribution": "normal", "mode": "fan_avg", "seed": null}, "class_name": "VarianceScaling"}, "strides": [1, 1], "bias_initializer": {"config": {}, "class_name": "Zeros"}, "filters": 32, "use_bias": true, "padding": "same", "kernel_constraint": null, "kernel_regularizer": {"config": {"l2": 0.0010000000474974513, "l1": 0.0}, "class_name": "L1L2"}, "activation": "linear", "kernel_size": [5, 5], "bias_constraint": null, "trainable": true, "activity_regularizer": null}, "class_name": "Conv2D", "inbound_nodes": [[["dropout_2", 0, 0, {}]]], "name": "conv2d_6"}, {"config": {"name": "add_2", "trainable": true}, "class_name": "Add", "inbound_nodes": [[["conv2d_6", 0, 0, {}], ["elu_4", 0, 0, {}]]], "name": "add_2"}, {"config": {"gamma_initializer": {"config": {}, "class_name": "Ones"}, "beta_initializer": {"config": {}, "class_name": "Zeros"}, "name": "batch_normalization_6", "gamma_regularizer": null, "beta_constraint": null, "momentum": 0.99, "gamma_constraint": null, "beta_regularizer": null, "trainable": true, "center": true, "moving_mean_initializer": {"config": {}, "class_name": "Zeros"}, "axis": -1, "scale": true, "moving_variance_initializer": {"config": {}, "class_name": "Ones"}, "epsilon": 0.001}, "class_name": "BatchNormalization", "inbound_nodes": [[["add_2", 0, 0, {}]]], "name": "batch_normalization_6"}, {"config": {"alpha": 1.0, "name": "elu_6", "trainable": true}, "class_name": "ELU", "inbound_nodes": [[["batch_normalization_6", 0, 0, {}]]], "name": "elu_6"}, {"config": {"dilation_rate": [1, 1], "name": "conv2d_7", "data_format": "channels_last", "bias_regularizer": null, "kernel_initializer": {"config": {"scale": 1.0, "distribution": "normal", "mode": "fan_avg", "seed": null}, "class_name": "VarianceScaling"}, "strides": [1, 1], "bias_initializer": {"config": {}, "class_name": "Zeros"}, "filters": 64, "use_bias": true, "padding": "same", "kernel_constraint": null, "kernel_regularizer": {"config": {"l2": 0.0010000000474974513, "l1": 0.0}, "class_name": "L1L2"}, "activation": "linear", "kernel_size": [5, 5], "bias_constraint": null, "trainable": true, "activity_regularizer": null}, "class_name": "Conv2D", "inbound_nodes": [[["elu_6", 0, 0, {}]]], "name": "conv2d_7"}, {"config": {"gamma_initializer": {"config": {}, "class_name": "Ones"}, "beta_initializer": {"config": {}, "class_name": "Zeros"}, "name": "batch_normalization_7", "gamma_regularizer": null, "beta_constraint": null, "momentum": 0.99, "gamma_constraint": null, "beta_regularizer": null, "trainable": true, "center": true, "moving_mean_initializer": {"config": {}, "class_name": "Zeros"}, "axis": -1, "scale": true, "moving_variance_initializer": {"config": {}, "class_name": "Ones"}, "epsilon": 0.001}, "class_name": "BatchNormalization", "inbound_nodes": [[["conv2d_7", 0, 0, {}]]], "name": "batch_normalization_7"}, {"config": {"alpha": 1.0, "name": "elu_7", "trainable": true}, "class_name": "ELU", "inbound_nodes": [[["batch_normalization_7", 0, 0, {}]]], "name": "elu_7"}, {"config": {"dilation_rate": [1, 1], "name": "conv2d_8", "data_format": "channels_last", "bias_regularizer": null, "kernel_initializer": {"config": {"scale": 1.0, "distribution": "normal", "mode": "fan_avg", "seed": null}, "class_name": "VarianceScaling"}, "strides": [1, 1], "bias_initializer": {"config": {}, "class_name": "Zeros"}, "filters": 64, "use_bias": true, "padding": "same", "kernel_constraint": null, "kernel_regularizer": {"config": {"l2": 0.0010000000474974513, "l1": 0.0}, "class_name": "L1L2"}, "activation": "linear", "kernel_size": [3, 3], "bias_constraint": null, "trainable": true, "activity_regularizer": null}, "class_name": "Conv2D", "inbound_nodes": [[["elu_7", 0, 0, {}]]], "name": "conv2d_8"}, {"config": {"gamma_initializer": {"config": {}, "class_name": "Ones"}, "beta_initializer": {"config": {}, "class_name": "Zeros"}, "name": "batch_normalization_8", "gamma_regularizer": null, "beta_constraint": null, "momentum": 0.99, "gamma_constraint": null, "beta_regularizer": null, "trainable": true, "center": true, "moving_mean_initializer": {"config": {}, "class_name": "Zeros"}, "axis": -1, "scale": true, "moving_variance_initializer": {"config": {}, "class_name": "Ones"}, "epsilon": 0.001}, "class_name": "BatchNormalization", "inbound_nodes": [[["conv2d_8", 0, 0, {}]]], "name": "batch_normalization_8"}, {"config": {"alpha": 1.0, "name": "elu_8", "trainable": true}, "class_name": "ELU", "inbound_nodes": [[["batch_normalization_8", 0, 0, {}]]], "name": "elu_8"}, {"config": {"rate": 0.5, "name": "dropout_3", "trainable": true}, "class_name": "Dropout", "inbound_nodes": [[["elu_8", 0, 0, {}]]], "name": "dropout_3"}, {"config": {"dilation_rate": [1, 1], "name": "conv2d_9", "data_format": "channels_last", "bias_regularizer": null, "kernel_initializer": {"config": {"scale": 1.0, "distribution": "normal", "mode": "fan_avg", "seed": null}, "class_name": "VarianceScaling"}, "strides": [1, 1], "bias_initializer": {"config": {}, "class_name": "Zeros"}, "filters": 64, "use_bias": true, "padding": "same", "kernel_constraint": null, "kernel_regularizer": {"config": {"l2": 0.0010000000474974513, "l1": 0.0}, "class_name": "L1L2"}, "activation": "linear", "kernel_size": [3, 3], "bias_constraint": null, "trainable": true, "activity_regularizer": null}, "class_name": "Conv2D", "inbound_nodes": [[["dropout_3", 0, 0, {}]]], "name": "conv2d_9"}, {"config": {"name": "add_3", "trainable": true}, "class_name": "Add", "inbound_nodes": [[["conv2d_9", 0, 0, {}], ["elu_7", 0, 0, {}]]], "name": "add_3"}, {"config": {"gamma_initializer": {"config": {}, "class_name": "Ones"}, "beta_initializer": {"config": {}, "class_name": "Zeros"}, "name": "batch_normalization_9", "gamma_regularizer": null, "beta_constraint": null, "momentum": 0.99, "gamma_constraint": null, "beta_regularizer": null, "trainable": true, "center": true, "moving_mean_initializer": {"config": {}, "class_name": "Zeros"}, "axis": -1, "scale": true, "moving_variance_initializer": {"config": {}, "class_name": "Ones"}, "epsilon": 0.001}, "class_name": "BatchNormalization", "inbound_nodes": [[["add_3", 0, 0, {}]]], "name": "batch_normalization_9"}, {"config": {"alpha": 1.0, "name": "elu_9", "trainable": true}, "class_name": "ELU", "inbound_nodes": [[["batch_normalization_9", 0, 0, {}]]], "name": "elu_9"}, {"config": {"alpha": 1.0, "name": "elu_10", "trainable": true}, "class_name": "ELU", "inbound_nodes": [[["elu_9", 0, 0, {}]]], "name": "elu_10"}, {"config": {"dilation_rate": [1, 1], "name": "conv2d_10", "data_format": "channels_last", "bias_regularizer": null, "kernel_initializer": {"config": {"scale": 1.0, "distribution": "normal", "mode": "fan_avg", "seed": null}, "class_name": "VarianceScaling"}, "strides": [1, 1], "bias_initializer": {"config": {}, "class_name": "Zeros"}, "filters": 64, "use_bias": true, "padding": "same", "kernel_constraint": null, "kernel_regularizer": {"config": {"l2": 0.0010000000474974513, "l1": 0.0}, "class_name": "L1L2"}, "activation": "linear", "kernel_size": [3, 3], "bias_constraint": null, "trainable": true, "activity_regularizer": null}, "class_name": "Conv2D", "inbound_nodes": [[["elu_10", 0, 0, {}]]], "name": "conv2d_10"}, {"config": {"gamma_initializer": {"config": {}, "class_name": "Ones"}, "beta_initializer": {"config": {}, "class_name": "Zeros"}, "name": "batch_normalization_10", "gamma_regularizer": null, "beta_constraint": null, "momentum": 0.99, "gamma_constraint": null, "beta_regularizer": null, "trainable": true, "center": true, "moving_mean_initializer": {"config": {}, "class_name": "Zeros"}, "axis": -1, "scale": true, "moving_variance_initializer": {"config": {}, "class_name": "Ones"}, "epsilon": 0.001}, "class_name": "BatchNormalization", "inbound_nodes": [[["conv2d_10", 0, 0, {}]]], "name": "batch_normalization_10"}, {"config": {"alpha": 1.0, "name": "elu_11", "trainable": true}, "class_name": "ELU", "inbound_nodes": [[["batch_normalization_10", 0, 0, {}]]], "name": "elu_11"}, {"config": {"rate": 0.5, "name": "dropout_4", "trainable": true}, "class_name": "Dropout", "inbound_nodes": [[["elu_11", 0, 0, {}]]], "name": "dropout_4"}, {"config": {"dilation_rate": [1, 1], "name": "conv2d_11", "data_format": "channels_last", "bias_regularizer": null, "kernel_initializer": {"config": {"scale": 1.0, "distribution": "normal", "mode": "fan_avg", "seed": null}, "class_name": "VarianceScaling"}, "strides": [1, 1], "bias_initializer": {"config": {}, "class_name": "Zeros"}, "filters": 64, "use_bias": true, "padding": "same", "kernel_constraint": null, "kernel_regularizer": {"config": {"l2": 0.0010000000474974513, "l1": 0.0}, "class_name": "L1L2"}, "activation": "linear", "kernel_size": [3, 3], "bias_constraint": null, "trainable": true, "activity_regularizer": null}, "class_name": "Conv2D", "inbound_nodes": [[["dropout_4", 0, 0, {}]]], "name": "conv2d_11"}, {"config": {"name": "add_4", "trainable": true}, "class_name": "Add", "inbound_nodes": [[["conv2d_11", 0, 0, {}], ["elu_10", 0, 0, {}]]], "name": "add_4"}, {"config": {"gamma_initializer": {"config": {}, "class_name": "Ones"}, "beta_initializer": {"config": {}, "class_name": "Zeros"}, "name": "batch_normalization_11", "gamma_regularizer": null, "beta_constraint": null, "momentum": 0.99, "gamma_constraint": null, "beta_regularizer": null, "trainable": true, "center": true, "moving_mean_initializer": {"config": {}, "class_name": "Zeros"}, "axis": -1, "scale": true, "moving_variance_initializer": {"config": {}, "class_name": "Ones"}, "epsilon": 0.001}, "class_name": "BatchNormalization", "inbound_nodes": [[["add_4", 0, 0, {}]]], "name": "batch_normalization_11"}, {"config": {"alpha": 1.0, "name": "elu_12", "trainable": true}, "class_name": "ELU", "inbound_nodes": [[["batch_normalization_11", 0, 0, {}]]], "name": "elu_12"}, {"config": {"dilation_rate": [1, 1], "name": "conv2d_12", "data_format": "channels_last", "bias_regularizer": null, "kernel_initializer": {"config": {"scale": 1.0, "distribution": "normal", "mode": "fan_avg", "seed": null}, "class_name": "VarianceScaling"}, "strides": [1, 1], "bias_initializer": {"config": {}, "class_name": "Zeros"}, "filters": 256, "use_bias": true, "padding": "same", "kernel_constraint": null, "kernel_regularizer": {"config": {"l2": 0.0010000000474974513, "l1": 0.0}, "class_name": "L1L2"}, "activation": "linear", "kernel_size": [3, 3], "bias_constraint": null, "trainable": true, "activity_regularizer": null}, "class_name": "Conv2D", "inbound_nodes": [[["elu_12", 0, 0, {}]]], "name": "conv2d_12"}, {"config": {"gamma_initializer": {"config": {}, "class_name": "Ones"}, "beta_initializer": {"config": {}, "class_name": "Zeros"}, "name": "batch_normalization_12", "gamma_regularizer": null, "beta_constraint": null, "momentum": 0.99, "gamma_constraint": null, "beta_regularizer": null, "trainable": true, "center": true, "moving_mean_initializer": {"config": {}, "class_name": "Zeros"}, "axis": -1, "scale": true, "moving_variance_initializer": {"config": {}, "class_name": "Ones"}, "epsilon": 0.001}, "class_name": "BatchNormalization", "inbound_nodes": [[["conv2d_12", 0, 0, {}]]], "name": "batch_normalization_12"}, {"config": {"alpha": 1.0, "name": "elu_13", "trainable": true}, "class_name": "ELU", "inbound_nodes": [[["batch_normalization_12", 0, 0, {}]]], "name": "elu_13"}, {"config": {"pool_size": [4, 4], "data_format": "channels_last", "strides": [2, 2], "name": "average_pooling2d_2", "trainable": true, "padding": "valid"}, "class_name": "AveragePooling2D", "inbound_nodes": [[["elu_13", 0, 0, {}]]], "name": "average_pooling2d_2"}, {"config": {"name": "flatten_1", "trainable": true}, "class_name": "Flatten", "inbound_nodes": [[["average_pooling2d_2", 0, 0, {}]]], "name": "flatten_1"}, {"config": {"use_bias": true, "name": "dense_1", "bias_initializer": {"config": {}, "class_name": "Zeros"}, "activity_regularizer": null, "kernel_initializer": {"config": {"scale": 1.0, "distribution": "normal", "mode": "fan_avg", "seed": null}, "class_name": "VarianceScaling"}, "trainable": true, "units": 1164, "kernel_regularizer": {"config": {"l2": 0.0010000000474974513, "l1": 0.0}, "class_name": "L1L2"}, "activation": "elu", "bias_constraint": null, "kernel_constraint": null, "bias_regularizer": null}, "class_name": "Dense", "inbound_nodes": [[["flatten_1", 0, 0, {}]]], "name": "dense_1"}, {"config": {"use_bias": true, "name": "dense_2", "bias_initializer": {"config": {}, "class_name": "Zeros"}, "activity_regularizer": null, "kernel_initializer": {"config": {"scale": 1.0, "distribution": "normal", "mode": "fan_avg", "seed": null}, "class_name": "VarianceScaling"}, "trainable": true, "units": 512, "kernel_regularizer": {"config": {"l2": 0.0010000000474974513, "l1": 0.0}, "class_name": "L1L2"}, "activation": "linear", "bias_constraint": null, "kernel_constraint": null, "bias_regularizer": null}, "class_name": "Dense", "inbound_nodes": [[["dense_1", 0, 0, {}]]], "name": "dense_2"}, {"config": {"use_bias": true, "name": "dense_3", "bias_initializer": {"config": {}, "class_name": "Zeros"}, "activity_regularizer": null, "kernel_initializer": {"config": {"scale": 1.0, "distribution": "normal", "mode": "fan_avg", "seed": null}, "class_name": "VarianceScaling"}, "trainable": true, "units": 100, "kernel_regularizer": {"config": {"l2": 0.0010000000474974513, "l1": 0.0}, "class_name": "L1L2"}, "activation": "linear", "bias_constraint": null, "kernel_constraint": null, "bias_regularizer": null}, "class_name": "Dense", "inbound_nodes": [[["dense_2", 0, 0, {}]]], "name": "dense_3"}, {"config": {"use_bias": true, "name": "dense_4", "bias_initializer": {"config": {}, "class_name": "Zeros"}, "activity_regularizer": null, "kernel_initializer": {"config": {"scale": 1.0, "distribution": "normal", "mode": "fan_avg", "seed": null}, "class_name": "VarianceScaling"}, "trainable": true, "units": 50, "kernel_regularizer": {"config": {"l2": 0.0010000000474974513, "l1": 0.0}, "class_name": "L1L2"}, "activation": "linear", "bias_constraint": null, "kernel_constraint": null, "bias_regularizer": null}, "class_name": "Dense", "inbound_nodes": [[["dense_3", 0, 0, {}]]], "name": "dense_4"}, {"config": {"use_bias": true, "name": "dense_5", "bias_initializer": {"config": {}, "class_name": "Zeros"}, "activity_regularizer": null, "kernel_initializer": {"config": {"scale": 1.0, "distribution": "uniform", "mode": "fan_avg", "seed": null}, "class_name": "VarianceScaling"}, "trainable": true, "units": 1, "kernel_regularizer": null, "activation": "tanh", "bias_constraint": null, "kernel_constraint": null, "bias_regularizer": null}, "class_name": "Dense", "inbound_nodes": [[["dense_4", 0, 0, {}]]], "name": "dense_5"}, {"config": {"use_bias": true, "name": "steering_output", "bias_initializer": {"config": {}, "class_name": "Zeros"}, "activity_regularizer": null, "kernel_initializer": {"config": {"scale": 1.0, "distribution": "uniform", "mode": "fan_avg", "seed": null}, "class_name": "VarianceScaling"}, "trainable": true, "units": 1, "kernel_regularizer": null, "activation": "linear", "bias_constraint": null, "kernel_constraint": null, "bias_regularizer": null}, "class_name": "Dense", "inbound_nodes": [[["dense_5", 0, 0, {}]]], "name": "steering_output"}], "name": "model_1", "output_layers": [["steering_output", 0, 0]], "input_layers": [["images", 0, 0]]}, "class_name": "Model", "backend": "tensorflow", "keras_version": "2.0.2"}