{"config": {"name": "model_1", "layers": [{"config": {"dtype": "float32", "name": "images", "sparse": false, "batch_input_shape": [null, 80, 80, 3]}, "class_name": "InputLayer", "name": "images", "inbound_nodes": []}, {"config": {"trainable": true, "name": "lambda_1", "output_shape": null, "arguments": {}, "function": ["\u00e3\u0001\u0000\u0000\u0000\u0000\u0000\u0000\u0000\u0001\u0000\u0000\u0000\u0002\u0000\u0000\u0000S\u0000\u0000\u0000s\f\u0000\u0000\u0000|\u0000\u0000d\u0001\u0000\u001bd\u0002\u0000\u0018S)\u0003Ng\u0000\u0000\u0000\u0000\u0000\u00e0_@g\u0000\u0000\u0000\u0000\u0000\u0000\u00f0?\u00a9\u0000)\u0001\u00da\u0001xr\u0001\u0000\u0000\u0000r\u0001\u0000\u0000\u0000\u00fa\bmodel.py\u00da\b<lambda>\u00f6\u0000\u0000\u0000\u00f3\u0000\u0000\u0000\u0000", null, null], "function_type": "lambda", "output_shape_type": "raw"}, "class_name": "Lambda", "name": "lambda_1", "inbound_nodes": [[["images", 0, 0, {}]]]}, {"config": {"trainable": true, "kernel_constraint": null, "bias_initializer": {"config": {}, "class_name": "Zeros"}, "kernel_regularizer": {"config": {"l2": 0.0010000000474974513, "l1": 0.0}, "class_name": "L1L2"}, "filters": 32, "kernel_initializer": {"config": {"scale": 1.0, "mode": "fan_avg", "seed": null, "distribution": "normal"}, "class_name": "VarianceScaling"}, "kernel_size": [5, 5], "activation": "linear", "padding": "same", "activity_regularizer": null, "name": "conv2d_1", "use_bias": true, "strides": [2, 2], "data_format": "channels_last", "bias_constraint": null, "bias_regularizer": null, "dilation_rate": [1, 1]}, "class_name": "Conv2D", "name": "conv2d_1", "inbound_nodes": [[["lambda_1", 0, 0, {}]]]}, {"config": {"trainable": true, "scale": true, "center": true, "epsilon": 0.001, "axis": -1, "gamma_constraint": null, "beta_initializer": {"config": {}, "class_name": "Zeros"}, "gamma_initializer": {"config": {}, "class_name": "Ones"}, "gamma_regularizer": null, "name": "batch_normalization_1", "momentum": 0.99, "beta_regularizer": null, "moving_variance_initializer": {"config": {}, "class_name": "Ones"}, "moving_mean_initializer": {"config": {}, "class_name": "Zeros"}, "beta_constraint": null}, "class_name": "BatchNormalization", "name": "batch_normalization_1", "inbound_nodes": [[["conv2d_1", 0, 0, {}]]]}, {"config": {"trainable": true, "alpha": 1.0, "name": "elu_1"}, "class_name": "ELU", "name": "elu_1", "inbound_nodes": [[["batch_normalization_1", 0, 0, {}]]]}, {"config": {"trainable": true, "kernel_constraint": null, "bias_initializer": {"config": {}, "class_name": "Zeros"}, "kernel_regularizer": {"config": {"l2": 0.0010000000474974513, "l1": 0.0}, "class_name": "L1L2"}, "filters": 32, "kernel_initializer": {"config": {"scale": 1.0, "mode": "fan_avg", "seed": null, "distribution": "normal"}, "class_name": "VarianceScaling"}, "kernel_size": [5, 5], "activation": "linear", "padding": "same", "activity_regularizer": null, "name": "conv2d_2", "use_bias": true, "strides": [2, 2], "data_format": "channels_last", "bias_constraint": null, "bias_regularizer": null, "dilation_rate": [1, 1]}, "class_name": "Conv2D", "name": "conv2d_2", "inbound_nodes": [[["elu_1", 0, 0, {}]]]}, {"config": {"trainable": true, "scale": true, "center": true, "epsilon": 0.001, "axis": -1, "gamma_constraint": null, "beta_initializer": {"config": {}, "class_name": "Zeros"}, "gamma_initializer": {"config": {}, "class_name": "Ones"}, "gamma_regularizer": null, "name": "batch_normalization_2", "momentum": 0.99, "beta_regularizer": null, "moving_variance_initializer": {"config": {}, "class_name": "Ones"}, "moving_mean_initializer": {"config": {}, "class_name": "Zeros"}, "beta_constraint": null}, "class_name": "BatchNormalization", "name": "batch_normalization_2", "inbound_nodes": [[["conv2d_2", 0, 0, {}]]]}, {"config": {"trainable": true, "alpha": 1.0, "name": "elu_2"}, "class_name": "ELU", "name": "elu_2", "inbound_nodes": [[["batch_normalization_2", 0, 0, {}]]]}, {"config": {"trainable": true, "padding": "same", "name": "average_pooling2d_1", "strides": [2, 2], "data_format": "channels_last", "pool_size": [4, 4]}, "class_name": "AveragePooling2D", "name": "average_pooling2d_1", "inbound_nodes": [[["elu_2", 0, 0, {}]]]}, {"config": {"trainable": true, "kernel_constraint": null, "bias_initializer": {"config": {}, "class_name": "Zeros"}, "kernel_regularizer": {"config": {"l2": 0.0010000000474974513, "l1": 0.0}, "class_name": "L1L2"}, "filters": 32, "kernel_initializer": {"config": {"scale": 1.0, "mode": "fan_avg", "seed": null, "distribution": "normal"}, "class_name": "VarianceScaling"}, "kernel_size": [5, 5], "activation": "linear", "padding": "same", "activity_regularizer": null, "name": "conv2d_3", "use_bias": true, "strides": [1, 1], "data_format": "channels_last", "bias_constraint": null, "bias_regularizer": null, "dilation_rate": [1, 1]}, "class_name": "Conv2D", "name": "conv2d_3", "inbound_nodes": [[["average_pooling2d_1", 0, 0, {}]]]}, {"config": {"trainable": true, "scale": true, "center": true, "epsilon": 0.001, "axis": -1, "gamma_constraint": null, "beta_initializer": {"config": {}, "class_name": "Zeros"}, "gamma_initializer": {"config": {}, "class_name": "Ones"}, "gamma_regularizer": null, "name": "batch_normalization_3", "momentum": 0.99, "beta_regularizer": null, "moving_variance_initializer": {"config": {}, "class_name": "Ones"}, "moving_mean_initializer": {"config": {}, "class_name": "Zeros"}, "beta_constraint": null}, "class_name": "BatchNormalization", "name": "batch_normalization_3", "inbound_nodes": [[["conv2d_3", 0, 0, {}]]]}, {"config": {"trainable": true, "alpha": 1.0, "name": "elu_3"}, "class_name": "ELU", "name": "elu_3", "inbound_nodes": [[["batch_normalization_3", 0, 0, {}]]]}, {"config": {"trainable": true, "name": "dropout_1", "rate": 0.5}, "class_name": "Dropout", "name": "dropout_1", "inbound_nodes": [[["elu_3", 0, 0, {}]]]}, {"config": {"trainable": true, "kernel_constraint": null, "bias_initializer": {"config": {}, "class_name": "Zeros"}, "kernel_regularizer": {"config": {"l2": 0.0010000000474974513, "l1": 0.0}, "class_name": "L1L2"}, "filters": 32, "kernel_initializer": {"config": {"scale": 1.0, "mode": "fan_avg", "seed": null, "distribution": "normal"}, "class_name": "VarianceScaling"}, "kernel_size": [5, 5], "activation": "linear", "padding": "same", "activity_regularizer": null, "name": "conv2d_4", "use_bias": true, "strides": [1, 1], "data_format": "channels_last", "bias_constraint": null, "bias_regularizer": null, "dilation_rate": [1, 1]}, "class_name": "Conv2D", "name": "conv2d_4", "inbound_nodes": [[["dropout_1", 0, 0, {}]]]}, {"config": {"trainable": true, "name": "add_1"}, "class_name": "Add", "name": "add_1", "inbound_nodes": [[["conv2d_4", 0, 0, {}], ["average_pooling2d_1", 0, 0, {}]]]}, {"config": {"trainable": true, "scale": true, "center": true, "epsilon": 0.001, "axis": -1, "gamma_constraint": null, "beta_initializer": {"config": {}, "class_name": "Zeros"}, "gamma_initializer": {"config": {}, "class_name": "Ones"}, "gamma_regularizer": null, "name": "batch_normalization_4", "momentum": 0.99, "beta_regularizer": null, "moving_variance_initializer": {"config": {}, "class_name": "Ones"}, "moving_mean_initializer": {"config": {}, "class_name": "Zeros"}, "beta_constraint": null}, "class_name": "BatchNormalization", "name": "batch_normalization_4", "inbound_nodes": [[["add_1", 0, 0, {}]]]}, {"config": {"trainable": true, "alpha": 1.0, "name": "elu_4"}, "class_name": "ELU", "name": "elu_4", "inbound_nodes": [[["batch_normalization_4", 0, 0, {}]]]}, {"config": {"trainable": true, "kernel_constraint": null, "bias_initializer": {"config": {}, "class_name": "Zeros"}, "kernel_regularizer": {"config": {"l2": 0.0010000000474974513, "l1": 0.0}, "class_name": "L1L2"}, "filters": 32, "kernel_initializer": {"config": {"scale": 1.0, "mode": "fan_avg", "seed": null, "distribution": "normal"}, "class_name": "VarianceScaling"}, "kernel_size": [5, 5], "activation": "linear", "padding": "same", "activity_regularizer": null, "name": "conv2d_5", "use_bias": true, "strides": [1, 1], "data_format": "channels_last", "bias_constraint": null, "bias_regularizer": null, "dilation_rate": [1, 1]}, "class_name": "Conv2D", "name": "conv2d_5", "inbound_nodes": [[["elu_4", 0, 0, {}]]]}, {"config": {"trainable": true, "scale": true, "center": true, "epsilon": 0.001, "axis": -1, "gamma_constraint": null, "beta_initializer": {"config": {}, "class_name": "Zeros"}, "gamma_initializer": {"config": {}, "class_name": "Ones"}, "gamma_regularizer": null, "name": "batch_normalization_5", "momentum": 0.99, "beta_regularizer": null, "moving_variance_initializer": {"config": {}, "class_name": "Ones"}, "moving_mean_initializer": {"config": {}, "class_name": "Zeros"}, "beta_constraint": null}, "class_name": "BatchNormalization", "name": "batch_normalization_5", "inbound_nodes": [[["conv2d_5", 0, 0, {}]]]}, {"config": {"trainable": true, "alpha": 1.0, "name": "elu_5"}, "class_name": "ELU", "name": "elu_5", "inbound_nodes": [[["batch_normalization_5", 0, 0, {}]]]}, {"config": {"trainable": true, "name": "dropout_2", "rate": 0.5}, "class_name": "Dropout", "name": "dropout_2", "inbound_nodes": [[["elu_5", 0, 0, {}]]]}, {"config": {"trainable": true, "kernel_constraint": null, "bias_initializer": {"config": {}, "class_name": "Zeros"}, "kernel_regularizer": {"config": {"l2": 0.0010000000474974513, "l1": 0.0}, "class_name": "L1L2"}, "filters": 32, "kernel_initializer": {"config": {"scale": 1.0, "mode": "fan_avg", "seed": null, "distribution": "normal"}, "class_name": "VarianceScaling"}, "kernel_size": [5, 5], "activation": "linear", "padding": "same", "activity_regularizer": null, "name": "conv2d_6", "use_bias": true, "strides": [1, 1], "data_format": "channels_last", "bias_constraint": null, "bias_regularizer": null, "dilation_rate": [1, 1]}, "class_name": "Conv2D", "name": "conv2d_6", "inbound_nodes": [[["dropout_2", 0, 0, {}]]]}, {"config": {"trainable": true, "name": "add_2"}, "class_name": "Add", "name": "add_2", "inbound_nodes": [[["conv2d_6", 0, 0, {}], ["elu_4", 0, 0, {}]]]}, {"config": {"trainable": true, "scale": true, "center": true, "epsilon": 0.001, "axis": -1, "gamma_constraint": null, "beta_initializer": {"config": {}, "class_name": "Zeros"}, "gamma_initializer": {"config": {}, "class_name": "Ones"}, "gamma_regularizer": null, "name": "batch_normalization_6", "momentum": 0.99, "beta_regularizer": null, "moving_variance_initializer": {"config": {}, "class_name": "Ones"}, "moving_mean_initializer": {"config": {}, "class_name": "Zeros"}, "beta_constraint": null}, "class_name": "BatchNormalization", "name": "batch_normalization_6", "inbound_nodes": [[["add_2", 0, 0, {}]]]}, {"config": {"trainable": true, "alpha": 1.0, "name": "elu_6"}, "class_name": "ELU", "name": "elu_6", "inbound_nodes": [[["batch_normalization_6", 0, 0, {}]]]}, {"config": {"trainable": true, "kernel_constraint": null, "bias_initializer": {"config": {}, "class_name": "Zeros"}, "kernel_regularizer": {"config": {"l2": 0.0010000000474974513, "l1": 0.0}, "class_name": "L1L2"}, "filters": 64, "kernel_initializer": {"config": {"scale": 1.0, "mode": "fan_avg", "seed": null, "distribution": "normal"}, "class_name": "VarianceScaling"}, "kernel_size": [5, 5], "activation": "linear", "padding": "same", "activity_regularizer": null, "name": "conv2d_7", "use_bias": true, "strides": [1, 1], "data_format": "channels_last", "bias_constraint": null, "bias_regularizer": null, "dilation_rate": [1, 1]}, "class_name": "Conv2D", "name": "conv2d_7", "inbound_nodes": [[["elu_6", 0, 0, {}]]]}, {"config": {"trainable": true, "scale": true, "center": true, "epsilon": 0.001, "axis": -1, "gamma_constraint": null, "beta_initializer": {"config": {}, "class_name": "Zeros"}, "gamma_initializer": {"config": {}, "class_name": "Ones"}, "gamma_regularizer": null, "name": "batch_normalization_7", "momentum": 0.99, "beta_regularizer": null, "moving_variance_initializer": {"config": {}, "class_name": "Ones"}, "moving_mean_initializer": {"config": {}, "class_name": "Zeros"}, "beta_constraint": null}, "class_name": "BatchNormalization", "name": "batch_normalization_7", "inbound_nodes": [[["conv2d_7", 0, 0, {}]]]}, {"config": {"trainable": true, "alpha": 1.0, "name": "elu_7"}, "class_name": "ELU", "name": "elu_7", "inbound_nodes": [[["batch_normalization_7", 0, 0, {}]]]}, {"config": {"trainable": true, "kernel_constraint": null, "bias_initializer": {"config": {}, "class_name": "Zeros"}, "kernel_regularizer": {"config": {"l2": 0.0010000000474974513, "l1": 0.0}, "class_name": "L1L2"}, "filters": 64, "kernel_initializer": {"config": {"scale": 1.0, "mode": "fan_avg", "seed": null, "distribution": "normal"}, "class_name": "VarianceScaling"}, "kernel_size": [3, 3], "activation": "linear", "padding": "same", "activity_regularizer": null, "name": "conv2d_8", "use_bias": true, "strides": [1, 1], "data_format": "channels_last", "bias_constraint": null, "bias_regularizer": null, "dilation_rate": [1, 1]}, "class_name": "Conv2D", "name": "conv2d_8", "inbound_nodes": [[["elu_7", 0, 0, {}]]]}, {"config": {"trainable": true, "scale": true, "center": true, "epsilon": 0.001, "axis": -1, "gamma_constraint": null, "beta_initializer": {"config": {}, "class_name": "Zeros"}, "gamma_initializer": {"config": {}, "class_name": "Ones"}, "gamma_regularizer": null, "name": "batch_normalization_8", "momentum": 0.99, "beta_regularizer": null, "moving_variance_initializer": {"config": {}, "class_name": "Ones"}, "moving_mean_initializer": {"config": {}, "class_name": "Zeros"}, "beta_constraint": null}, "class_name": "BatchNormalization", "name": "batch_normalization_8", "inbound_nodes": [[["conv2d_8", 0, 0, {}]]]}, {"config": {"trainable": true, "alpha": 1.0, "name": "elu_8"}, "class_name": "ELU", "name": "elu_8", "inbound_nodes": [[["batch_normalization_8", 0, 0, {}]]]}, {"config": {"trainable": true, "name": "dropout_3", "rate": 0.5}, "class_name": "Dropout", "name": "dropout_3", "inbound_nodes": [[["elu_8", 0, 0, {}]]]}, {"config": {"trainable": true, "kernel_constraint": null, "bias_initializer": {"config": {}, "class_name": "Zeros"}, "kernel_regularizer": {"config": {"l2": 0.0010000000474974513, "l1": 0.0}, "class_name": "L1L2"}, "filters": 64, "kernel_initializer": {"config": {"scale": 1.0, "mode": "fan_avg", "seed": null, "distribution": "normal"}, "class_name": "VarianceScaling"}, "kernel_size": [3, 3], "activation": "linear", "padding": "same", "activity_regularizer": null, "name": "conv2d_9", "use_bias": true, "strides": [1, 1], "data_format": "channels_last", "bias_constraint": null, "bias_regularizer": null, "dilation_rate": [1, 1]}, "class_name": "Conv2D", "name": "conv2d_9", "inbound_nodes": [[["dropout_3", 0, 0, {}]]]}, {"config": {"trainable": true, "name": "add_3"}, "class_name": "Add", "name": "add_3", "inbound_nodes": [[["conv2d_9", 0, 0, {}], ["elu_7", 0, 0, {}]]]}, {"config": {"trainable": true, "scale": true, "center": true, "epsilon": 0.001, "axis": -1, "gamma_constraint": null, "beta_initializer": {"config": {}, "class_name": "Zeros"}, "gamma_initializer": {"config": {}, "class_name": "Ones"}, "gamma_regularizer": null, "name": "batch_normalization_9", "momentum": 0.99, "beta_regularizer": null, "moving_variance_initializer": {"config": {}, "class_name": "Ones"}, "moving_mean_initializer": {"config": {}, "class_name": "Zeros"}, "beta_constraint": null}, "class_name": "BatchNormalization", "name": "batch_normalization_9", "inbound_nodes": [[["add_3", 0, 0, {}]]]}, {"config": {"trainable": true, "alpha": 1.0, "name": "elu_9"}, "class_name": "ELU", "name": "elu_9", "inbound_nodes": [[["batch_normalization_9", 0, 0, {}]]]}, {"config": {"trainable": true, "alpha": 1.0, "name": "elu_10"}, "class_name": "ELU", "name": "elu_10", "inbound_nodes": [[["elu_9", 0, 0, {}]]]}, {"config": {"trainable": true, "kernel_constraint": null, "bias_initializer": {"config": {}, "class_name": "Zeros"}, "kernel_regularizer": {"config": {"l2": 0.0010000000474974513, "l1": 0.0}, "class_name": "L1L2"}, "filters": 64, "kernel_initializer": {"config": {"scale": 1.0, "mode": "fan_avg", "seed": null, "distribution": "normal"}, "class_name": "VarianceScaling"}, "kernel_size": [3, 3], "activation": "linear", "padding": "same", "activity_regularizer": null, "name": "conv2d_10", "use_bias": true, "strides": [1, 1], "data_format": "channels_last", "bias_constraint": null, "bias_regularizer": null, "dilation_rate": [1, 1]}, "class_name": "Conv2D", "name": "conv2d_10", "inbound_nodes": [[["elu_10", 0, 0, {}]]]}, {"config": {"trainable": true, "scale": true, "center": true, "epsilon": 0.001, "axis": -1, "gamma_constraint": null, "beta_initializer": {"config": {}, "class_name": "Zeros"}, "gamma_initializer": {"config": {}, "class_name": "Ones"}, "gamma_regularizer": null, "name": "batch_normalization_10", "momentum": 0.99, "beta_regularizer": null, "moving_variance_initializer": {"config": {}, "class_name": "Ones"}, "moving_mean_initializer": {"config": {}, "class_name": "Zeros"}, "beta_constraint": null}, "class_name": "BatchNormalization", "name": "batch_normalization_10", "inbound_nodes": [[["conv2d_10", 0, 0, {}]]]}, {"config": {"trainable": true, "alpha": 1.0, "name": "elu_11"}, "class_name": "ELU", "name": "elu_11", "inbound_nodes": [[["batch_normalization_10", 0, 0, {}]]]}, {"config": {"trainable": true, "name": "dropout_4", "rate": 0.5}, "class_name": "Dropout", "name": "dropout_4", "inbound_nodes": [[["elu_11", 0, 0, {}]]]}, {"config": {"trainable": true, "kernel_constraint": null, "bias_initializer": {"config": {}, "class_name": "Zeros"}, "kernel_regularizer": {"config": {"l2": 0.0010000000474974513, "l1": 0.0}, "class_name": "L1L2"}, "filters": 64, "kernel_initializer": {"config": {"scale": 1.0, "mode": "fan_avg", "seed": null, "distribution": "normal"}, "class_name": "VarianceScaling"}, "kernel_size": [3, 3], "activation": "linear", "padding": "same", "activity_regularizer": null, "name": "conv2d_11", "use_bias": true, "strides": [1, 1], "data_format": "channels_last", "bias_constraint": null, "bias_regularizer": null, "dilation_rate": [1, 1]}, "class_name": "Conv2D", "name": "conv2d_11", "inbound_nodes": [[["dropout_4", 0, 0, {}]]]}, {"config": {"trainable": true, "name": "add_4"}, "class_name": "Add", "name": "add_4", "inbound_nodes": [[["conv2d_11", 0, 0, {}], ["elu_10", 0, 0, {}]]]}, {"config": {"trainable": true, "scale": true, "center": true, "epsilon": 0.001, "axis": -1, "gamma_constraint": null, "beta_initializer": {"config": {}, "class_name": "Zeros"}, "gamma_initializer": {"config": {}, "class_name": "Ones"}, "gamma_regularizer": null, "name": "batch_normalization_11", "momentum": 0.99, "beta_regularizer": null, "moving_variance_initializer": {"config": {}, "class_name": "Ones"}, "moving_mean_initializer": {"config": {}, "class_name": "Zeros"}, "beta_constraint": null}, "class_name": "BatchNormalization", "name": "batch_normalization_11", "inbound_nodes": [[["add_4", 0, 0, {}]]]}, {"config": {"trainable": true, "alpha": 1.0, "name": "elu_12"}, "class_name": "ELU", "name": "elu_12", "inbound_nodes": [[["batch_normalization_11", 0, 0, {}]]]}, {"config": {"trainable": true, "kernel_constraint": null, "bias_initializer": {"config": {}, "class_name": "Zeros"}, "kernel_regularizer": {"config": {"l2": 0.0010000000474974513, "l1": 0.0}, "class_name": "L1L2"}, "filters": 64, "kernel_initializer": {"config": {"scale": 1.0, "mode": "fan_avg", "seed": null, "distribution": "normal"}, "class_name": "VarianceScaling"}, "kernel_size": [3, 3], "activation": "linear", "padding": "same", "activity_regularizer": null, "name": "conv2d_12", "use_bias": true, "strides": [1, 1], "data_format": "channels_last", "bias_constraint": null, "bias_regularizer": null, "dilation_rate": [1, 1]}, "class_name": "Conv2D", "name": "conv2d_12", "inbound_nodes": [[["elu_12", 0, 0, {}]]]}, {"config": {"trainable": true, "scale": true, "center": true, "epsilon": 0.001, "axis": -1, "gamma_constraint": null, "beta_initializer": {"config": {}, "class_name": "Zeros"}, "gamma_initializer": {"config": {}, "class_name": "Ones"}, "gamma_regularizer": null, "name": "batch_normalization_12", "momentum": 0.99, "beta_regularizer": null, "moving_variance_initializer": {"config": {}, "class_name": "Ones"}, "moving_mean_initializer": {"config": {}, "class_name": "Zeros"}, "beta_constraint": null}, "class_name": "BatchNormalization", "name": "batch_normalization_12", "inbound_nodes": [[["conv2d_12", 0, 0, {}]]]}, {"config": {"trainable": true, "alpha": 1.0, "name": "elu_13"}, "class_name": "ELU", "name": "elu_13", "inbound_nodes": [[["batch_normalization_12", 0, 0, {}]]]}, {"config": {"trainable": true, "name": "dropout_5", "rate": 0.5}, "class_name": "Dropout", "name": "dropout_5", "inbound_nodes": [[["elu_13", 0, 0, {}]]]}, {"config": {"trainable": true, "kernel_constraint": null, "bias_initializer": {"config": {}, "class_name": "Zeros"}, "kernel_regularizer": {"config": {"l2": 0.0010000000474974513, "l1": 0.0}, "class_name": "L1L2"}, "filters": 64, "kernel_initializer": {"config": {"scale": 1.0, "mode": "fan_avg", "seed": null, "distribution": "normal"}, "class_name": "VarianceScaling"}, "kernel_size": [3, 3], "activation": "linear", "padding": "same", "activity_regularizer": null, "name": "conv2d_13", "use_bias": true, "strides": [1, 1], "data_format": "channels_last", "bias_constraint": null, "bias_regularizer": null, "dilation_rate": [1, 1]}, "class_name": "Conv2D", "name": "conv2d_13", "inbound_nodes": [[["dropout_5", 0, 0, {}]]]}, {"config": {"trainable": true, "name": "add_5"}, "class_name": "Add", "name": "add_5", "inbound_nodes": [[["conv2d_13", 0, 0, {}], ["elu_12", 0, 0, {}]]]}, {"config": {"trainable": true, "scale": true, "center": true, "epsilon": 0.001, "axis": -1, "gamma_constraint": null, "beta_initializer": {"config": {}, "class_name": "Zeros"}, "gamma_initializer": {"config": {}, "class_name": "Ones"}, "gamma_regularizer": null, "name": "batch_normalization_13", "momentum": 0.99, "beta_regularizer": null, "moving_variance_initializer": {"config": {}, "class_name": "Ones"}, "moving_mean_initializer": {"config": {}, "class_name": "Zeros"}, "beta_constraint": null}, "class_name": "BatchNormalization", "name": "batch_normalization_13", "inbound_nodes": [[["add_5", 0, 0, {}]]]}, {"config": {"trainable": true, "alpha": 1.0, "name": "elu_14"}, "class_name": "ELU", "name": "elu_14", "inbound_nodes": [[["batch_normalization_13", 0, 0, {}]]]}, {"config": {"trainable": true, "kernel_constraint": null, "bias_initializer": {"config": {}, "class_name": "Zeros"}, "kernel_regularizer": {"config": {"l2": 0.0010000000474974513, "l1": 0.0}, "class_name": "L1L2"}, "filters": 256, "kernel_initializer": {"config": {"scale": 1.0, "mode": "fan_avg", "seed": null, "distribution": "normal"}, "class_name": "VarianceScaling"}, "kernel_size": [3, 3], "activation": "linear", "padding": "same", "activity_regularizer": null, "name": "conv2d_14", "use_bias": true, "strides": [1, 1], "data_format": "channels_last", "bias_constraint": null, "bias_regularizer": null, "dilation_rate": [1, 1]}, "class_name": "Conv2D", "name": "conv2d_14", "inbound_nodes": [[["elu_14", 0, 0, {}]]]}, {"config": {"trainable": true, "scale": true, "center": true, "epsilon": 0.001, "axis": -1, "gamma_constraint": null, "beta_initializer": {"config": {}, "class_name": "Zeros"}, "gamma_initializer": {"config": {}, "class_name": "Ones"}, "gamma_regularizer": null, "name": "batch_normalization_14", "momentum": 0.99, "beta_regularizer": null, "moving_variance_initializer": {"config": {}, "class_name": "Ones"}, "moving_mean_initializer": {"config": {}, "class_name": "Zeros"}, "beta_constraint": null}, "class_name": "BatchNormalization", "name": "batch_normalization_14", "inbound_nodes": [[["conv2d_14", 0, 0, {}]]]}, {"config": {"trainable": true, "alpha": 1.0, "name": "elu_15"}, "class_name": "ELU", "name": "elu_15", "inbound_nodes": [[["batch_normalization_14", 0, 0, {}]]]}, {"config": {"trainable": true, "padding": "valid", "name": "average_pooling2d_2", "strides": [2, 2], "data_format": "channels_last", "pool_size": [4, 4]}, "class_name": "AveragePooling2D", "name": "average_pooling2d_2", "inbound_nodes": [[["elu_15", 0, 0, {}]]]}, {"config": {"trainable": true, "name": "flatten_1"}, "class_name": "Flatten", "name": "flatten_1", "inbound_nodes": [[["average_pooling2d_2", 0, 0, {}]]]}, {"config": {"trainable": true, "kernel_constraint": null, "bias_initializer": {"config": {}, "class_name": "Zeros"}, "kernel_regularizer": {"config": {"l2": 0.0010000000474974513, "l1": 0.0}, "class_name": "L1L2"}, "kernel_initializer": {"config": {"scale": 1.0, "mode": "fan_avg", "seed": null, "distribution": "normal"}, "class_name": "VarianceScaling"}, "units": 1164, "activation": "elu", "activity_regularizer": null, "name": "dense_1", "use_bias": true, "bias_constraint": null, "bias_regularizer": null}, "class_name": "Dense", "name": "dense_1", "inbound_nodes": [[["flatten_1", 0, 0, {}]]]}, {"config": {"trainable": true, "kernel_constraint": null, "bias_initializer": {"config": {}, "class_name": "Zeros"}, "kernel_regularizer": {"config": {"l2": 0.0010000000474974513, "l1": 0.0}, "class_name": "L1L2"}, "kernel_initializer": {"config": {"scale": 1.0, "mode": "fan_avg", "seed": null, "distribution": "normal"}, "class_name": "VarianceScaling"}, "units": 512, "activation": "linear", "activity_regularizer": null, "name": "dense_2", "use_bias": true, "bias_constraint": null, "bias_regularizer": null}, "class_name": "Dense", "name": "dense_2", "inbound_nodes": [[["dense_1", 0, 0, {}]]]}, {"config": {"trainable": true, "kernel_constraint": null, "bias_initializer": {"config": {}, "class_name": "Zeros"}, "kernel_regularizer": {"config": {"l2": 0.0010000000474974513, "l1": 0.0}, "class_name": "L1L2"}, "kernel_initializer": {"config": {"scale": 1.0, "mode": "fan_avg", "seed": null, "distribution": "normal"}, "class_name": "VarianceScaling"}, "units": 100, "activation": "linear", "activity_regularizer": null, "name": "dense_3", "use_bias": true, "bias_constraint": null, "bias_regularizer": null}, "class_name": "Dense", "name": "dense_3", "inbound_nodes": [[["dense_2", 0, 0, {}]]]}, {"config": {"trainable": true, "kernel_constraint": null, "bias_initializer": {"config": {}, "class_name": "Zeros"}, "kernel_regularizer": {"config": {"l2": 0.0010000000474974513, "l1": 0.0}, "class_name": "L1L2"}, "kernel_initializer": {"config": {"scale": 1.0, "mode": "fan_avg", "seed": null, "distribution": "normal"}, "class_name": "VarianceScaling"}, "units": 50, "activation": "linear", "activity_regularizer": null, "name": "dense_4", "use_bias": true, "bias_constraint": null, "bias_regularizer": null}, "class_name": "Dense", "name": "dense_4", "inbound_nodes": [[["dense_3", 0, 0, {}]]]}, {"config": {"trainable": true, "kernel_constraint": null, "bias_initializer": {"config": {}, "class_name": "Zeros"}, "kernel_regularizer": null, "kernel_initializer": {"config": {"scale": 1.0, "mode": "fan_avg", "seed": null, "distribution": "uniform"}, "class_name": "VarianceScaling"}, "units": 1, "activation": "tanh", "activity_regularizer": null, "name": "dense_5", "use_bias": true, "bias_constraint": null, "bias_regularizer": null}, "class_name": "Dense", "name": "dense_5", "inbound_nodes": [[["dense_4", 0, 0, {}]]]}, {"config": {"trainable": true, "kernel_constraint": null, "bias_initializer": {"config": {}, "class_name": "Zeros"}, "kernel_regularizer": null, "kernel_initializer": {"config": {"scale": 1.0, "mode": "fan_avg", "seed": null, "distribution": "uniform"}, "class_name": "VarianceScaling"}, "units": 1, "activation": "linear", "activity_regularizer": null, "name": "steering_output", "use_bias": true, "bias_constraint": null, "bias_regularizer": null}, "class_name": "Dense", "name": "steering_output", "inbound_nodes": [[["dense_5", 0, 0, {}]]]}], "input_layers": [["images", 0, 0]], "output_layers": [["steering_output", 0, 0]]}, "class_name": "Model", "backend": "tensorflow", "keras_version": "2.0.2"}