{"backend": "tensorflow", "config": {"input_layers": [["images", 0, 0]], "name": "model_1", "layers": [{"name": "images", "config": {"dtype": "float32", "sparse": false, "batch_input_shape": [null, 80, 80, 3], "name": "images"}, "class_name": "InputLayer", "inbound_nodes": []}, {"name": "lambda_1", "config": {"function_type": "lambda", "arguments": {}, "function": ["\u00e3\u0001\u0000\u0000\u0000\u0000\u0000\u0000\u0000\u0001\u0000\u0000\u0000\u0002\u0000\u0000\u0000S\u0000\u0000\u0000s\f\u0000\u0000\u0000|\u0000\u0000d\u0001\u0000\u001bd\u0002\u0000\u0018S)\u0003Ng\u0000\u0000\u0000\u0000\u0000\u00e0_@g\u0000\u0000\u0000\u0000\u0000\u0000\u00f0?\u00a9\u0000)\u0001\u00da\u0001xr\u0001\u0000\u0000\u0000r\u0001\u0000\u0000\u0000\u00fa\bmodel.py\u00da\b<lambda>+\u0001\u0000\u0000\u00f3\u0000\u0000\u0000\u0000", null, null], "name": "lambda_1", "trainable": true, "output_shape_type": "raw", "output_shape": null}, "class_name": "Lambda", "inbound_nodes": [[["images", 0, 0, {}]]]}, {"name": "conv2d_1", "config": {"activity_regularizer": null, "data_format": "channels_last", "use_bias": true, "kernel_constraint": {"config": {"max_value": 2.0, "axis": 0}, "class_name": "MaxNorm"}, "bias_constraint": null, "trainable": true, "activation": "linear", "kernel_initializer": {"config": {"distribution": "normal", "mode": "fan_avg", "scale": 1.0, "seed": null}, "class_name": "VarianceScaling"}, "filters": 32, "bias_regularizer": null, "padding": "same", "name": "conv2d_1", "strides": [2, 2], "kernel_regularizer": null, "dilation_rate": [1, 1], "bias_initializer": {"config": {}, "class_name": "Zeros"}, "kernel_size": [5, 5]}, "class_name": "Conv2D", "inbound_nodes": [[["lambda_1", 0, 0, {}]]]}, {"name": "batch_normalization_1", "config": {"epsilon": 0.001, "gamma_regularizer": null, "momentum": 0.99, "beta_constraint": null, "center": true, "axis": -1, "moving_mean_initializer": {"config": {}, "class_name": "Zeros"}, "scale": true, "gamma_initializer": {"config": {}, "class_name": "Ones"}, "beta_regularizer": null, "moving_variance_initializer": {"config": {}, "class_name": "Ones"}, "trainable": true, "name": "batch_normalization_1", "gamma_constraint": null, "beta_initializer": {"config": {}, "class_name": "Zeros"}}, "class_name": "BatchNormalization", "inbound_nodes": [[["conv2d_1", 0, 0, {}]]]}, {"name": "elu_1", "config": {"alpha": 1.0, "name": "elu_1", "trainable": true}, "class_name": "ELU", "inbound_nodes": [[["batch_normalization_1", 0, 0, {}]]]}, {"name": "conv2d_2", "config": {"activity_regularizer": null, "data_format": "channels_last", "use_bias": true, "kernel_constraint": {"config": {"max_value": 2.0, "axis": 0}, "class_name": "MaxNorm"}, "bias_constraint": null, "trainable": true, "activation": "linear", "kernel_initializer": {"config": {"distribution": "normal", "mode": "fan_avg", "scale": 1.0, "seed": null}, "class_name": "VarianceScaling"}, "filters": 32, "bias_regularizer": null, "padding": "same", "name": "conv2d_2", "strides": [2, 2], "kernel_regularizer": null, "dilation_rate": [1, 1], "bias_initializer": {"config": {}, "class_name": "Zeros"}, "kernel_size": [5, 5]}, "class_name": "Conv2D", "inbound_nodes": [[["elu_1", 0, 0, {}]]]}, {"name": "batch_normalization_2", "config": {"epsilon": 0.001, "gamma_regularizer": null, "momentum": 0.99, "beta_constraint": null, "center": true, "axis": -1, "moving_mean_initializer": {"config": {}, "class_name": "Zeros"}, "scale": true, "gamma_initializer": {"config": {}, "class_name": "Ones"}, "beta_regularizer": null, "moving_variance_initializer": {"config": {}, "class_name": "Ones"}, "trainable": true, "name": "batch_normalization_2", "gamma_constraint": null, "beta_initializer": {"config": {}, "class_name": "Zeros"}}, "class_name": "BatchNormalization", "inbound_nodes": [[["conv2d_2", 0, 0, {}]]]}, {"name": "elu_2", "config": {"alpha": 1.0, "name": "elu_2", "trainable": true}, "class_name": "ELU", "inbound_nodes": [[["batch_normalization_2", 0, 0, {}]]]}, {"name": "average_pooling2d_1", "config": {"padding": "same", "name": "average_pooling2d_1", "strides": [2, 2], "trainable": true, "pool_size": [4, 4], "data_format": "channels_last"}, "class_name": "AveragePooling2D", "inbound_nodes": [[["elu_2", 0, 0, {}]]]}, {"name": "conv2d_3", "config": {"activity_regularizer": null, "data_format": "channels_last", "use_bias": true, "kernel_constraint": {"config": {"max_value": 2.0, "axis": 0}, "class_name": "MaxNorm"}, "bias_constraint": null, "trainable": true, "activation": "linear", "kernel_initializer": {"config": {"distribution": "normal", "mode": "fan_avg", "scale": 1.0, "seed": null}, "class_name": "VarianceScaling"}, "filters": 32, "bias_regularizer": null, "padding": "same", "name": "conv2d_3", "strides": [1, 1], "kernel_regularizer": null, "dilation_rate": [1, 1], "bias_initializer": {"config": {}, "class_name": "Zeros"}, "kernel_size": [5, 5]}, "class_name": "Conv2D", "inbound_nodes": [[["average_pooling2d_1", 0, 0, {}]]]}, {"name": "batch_normalization_3", "config": {"epsilon": 0.001, "gamma_regularizer": null, "momentum": 0.99, "beta_constraint": null, "center": true, "axis": -1, "moving_mean_initializer": {"config": {}, "class_name": "Zeros"}, "scale": true, "gamma_initializer": {"config": {}, "class_name": "Ones"}, "beta_regularizer": null, "moving_variance_initializer": {"config": {}, "class_name": "Ones"}, "trainable": true, "name": "batch_normalization_3", "gamma_constraint": null, "beta_initializer": {"config": {}, "class_name": "Zeros"}}, "class_name": "BatchNormalization", "inbound_nodes": [[["conv2d_3", 0, 0, {}]]]}, {"name": "elu_3", "config": {"alpha": 1.0, "name": "elu_3", "trainable": true}, "class_name": "ELU", "inbound_nodes": [[["batch_normalization_3", 0, 0, {}]]]}, {"name": "dropout_1", "config": {"name": "dropout_1", "rate": 0.5, "trainable": true}, "class_name": "Dropout", "inbound_nodes": [[["elu_3", 0, 0, {}]]]}, {"name": "conv2d_4", "config": {"activity_regularizer": null, "data_format": "channels_last", "use_bias": true, "kernel_constraint": {"config": {"max_value": 2.0, "axis": 0}, "class_name": "MaxNorm"}, "bias_constraint": null, "trainable": true, "activation": "linear", "kernel_initializer": {"config": {"distribution": "normal", "mode": "fan_avg", "scale": 1.0, "seed": null}, "class_name": "VarianceScaling"}, "filters": 32, "bias_regularizer": null, "padding": "same", "name": "conv2d_4", "strides": [1, 1], "kernel_regularizer": null, "dilation_rate": [1, 1], "bias_initializer": {"config": {}, "class_name": "Zeros"}, "kernel_size": [5, 5]}, "class_name": "Conv2D", "inbound_nodes": [[["dropout_1", 0, 0, {}]]]}, {"name": "add_1", "config": {"name": "add_1", "trainable": true}, "class_name": "Add", "inbound_nodes": [[["conv2d_4", 0, 0, {}], ["average_pooling2d_1", 0, 0, {}]]]}, {"name": "batch_normalization_4", "config": {"epsilon": 0.001, "gamma_regularizer": null, "momentum": 0.99, "beta_constraint": null, "center": true, "axis": -1, "moving_mean_initializer": {"config": {}, "class_name": "Zeros"}, "scale": true, "gamma_initializer": {"config": {}, "class_name": "Ones"}, "beta_regularizer": null, "moving_variance_initializer": {"config": {}, "class_name": "Ones"}, "trainable": true, "name": "batch_normalization_4", "gamma_constraint": null, "beta_initializer": {"config": {}, "class_name": "Zeros"}}, "class_name": "BatchNormalization", "inbound_nodes": [[["add_1", 0, 0, {}]]]}, {"name": "elu_4", "config": {"alpha": 1.0, "name": "elu_4", "trainable": true}, "class_name": "ELU", "inbound_nodes": [[["batch_normalization_4", 0, 0, {}]]]}, {"name": "conv2d_5", "config": {"activity_regularizer": null, "data_format": "channels_last", "use_bias": true, "kernel_constraint": {"config": {"max_value": 2.0, "axis": 0}, "class_name": "MaxNorm"}, "bias_constraint": null, "trainable": true, "activation": "linear", "kernel_initializer": {"config": {"distribution": "normal", "mode": "fan_avg", "scale": 1.0, "seed": null}, "class_name": "VarianceScaling"}, "filters": 32, "bias_regularizer": null, "padding": "same", "name": "conv2d_5", "strides": [1, 1], "kernel_regularizer": null, "dilation_rate": [1, 1], "bias_initializer": {"config": {}, "class_name": "Zeros"}, "kernel_size": [5, 5]}, "class_name": "Conv2D", "inbound_nodes": [[["elu_4", 0, 0, {}]]]}, {"name": "batch_normalization_5", "config": {"epsilon": 0.001, "gamma_regularizer": null, "momentum": 0.99, "beta_constraint": null, "center": true, "axis": -1, "moving_mean_initializer": {"config": {}, "class_name": "Zeros"}, "scale": true, "gamma_initializer": {"config": {}, "class_name": "Ones"}, "beta_regularizer": null, "moving_variance_initializer": {"config": {}, "class_name": "Ones"}, "trainable": true, "name": "batch_normalization_5", "gamma_constraint": null, "beta_initializer": {"config": {}, "class_name": "Zeros"}}, "class_name": "BatchNormalization", "inbound_nodes": [[["conv2d_5", 0, 0, {}]]]}, {"name": "elu_5", "config": {"alpha": 1.0, "name": "elu_5", "trainable": true}, "class_name": "ELU", "inbound_nodes": [[["batch_normalization_5", 0, 0, {}]]]}, {"name": "dropout_2", "config": {"name": "dropout_2", "rate": 0.5, "trainable": true}, "class_name": "Dropout", "inbound_nodes": [[["elu_5", 0, 0, {}]]]}, {"name": "conv2d_6", "config": {"activity_regularizer": null, "data_format": "channels_last", "use_bias": true, "kernel_constraint": {"config": {"max_value": 2.0, "axis": 0}, "class_name": "MaxNorm"}, "bias_constraint": null, "trainable": true, "activation": "linear", "kernel_initializer": {"config": {"distribution": "normal", "mode": "fan_avg", "scale": 1.0, "seed": null}, "class_name": "VarianceScaling"}, "filters": 32, "bias_regularizer": null, "padding": "same", "name": "conv2d_6", "strides": [1, 1], "kernel_regularizer": null, "dilation_rate": [1, 1], "bias_initializer": {"config": {}, "class_name": "Zeros"}, "kernel_size": [5, 5]}, "class_name": "Conv2D", "inbound_nodes": [[["dropout_2", 0, 0, {}]]]}, {"name": "add_2", "config": {"name": "add_2", "trainable": true}, "class_name": "Add", "inbound_nodes": [[["conv2d_6", 0, 0, {}], ["elu_4", 0, 0, {}]]]}, {"name": "batch_normalization_6", "config": {"epsilon": 0.001, "gamma_regularizer": null, "momentum": 0.99, "beta_constraint": null, "center": true, "axis": -1, "moving_mean_initializer": {"config": {}, "class_name": "Zeros"}, "scale": true, "gamma_initializer": {"config": {}, "class_name": "Ones"}, "beta_regularizer": null, "moving_variance_initializer": {"config": {}, "class_name": "Ones"}, "trainable": true, "name": "batch_normalization_6", "gamma_constraint": null, "beta_initializer": {"config": {}, "class_name": "Zeros"}}, "class_name": "BatchNormalization", "inbound_nodes": [[["add_2", 0, 0, {}]]]}, {"name": "elu_6", "config": {"alpha": 1.0, "name": "elu_6", "trainable": true}, "class_name": "ELU", "inbound_nodes": [[["batch_normalization_6", 0, 0, {}]]]}, {"name": "conv2d_7", "config": {"activity_regularizer": null, "data_format": "channels_last", "use_bias": true, "kernel_constraint": {"config": {"max_value": 2.0, "axis": 0}, "class_name": "MaxNorm"}, "bias_constraint": null, "trainable": true, "activation": "linear", "kernel_initializer": {"config": {"distribution": "normal", "mode": "fan_avg", "scale": 1.0, "seed": null}, "class_name": "VarianceScaling"}, "filters": 64, "bias_regularizer": null, "padding": "same", "name": "conv2d_7", "strides": [1, 1], "kernel_regularizer": null, "dilation_rate": [1, 1], "bias_initializer": {"config": {}, "class_name": "Zeros"}, "kernel_size": [5, 5]}, "class_name": "Conv2D", "inbound_nodes": [[["elu_6", 0, 0, {}]]]}, {"name": "batch_normalization_7", "config": {"epsilon": 0.001, "gamma_regularizer": null, "momentum": 0.99, "beta_constraint": null, "center": true, "axis": -1, "moving_mean_initializer": {"config": {}, "class_name": "Zeros"}, "scale": true, "gamma_initializer": {"config": {}, "class_name": "Ones"}, "beta_regularizer": null, "moving_variance_initializer": {"config": {}, "class_name": "Ones"}, "trainable": true, "name": "batch_normalization_7", "gamma_constraint": null, "beta_initializer": {"config": {}, "class_name": "Zeros"}}, "class_name": "BatchNormalization", "inbound_nodes": [[["conv2d_7", 0, 0, {}]]]}, {"name": "elu_7", "config": {"alpha": 1.0, "name": "elu_7", "trainable": true}, "class_name": "ELU", "inbound_nodes": [[["batch_normalization_7", 0, 0, {}]]]}, {"name": "conv2d_8", "config": {"activity_regularizer": null, "data_format": "channels_last", "use_bias": true, "kernel_constraint": {"config": {"max_value": 2.0, "axis": 0}, "class_name": "MaxNorm"}, "bias_constraint": null, "trainable": true, "activation": "linear", "kernel_initializer": {"config": {"distribution": "normal", "mode": "fan_avg", "scale": 1.0, "seed": null}, "class_name": "VarianceScaling"}, "filters": 64, "bias_regularizer": null, "padding": "same", "name": "conv2d_8", "strides": [1, 1], "kernel_regularizer": null, "dilation_rate": [1, 1], "bias_initializer": {"config": {}, "class_name": "Zeros"}, "kernel_size": [3, 3]}, "class_name": "Conv2D", "inbound_nodes": [[["elu_7", 0, 0, {}]]]}, {"name": "batch_normalization_8", "config": {"epsilon": 0.001, "gamma_regularizer": null, "momentum": 0.99, "beta_constraint": null, "center": true, "axis": -1, "moving_mean_initializer": {"config": {}, "class_name": "Zeros"}, "scale": true, "gamma_initializer": {"config": {}, "class_name": "Ones"}, "beta_regularizer": null, "moving_variance_initializer": {"config": {}, "class_name": "Ones"}, "trainable": true, "name": "batch_normalization_8", "gamma_constraint": null, "beta_initializer": {"config": {}, "class_name": "Zeros"}}, "class_name": "BatchNormalization", "inbound_nodes": [[["conv2d_8", 0, 0, {}]]]}, {"name": "elu_8", "config": {"alpha": 1.0, "name": "elu_8", "trainable": true}, "class_name": "ELU", "inbound_nodes": [[["batch_normalization_8", 0, 0, {}]]]}, {"name": "dropout_3", "config": {"name": "dropout_3", "rate": 0.5, "trainable": true}, "class_name": "Dropout", "inbound_nodes": [[["elu_8", 0, 0, {}]]]}, {"name": "conv2d_9", "config": {"activity_regularizer": null, "data_format": "channels_last", "use_bias": true, "kernel_constraint": {"config": {"max_value": 2.0, "axis": 0}, "class_name": "MaxNorm"}, "bias_constraint": null, "trainable": true, "activation": "linear", "kernel_initializer": {"config": {"distribution": "normal", "mode": "fan_avg", "scale": 1.0, "seed": null}, "class_name": "VarianceScaling"}, "filters": 64, "bias_regularizer": null, "padding": "same", "name": "conv2d_9", "strides": [1, 1], "kernel_regularizer": null, "dilation_rate": [1, 1], "bias_initializer": {"config": {}, "class_name": "Zeros"}, "kernel_size": [3, 3]}, "class_name": "Conv2D", "inbound_nodes": [[["dropout_3", 0, 0, {}]]]}, {"name": "add_3", "config": {"name": "add_3", "trainable": true}, "class_name": "Add", "inbound_nodes": [[["conv2d_9", 0, 0, {}], ["elu_7", 0, 0, {}]]]}, {"name": "batch_normalization_9", "config": {"epsilon": 0.001, "gamma_regularizer": null, "momentum": 0.99, "beta_constraint": null, "center": true, "axis": -1, "moving_mean_initializer": {"config": {}, "class_name": "Zeros"}, "scale": true, "gamma_initializer": {"config": {}, "class_name": "Ones"}, "beta_regularizer": null, "moving_variance_initializer": {"config": {}, "class_name": "Ones"}, "trainable": true, "name": "batch_normalization_9", "gamma_constraint": null, "beta_initializer": {"config": {}, "class_name": "Zeros"}}, "class_name": "BatchNormalization", "inbound_nodes": [[["add_3", 0, 0, {}]]]}, {"name": "elu_9", "config": {"alpha": 1.0, "name": "elu_9", "trainable": true}, "class_name": "ELU", "inbound_nodes": [[["batch_normalization_9", 0, 0, {}]]]}, {"name": "elu_10", "config": {"alpha": 1.0, "name": "elu_10", "trainable": true}, "class_name": "ELU", "inbound_nodes": [[["elu_9", 0, 0, {}]]]}, {"name": "conv2d_10", "config": {"activity_regularizer": null, "data_format": "channels_last", "use_bias": true, "kernel_constraint": {"config": {"max_value": 2.0, "axis": 0}, "class_name": "MaxNorm"}, "bias_constraint": null, "trainable": true, "activation": "linear", "kernel_initializer": {"config": {"distribution": "normal", "mode": "fan_avg", "scale": 1.0, "seed": null}, "class_name": "VarianceScaling"}, "filters": 64, "bias_regularizer": null, "padding": "same", "name": "conv2d_10", "strides": [1, 1], "kernel_regularizer": null, "dilation_rate": [1, 1], "bias_initializer": {"config": {}, "class_name": "Zeros"}, "kernel_size": [3, 3]}, "class_name": "Conv2D", "inbound_nodes": [[["elu_10", 0, 0, {}]]]}, {"name": "batch_normalization_10", "config": {"epsilon": 0.001, "gamma_regularizer": null, "momentum": 0.99, "beta_constraint": null, "center": true, "axis": -1, "moving_mean_initializer": {"config": {}, "class_name": "Zeros"}, "scale": true, "gamma_initializer": {"config": {}, "class_name": "Ones"}, "beta_regularizer": null, "moving_variance_initializer": {"config": {}, "class_name": "Ones"}, "trainable": true, "name": "batch_normalization_10", "gamma_constraint": null, "beta_initializer": {"config": {}, "class_name": "Zeros"}}, "class_name": "BatchNormalization", "inbound_nodes": [[["conv2d_10", 0, 0, {}]]]}, {"name": "elu_11", "config": {"alpha": 1.0, "name": "elu_11", "trainable": true}, "class_name": "ELU", "inbound_nodes": [[["batch_normalization_10", 0, 0, {}]]]}, {"name": "dropout_4", "config": {"name": "dropout_4", "rate": 0.5, "trainable": true}, "class_name": "Dropout", "inbound_nodes": [[["elu_11", 0, 0, {}]]]}, {"name": "conv2d_11", "config": {"activity_regularizer": null, "data_format": "channels_last", "use_bias": true, "kernel_constraint": {"config": {"max_value": 2.0, "axis": 0}, "class_name": "MaxNorm"}, "bias_constraint": null, "trainable": true, "activation": "linear", "kernel_initializer": {"config": {"distribution": "normal", "mode": "fan_avg", "scale": 1.0, "seed": null}, "class_name": "VarianceScaling"}, "filters": 64, "bias_regularizer": null, "padding": "same", "name": "conv2d_11", "strides": [1, 1], "kernel_regularizer": null, "dilation_rate": [1, 1], "bias_initializer": {"config": {}, "class_name": "Zeros"}, "kernel_size": [3, 3]}, "class_name": "Conv2D", "inbound_nodes": [[["dropout_4", 0, 0, {}]]]}, {"name": "add_4", "config": {"name": "add_4", "trainable": true}, "class_name": "Add", "inbound_nodes": [[["conv2d_11", 0, 0, {}], ["elu_10", 0, 0, {}]]]}, {"name": "batch_normalization_11", "config": {"epsilon": 0.001, "gamma_regularizer": null, "momentum": 0.99, "beta_constraint": null, "center": true, "axis": -1, "moving_mean_initializer": {"config": {}, "class_name": "Zeros"}, "scale": true, "gamma_initializer": {"config": {}, "class_name": "Ones"}, "beta_regularizer": null, "moving_variance_initializer": {"config": {}, "class_name": "Ones"}, "trainable": true, "name": "batch_normalization_11", "gamma_constraint": null, "beta_initializer": {"config": {}, "class_name": "Zeros"}}, "class_name": "BatchNormalization", "inbound_nodes": [[["add_4", 0, 0, {}]]]}, {"name": "elu_12", "config": {"alpha": 1.0, "name": "elu_12", "trainable": true}, "class_name": "ELU", "inbound_nodes": [[["batch_normalization_11", 0, 0, {}]]]}, {"name": "conv2d_12", "config": {"activity_regularizer": null, "data_format": "channels_last", "use_bias": true, "kernel_constraint": {"config": {"max_value": 2.0, "axis": 0}, "class_name": "MaxNorm"}, "bias_constraint": null, "trainable": true, "activation": "linear", "kernel_initializer": {"config": {"distribution": "normal", "mode": "fan_avg", "scale": 1.0, "seed": null}, "class_name": "VarianceScaling"}, "filters": 64, "bias_regularizer": null, "padding": "same", "name": "conv2d_12", "strides": [1, 1], "kernel_regularizer": null, "dilation_rate": [1, 1], "bias_initializer": {"config": {}, "class_name": "Zeros"}, "kernel_size": [3, 3]}, "class_name": "Conv2D", "inbound_nodes": [[["elu_12", 0, 0, {}]]]}, {"name": "batch_normalization_12", "config": {"epsilon": 0.001, "gamma_regularizer": null, "momentum": 0.99, "beta_constraint": null, "center": true, "axis": -1, "moving_mean_initializer": {"config": {}, "class_name": "Zeros"}, "scale": true, "gamma_initializer": {"config": {}, "class_name": "Ones"}, "beta_regularizer": null, "moving_variance_initializer": {"config": {}, "class_name": "Ones"}, "trainable": true, "name": "batch_normalization_12", "gamma_constraint": null, "beta_initializer": {"config": {}, "class_name": "Zeros"}}, "class_name": "BatchNormalization", "inbound_nodes": [[["conv2d_12", 0, 0, {}]]]}, {"name": "elu_13", "config": {"alpha": 1.0, "name": "elu_13", "trainable": true}, "class_name": "ELU", "inbound_nodes": [[["batch_normalization_12", 0, 0, {}]]]}, {"name": "dropout_5", "config": {"name": "dropout_5", "rate": 0.5, "trainable": true}, "class_name": "Dropout", "inbound_nodes": [[["elu_13", 0, 0, {}]]]}, {"name": "conv2d_13", "config": {"activity_regularizer": null, "data_format": "channels_last", "use_bias": true, "kernel_constraint": {"config": {"max_value": 2.0, "axis": 0}, "class_name": "MaxNorm"}, "bias_constraint": null, "trainable": true, "activation": "linear", "kernel_initializer": {"config": {"distribution": "normal", "mode": "fan_avg", "scale": 1.0, "seed": null}, "class_name": "VarianceScaling"}, "filters": 64, "bias_regularizer": null, "padding": "same", "name": "conv2d_13", "strides": [1, 1], "kernel_regularizer": null, "dilation_rate": [1, 1], "bias_initializer": {"config": {}, "class_name": "Zeros"}, "kernel_size": [3, 3]}, "class_name": "Conv2D", "inbound_nodes": [[["dropout_5", 0, 0, {}]]]}, {"name": "add_5", "config": {"name": "add_5", "trainable": true}, "class_name": "Add", "inbound_nodes": [[["conv2d_13", 0, 0, {}], ["elu_12", 0, 0, {}]]]}, {"name": "batch_normalization_13", "config": {"epsilon": 0.001, "gamma_regularizer": null, "momentum": 0.99, "beta_constraint": null, "center": true, "axis": -1, "moving_mean_initializer": {"config": {}, "class_name": "Zeros"}, "scale": true, "gamma_initializer": {"config": {}, "class_name": "Ones"}, "beta_regularizer": null, "moving_variance_initializer": {"config": {}, "class_name": "Ones"}, "trainable": true, "name": "batch_normalization_13", "gamma_constraint": null, "beta_initializer": {"config": {}, "class_name": "Zeros"}}, "class_name": "BatchNormalization", "inbound_nodes": [[["add_5", 0, 0, {}]]]}, {"name": "elu_14", "config": {"alpha": 1.0, "name": "elu_14", "trainable": true}, "class_name": "ELU", "inbound_nodes": [[["batch_normalization_13", 0, 0, {}]]]}, {"name": "conv2d_14", "config": {"activity_regularizer": null, "data_format": "channels_last", "use_bias": true, "kernel_constraint": {"config": {"max_value": 2.0, "axis": 0}, "class_name": "MaxNorm"}, "bias_constraint": null, "trainable": true, "activation": "linear", "kernel_initializer": {"config": {"distribution": "normal", "mode": "fan_avg", "scale": 1.0, "seed": null}, "class_name": "VarianceScaling"}, "filters": 64, "bias_regularizer": null, "padding": "same", "name": "conv2d_14", "strides": [1, 1], "kernel_regularizer": null, "dilation_rate": [1, 1], "bias_initializer": {"config": {}, "class_name": "Zeros"}, "kernel_size": [3, 3]}, "class_name": "Conv2D", "inbound_nodes": [[["elu_14", 0, 0, {}]]]}, {"name": "batch_normalization_14", "config": {"epsilon": 0.001, "gamma_regularizer": null, "momentum": 0.99, "beta_constraint": null, "center": true, "axis": -1, "moving_mean_initializer": {"config": {}, "class_name": "Zeros"}, "scale": true, "gamma_initializer": {"config": {}, "class_name": "Ones"}, "beta_regularizer": null, "moving_variance_initializer": {"config": {}, "class_name": "Ones"}, "trainable": true, "name": "batch_normalization_14", "gamma_constraint": null, "beta_initializer": {"config": {}, "class_name": "Zeros"}}, "class_name": "BatchNormalization", "inbound_nodes": [[["conv2d_14", 0, 0, {}]]]}, {"name": "elu_15", "config": {"alpha": 1.0, "name": "elu_15", "trainable": true}, "class_name": "ELU", "inbound_nodes": [[["batch_normalization_14", 0, 0, {}]]]}, {"name": "dropout_6", "config": {"name": "dropout_6", "rate": 0.5, "trainable": true}, "class_name": "Dropout", "inbound_nodes": [[["elu_15", 0, 0, {}]]]}, {"name": "conv2d_15", "config": {"activity_regularizer": null, "data_format": "channels_last", "use_bias": true, "kernel_constraint": {"config": {"max_value": 2.0, "axis": 0}, "class_name": "MaxNorm"}, "bias_constraint": null, "trainable": true, "activation": "linear", "kernel_initializer": {"config": {"distribution": "normal", "mode": "fan_avg", "scale": 1.0, "seed": null}, "class_name": "VarianceScaling"}, "filters": 64, "bias_regularizer": null, "padding": "same", "name": "conv2d_15", "strides": [1, 1], "kernel_regularizer": null, "dilation_rate": [1, 1], "bias_initializer": {"config": {}, "class_name": "Zeros"}, "kernel_size": [3, 3]}, "class_name": "Conv2D", "inbound_nodes": [[["dropout_6", 0, 0, {}]]]}, {"name": "add_6", "config": {"name": "add_6", "trainable": true}, "class_name": "Add", "inbound_nodes": [[["conv2d_15", 0, 0, {}], ["elu_14", 0, 0, {}]]]}, {"name": "batch_normalization_15", "config": {"epsilon": 0.001, "gamma_regularizer": null, "momentum": 0.99, "beta_constraint": null, "center": true, "axis": -1, "moving_mean_initializer": {"config": {}, "class_name": "Zeros"}, "scale": true, "gamma_initializer": {"config": {}, "class_name": "Ones"}, "beta_regularizer": null, "moving_variance_initializer": {"config": {}, "class_name": "Ones"}, "trainable": true, "name": "batch_normalization_15", "gamma_constraint": null, "beta_initializer": {"config": {}, "class_name": "Zeros"}}, "class_name": "BatchNormalization", "inbound_nodes": [[["add_6", 0, 0, {}]]]}, {"name": "elu_16", "config": {"alpha": 1.0, "name": "elu_16", "trainable": true}, "class_name": "ELU", "inbound_nodes": [[["batch_normalization_15", 0, 0, {}]]]}, {"name": "conv2d_16", "config": {"activity_regularizer": null, "data_format": "channels_last", "use_bias": true, "kernel_constraint": {"config": {"max_value": 2.0, "axis": 0}, "class_name": "MaxNorm"}, "bias_constraint": null, "trainable": true, "activation": "linear", "kernel_initializer": {"config": {"distribution": "normal", "mode": "fan_avg", "scale": 1.0, "seed": null}, "class_name": "VarianceScaling"}, "filters": 64, "bias_regularizer": null, "padding": "same", "name": "conv2d_16", "strides": [1, 1], "kernel_regularizer": null, "dilation_rate": [1, 1], "bias_initializer": {"config": {}, "class_name": "Zeros"}, "kernel_size": [3, 3]}, "class_name": "Conv2D", "inbound_nodes": [[["elu_16", 0, 0, {}]]]}, {"name": "batch_normalization_16", "config": {"epsilon": 0.001, "gamma_regularizer": null, "momentum": 0.99, "beta_constraint": null, "center": true, "axis": -1, "moving_mean_initializer": {"config": {}, "class_name": "Zeros"}, "scale": true, "gamma_initializer": {"config": {}, "class_name": "Ones"}, "beta_regularizer": null, "moving_variance_initializer": {"config": {}, "class_name": "Ones"}, "trainable": true, "name": "batch_normalization_16", "gamma_constraint": null, "beta_initializer": {"config": {}, "class_name": "Zeros"}}, "class_name": "BatchNormalization", "inbound_nodes": [[["conv2d_16", 0, 0, {}]]]}, {"name": "elu_17", "config": {"alpha": 1.0, "name": "elu_17", "trainable": true}, "class_name": "ELU", "inbound_nodes": [[["batch_normalization_16", 0, 0, {}]]]}, {"name": "dropout_7", "config": {"name": "dropout_7", "rate": 0.5, "trainable": true}, "class_name": "Dropout", "inbound_nodes": [[["elu_17", 0, 0, {}]]]}, {"name": "conv2d_17", "config": {"activity_regularizer": null, "data_format": "channels_last", "use_bias": true, "kernel_constraint": {"config": {"max_value": 2.0, "axis": 0}, "class_name": "MaxNorm"}, "bias_constraint": null, "trainable": true, "activation": "linear", "kernel_initializer": {"config": {"distribution": "normal", "mode": "fan_avg", "scale": 1.0, "seed": null}, "class_name": "VarianceScaling"}, "filters": 64, "bias_regularizer": null, "padding": "same", "name": "conv2d_17", "strides": [1, 1], "kernel_regularizer": null, "dilation_rate": [1, 1], "bias_initializer": {"config": {}, "class_name": "Zeros"}, "kernel_size": [3, 3]}, "class_name": "Conv2D", "inbound_nodes": [[["dropout_7", 0, 0, {}]]]}, {"name": "add_7", "config": {"name": "add_7", "trainable": true}, "class_name": "Add", "inbound_nodes": [[["conv2d_17", 0, 0, {}], ["elu_16", 0, 0, {}]]]}, {"name": "batch_normalization_17", "config": {"epsilon": 0.001, "gamma_regularizer": null, "momentum": 0.99, "beta_constraint": null, "center": true, "axis": -1, "moving_mean_initializer": {"config": {}, "class_name": "Zeros"}, "scale": true, "gamma_initializer": {"config": {}, "class_name": "Ones"}, "beta_regularizer": null, "moving_variance_initializer": {"config": {}, "class_name": "Ones"}, "trainable": true, "name": "batch_normalization_17", "gamma_constraint": null, "beta_initializer": {"config": {}, "class_name": "Zeros"}}, "class_name": "BatchNormalization", "inbound_nodes": [[["add_7", 0, 0, {}]]]}, {"name": "elu_18", "config": {"alpha": 1.0, "name": "elu_18", "trainable": true}, "class_name": "ELU", "inbound_nodes": [[["batch_normalization_17", 0, 0, {}]]]}, {"name": "conv2d_18", "config": {"activity_regularizer": null, "data_format": "channels_last", "use_bias": true, "kernel_constraint": {"config": {"max_value": 2.0, "axis": 0}, "class_name": "MaxNorm"}, "bias_constraint": null, "trainable": true, "activation": "linear", "kernel_initializer": {"config": {"distribution": "normal", "mode": "fan_avg", "scale": 1.0, "seed": null}, "class_name": "VarianceScaling"}, "filters": 64, "bias_regularizer": null, "padding": "same", "name": "conv2d_18", "strides": [1, 1], "kernel_regularizer": null, "dilation_rate": [1, 1], "bias_initializer": {"config": {}, "class_name": "Zeros"}, "kernel_size": [3, 3]}, "class_name": "Conv2D", "inbound_nodes": [[["elu_18", 0, 0, {}]]]}, {"name": "batch_normalization_18", "config": {"epsilon": 0.001, "gamma_regularizer": null, "momentum": 0.99, "beta_constraint": null, "center": true, "axis": -1, "moving_mean_initializer": {"config": {}, "class_name": "Zeros"}, "scale": true, "gamma_initializer": {"config": {}, "class_name": "Ones"}, "beta_regularizer": null, "moving_variance_initializer": {"config": {}, "class_name": "Ones"}, "trainable": true, "name": "batch_normalization_18", "gamma_constraint": null, "beta_initializer": {"config": {}, "class_name": "Zeros"}}, "class_name": "BatchNormalization", "inbound_nodes": [[["conv2d_18", 0, 0, {}]]]}, {"name": "elu_19", "config": {"alpha": 1.0, "name": "elu_19", "trainable": true}, "class_name": "ELU", "inbound_nodes": [[["batch_normalization_18", 0, 0, {}]]]}, {"name": "dropout_8", "config": {"name": "dropout_8", "rate": 0.5, "trainable": true}, "class_name": "Dropout", "inbound_nodes": [[["elu_19", 0, 0, {}]]]}, {"name": "conv2d_19", "config": {"activity_regularizer": null, "data_format": "channels_last", "use_bias": true, "kernel_constraint": {"config": {"max_value": 2.0, "axis": 0}, "class_name": "MaxNorm"}, "bias_constraint": null, "trainable": true, "activation": "linear", "kernel_initializer": {"config": {"distribution": "normal", "mode": "fan_avg", "scale": 1.0, "seed": null}, "class_name": "VarianceScaling"}, "filters": 64, "bias_regularizer": null, "padding": "same", "name": "conv2d_19", "strides": [1, 1], "kernel_regularizer": null, "dilation_rate": [1, 1], "bias_initializer": {"config": {}, "class_name": "Zeros"}, "kernel_size": [3, 3]}, "class_name": "Conv2D", "inbound_nodes": [[["dropout_8", 0, 0, {}]]]}, {"name": "add_8", "config": {"name": "add_8", "trainable": true}, "class_name": "Add", "inbound_nodes": [[["conv2d_19", 0, 0, {}], ["elu_18", 0, 0, {}]]]}, {"name": "batch_normalization_19", "config": {"epsilon": 0.001, "gamma_regularizer": null, "momentum": 0.99, "beta_constraint": null, "center": true, "axis": -1, "moving_mean_initializer": {"config": {}, "class_name": "Zeros"}, "scale": true, "gamma_initializer": {"config": {}, "class_name": "Ones"}, "beta_regularizer": null, "moving_variance_initializer": {"config": {}, "class_name": "Ones"}, "trainable": true, "name": "batch_normalization_19", "gamma_constraint": null, "beta_initializer": {"config": {}, "class_name": "Zeros"}}, "class_name": "BatchNormalization", "inbound_nodes": [[["add_8", 0, 0, {}]]]}, {"name": "elu_20", "config": {"alpha": 1.0, "name": "elu_20", "trainable": true}, "class_name": "ELU", "inbound_nodes": [[["batch_normalization_19", 0, 0, {}]]]}, {"name": "conv2d_20", "config": {"activity_regularizer": null, "data_format": "channels_last", "use_bias": true, "kernel_constraint": {"config": {"max_value": 2.0, "axis": 0}, "class_name": "MaxNorm"}, "bias_constraint": null, "trainable": true, "activation": "linear", "kernel_initializer": {"config": {"distribution": "normal", "mode": "fan_avg", "scale": 1.0, "seed": null}, "class_name": "VarianceScaling"}, "filters": 64, "bias_regularizer": null, "padding": "same", "name": "conv2d_20", "strides": [1, 1], "kernel_regularizer": null, "dilation_rate": [1, 1], "bias_initializer": {"config": {}, "class_name": "Zeros"}, "kernel_size": [3, 3]}, "class_name": "Conv2D", "inbound_nodes": [[["elu_20", 0, 0, {}]]]}, {"name": "batch_normalization_20", "config": {"epsilon": 0.001, "gamma_regularizer": null, "momentum": 0.99, "beta_constraint": null, "center": true, "axis": -1, "moving_mean_initializer": {"config": {}, "class_name": "Zeros"}, "scale": true, "gamma_initializer": {"config": {}, "class_name": "Ones"}, "beta_regularizer": null, "moving_variance_initializer": {"config": {}, "class_name": "Ones"}, "trainable": true, "name": "batch_normalization_20", "gamma_constraint": null, "beta_initializer": {"config": {}, "class_name": "Zeros"}}, "class_name": "BatchNormalization", "inbound_nodes": [[["conv2d_20", 0, 0, {}]]]}, {"name": "elu_21", "config": {"alpha": 1.0, "name": "elu_21", "trainable": true}, "class_name": "ELU", "inbound_nodes": [[["batch_normalization_20", 0, 0, {}]]]}, {"name": "dropout_9", "config": {"name": "dropout_9", "rate": 0.5, "trainable": true}, "class_name": "Dropout", "inbound_nodes": [[["elu_21", 0, 0, {}]]]}, {"name": "conv2d_21", "config": {"activity_regularizer": null, "data_format": "channels_last", "use_bias": true, "kernel_constraint": {"config": {"max_value": 2.0, "axis": 0}, "class_name": "MaxNorm"}, "bias_constraint": null, "trainable": true, "activation": "linear", "kernel_initializer": {"config": {"distribution": "normal", "mode": "fan_avg", "scale": 1.0, "seed": null}, "class_name": "VarianceScaling"}, "filters": 64, "bias_regularizer": null, "padding": "same", "name": "conv2d_21", "strides": [1, 1], "kernel_regularizer": null, "dilation_rate": [1, 1], "bias_initializer": {"config": {}, "class_name": "Zeros"}, "kernel_size": [3, 3]}, "class_name": "Conv2D", "inbound_nodes": [[["dropout_9", 0, 0, {}]]]}, {"name": "add_9", "config": {"name": "add_9", "trainable": true}, "class_name": "Add", "inbound_nodes": [[["conv2d_21", 0, 0, {}], ["elu_20", 0, 0, {}]]]}, {"name": "batch_normalization_21", "config": {"epsilon": 0.001, "gamma_regularizer": null, "momentum": 0.99, "beta_constraint": null, "center": true, "axis": -1, "moving_mean_initializer": {"config": {}, "class_name": "Zeros"}, "scale": true, "gamma_initializer": {"config": {}, "class_name": "Ones"}, "beta_regularizer": null, "moving_variance_initializer": {"config": {}, "class_name": "Ones"}, "trainable": true, "name": "batch_normalization_21", "gamma_constraint": null, "beta_initializer": {"config": {}, "class_name": "Zeros"}}, "class_name": "BatchNormalization", "inbound_nodes": [[["add_9", 0, 0, {}]]]}, {"name": "elu_22", "config": {"alpha": 1.0, "name": "elu_22", "trainable": true}, "class_name": "ELU", "inbound_nodes": [[["batch_normalization_21", 0, 0, {}]]]}, {"name": "conv2d_22", "config": {"activity_regularizer": null, "data_format": "channels_last", "use_bias": true, "kernel_constraint": {"config": {"max_value": 2.0, "axis": 0}, "class_name": "MaxNorm"}, "bias_constraint": null, "trainable": true, "activation": "linear", "kernel_initializer": {"config": {"distribution": "normal", "mode": "fan_avg", "scale": 1.0, "seed": null}, "class_name": "VarianceScaling"}, "filters": 256, "bias_regularizer": null, "padding": "same", "name": "conv2d_22", "strides": [1, 1], "kernel_regularizer": null, "dilation_rate": [1, 1], "bias_initializer": {"config": {}, "class_name": "Zeros"}, "kernel_size": [3, 3]}, "class_name": "Conv2D", "inbound_nodes": [[["elu_22", 0, 0, {}]]]}, {"name": "batch_normalization_22", "config": {"epsilon": 0.001, "gamma_regularizer": null, "momentum": 0.99, "beta_constraint": null, "center": true, "axis": -1, "moving_mean_initializer": {"config": {}, "class_name": "Zeros"}, "scale": true, "gamma_initializer": {"config": {}, "class_name": "Ones"}, "beta_regularizer": null, "moving_variance_initializer": {"config": {}, "class_name": "Ones"}, "trainable": true, "name": "batch_normalization_22", "gamma_constraint": null, "beta_initializer": {"config": {}, "class_name": "Zeros"}}, "class_name": "BatchNormalization", "inbound_nodes": [[["conv2d_22", 0, 0, {}]]]}, {"name": "elu_23", "config": {"alpha": 1.0, "name": "elu_23", "trainable": true}, "class_name": "ELU", "inbound_nodes": [[["batch_normalization_22", 0, 0, {}]]]}, {"name": "average_pooling2d_2", "config": {"padding": "valid", "name": "average_pooling2d_2", "strides": [2, 2], "trainable": true, "pool_size": [4, 4], "data_format": "channels_last"}, "class_name": "AveragePooling2D", "inbound_nodes": [[["elu_23", 0, 0, {}]]]}, {"name": "flatten_1", "config": {"name": "flatten_1", "trainable": true}, "class_name": "Flatten", "inbound_nodes": [[["average_pooling2d_2", 0, 0, {}]]]}, {"name": "dense_1", "config": {"bias_regularizer": null, "use_bias": true, "kernel_constraint": {"config": {"max_value": 2.0, "axis": 0}, "class_name": "MaxNorm"}, "bias_constraint": null, "kernel_initializer": {"config": {"distribution": "normal", "mode": "fan_avg", "scale": 1.0, "seed": null}, "class_name": "VarianceScaling"}, "trainable": true, "activation": "elu", "kernel_regularizer": null, "activity_regularizer": null, "name": "dense_1", "units": 1164, "bias_initializer": {"config": {}, "class_name": "Zeros"}}, "class_name": "Dense", "inbound_nodes": [[["flatten_1", 0, 0, {}]]]}, {"name": "dense_2", "config": {"bias_regularizer": null, "use_bias": true, "kernel_constraint": {"config": {"max_value": 2.0, "axis": 0}, "class_name": "MaxNorm"}, "bias_constraint": null, "kernel_initializer": {"config": {"distribution": "normal", "mode": "fan_avg", "scale": 1.0, "seed": null}, "class_name": "VarianceScaling"}, "trainable": true, "activation": "linear", "kernel_regularizer": null, "activity_regularizer": null, "name": "dense_2", "units": 512, "bias_initializer": {"config": {}, "class_name": "Zeros"}}, "class_name": "Dense", "inbound_nodes": [[["dense_1", 0, 0, {}]]]}, {"name": "dense_3", "config": {"bias_regularizer": null, "use_bias": true, "kernel_constraint": {"config": {"max_value": 2.0, "axis": 0}, "class_name": "MaxNorm"}, "bias_constraint": null, "kernel_initializer": {"config": {"distribution": "normal", "mode": "fan_avg", "scale": 1.0, "seed": null}, "class_name": "VarianceScaling"}, "trainable": true, "activation": "linear", "kernel_regularizer": null, "activity_regularizer": null, "name": "dense_3", "units": 100, "bias_initializer": {"config": {}, "class_name": "Zeros"}}, "class_name": "Dense", "inbound_nodes": [[["dense_2", 0, 0, {}]]]}, {"name": "dense_4", "config": {"bias_regularizer": null, "use_bias": true, "kernel_constraint": {"config": {"max_value": 2.0, "axis": 0}, "class_name": "MaxNorm"}, "bias_constraint": null, "kernel_initializer": {"config": {"distribution": "normal", "mode": "fan_avg", "scale": 1.0, "seed": null}, "class_name": "VarianceScaling"}, "trainable": true, "activation": "linear", "kernel_regularizer": null, "activity_regularizer": null, "name": "dense_4", "units": 50, "bias_initializer": {"config": {}, "class_name": "Zeros"}}, "class_name": "Dense", "inbound_nodes": [[["dense_3", 0, 0, {}]]]}, {"name": "dense_5", "config": {"bias_regularizer": null, "use_bias": true, "kernel_constraint": null, "bias_constraint": null, "kernel_initializer": {"config": {"distribution": "uniform", "mode": "fan_avg", "scale": 1.0, "seed": null}, "class_name": "VarianceScaling"}, "trainable": true, "activation": "linear", "kernel_regularizer": null, "activity_regularizer": null, "name": "dense_5", "units": 1, "bias_initializer": {"config": {}, "class_name": "Zeros"}}, "class_name": "Dense", "inbound_nodes": [[["dense_4", 0, 0, {}]]]}, {"name": "steering_output", "config": {"bias_regularizer": null, "use_bias": true, "kernel_constraint": null, "bias_constraint": null, "kernel_initializer": {"config": {"distribution": "uniform", "mode": "fan_avg", "scale": 1.0, "seed": null}, "class_name": "VarianceScaling"}, "trainable": true, "activation": "linear", "kernel_regularizer": null, "activity_regularizer": null, "name": "steering_output", "units": 1, "bias_initializer": {"config": {}, "class_name": "Zeros"}}, "class_name": "Dense", "inbound_nodes": [[["dense_5", 0, 0, {}]]]}], "output_layers": [["steering_output", 0, 0]]}, "keras_version": "2.0.2", "class_name": "Model"}