{"config": {"layers": [{"config": {"batch_input_shape": [null, 80, 80, 3], "name": "images", "sparse": false, "dtype": "float32"}, "name": "images", "class_name": "InputLayer", "inbound_nodes": []}, {"config": {"output_shape": null, "function_type": "lambda", "arguments": {}, "trainable": true, "output_shape_type": "raw", "function": ["\u00e3\u0001\u0000\u0000\u0000\u0000\u0000\u0000\u0000\u0001\u0000\u0000\u0000\u0002\u0000\u0000\u0000S\u0000\u0000\u0000s\f\u0000\u0000\u0000|\u0000\u0000d\u0001\u0000\u001bd\u0002\u0000\u0018S)\u0003N\u00e7\u0000\u0000\u0000\u0000\u0000\u00e0_@\u00e7\u0000\u0000\u0000\u0000\u0000\u0000\u00f0?\u00a9\u0000)\u0001\u00da\u0001xr\u0003\u0000\u0000\u0000r\u0003\u0000\u0000\u0000\u00fa\bmodel.py\u00da\b<lambda>+\u0001\u0000\u0000s\u0000\u0000\u0000\u0000", null, null], "name": "lambda_1"}, "name": "lambda_1", "class_name": "Lambda", "inbound_nodes": [[["images", 0, 0, {}]]]}, {"config": {"use_bias": true, "kernel_size": [5, 5], "trainable": true, "bias_regularizer": null, "kernel_initializer": {"config": {"distribution": "normal", "mode": "fan_avg", "seed": null, "scale": 1.0}, "class_name": "VarianceScaling"}, "padding": "same", "kernel_regularizer": null, "dilation_rate": [1, 1], "filters": 32, "activity_regularizer": null, "bias_constraint": null, "kernel_constraint": {"config": {"axis": 0, "max_value": 2.0}, "class_name": "MaxNorm"}, "activation": "linear", "name": "conv2d_1", "data_format": "channels_last", "bias_initializer": {"config": {}, "class_name": "Zeros"}, "strides": [2, 2]}, "name": "conv2d_1", "class_name": "Conv2D", "inbound_nodes": [[["lambda_1", 0, 0, {}]]]}, {"config": {"beta_regularizer": null, "scale": true, "gamma_regularizer": null, "center": true, "epsilon": 0.001, "axis": -1, "moving_mean_initializer": {"config": {}, "class_name": "Zeros"}, "gamma_initializer": {"config": {}, "class_name": "Ones"}, "beta_initializer": {"config": {}, "class_name": "Zeros"}, "moving_variance_initializer": {"config": {}, "class_name": "Ones"}, "momentum": 0.99, "gamma_constraint": null, "name": "batch_normalization_1", "trainable": true, "beta_constraint": null}, "name": "batch_normalization_1", "class_name": "BatchNormalization", "inbound_nodes": [[["conv2d_1", 0, 0, {}]]]}, {"config": {"name": "elu_1", "trainable": true, "alpha": 1.0}, "name": "elu_1", "class_name": "ELU", "inbound_nodes": [[["batch_normalization_1", 0, 0, {}]]]}, {"config": {"use_bias": true, "kernel_size": [5, 5], "trainable": true, "bias_regularizer": null, "kernel_initializer": {"config": {"distribution": "normal", "mode": "fan_avg", "seed": null, "scale": 1.0}, "class_name": "VarianceScaling"}, "padding": "same", "kernel_regularizer": null, "dilation_rate": [1, 1], "filters": 32, "activity_regularizer": null, "bias_constraint": null, "kernel_constraint": {"config": {"axis": 0, "max_value": 2.0}, "class_name": "MaxNorm"}, "activation": "linear", "name": "conv2d_2", "data_format": "channels_last", "bias_initializer": {"config": {}, "class_name": "Zeros"}, "strides": [2, 2]}, "name": "conv2d_2", "class_name": "Conv2D", "inbound_nodes": [[["elu_1", 0, 0, {}]]]}, {"config": {"beta_regularizer": null, "scale": true, "gamma_regularizer": null, "center": true, "epsilon": 0.001, "axis": -1, "moving_mean_initializer": {"config": {}, "class_name": "Zeros"}, "gamma_initializer": {"config": {}, "class_name": "Ones"}, "beta_initializer": {"config": {}, "class_name": "Zeros"}, "moving_variance_initializer": {"config": {}, "class_name": "Ones"}, "momentum": 0.99, "gamma_constraint": null, "name": "batch_normalization_2", "trainable": true, "beta_constraint": null}, "name": "batch_normalization_2", "class_name": "BatchNormalization", "inbound_nodes": [[["conv2d_2", 0, 0, {}]]]}, {"config": {"name": "elu_2", "trainable": true, "alpha": 1.0}, "name": "elu_2", "class_name": "ELU", "inbound_nodes": [[["batch_normalization_2", 0, 0, {}]]]}, {"config": {"pool_size": [4, 4], "trainable": true, "padding": "same", "name": "average_pooling2d_1", "data_format": "channels_last", "strides": [2, 2]}, "name": "average_pooling2d_1", "class_name": "AveragePooling2D", "inbound_nodes": [[["elu_2", 0, 0, {}]]]}, {"config": {"use_bias": true, "kernel_size": [5, 5], "trainable": true, "bias_regularizer": null, "kernel_initializer": {"config": {"distribution": "normal", "mode": "fan_avg", "seed": null, "scale": 1.0}, "class_name": "VarianceScaling"}, "padding": "same", "kernel_regularizer": null, "dilation_rate": [1, 1], "filters": 32, "activity_regularizer": null, "bias_constraint": null, "kernel_constraint": {"config": {"axis": 0, "max_value": 2.0}, "class_name": "MaxNorm"}, "activation": "linear", "name": "conv2d_3", "data_format": "channels_last", "bias_initializer": {"config": {}, "class_name": "Zeros"}, "strides": [1, 1]}, "name": "conv2d_3", "class_name": "Conv2D", "inbound_nodes": [[["average_pooling2d_1", 0, 0, {}]]]}, {"config": {"beta_regularizer": null, "scale": true, "gamma_regularizer": null, "center": true, "epsilon": 0.001, "axis": -1, "moving_mean_initializer": {"config": {}, "class_name": "Zeros"}, "gamma_initializer": {"config": {}, "class_name": "Ones"}, "beta_initializer": {"config": {}, "class_name": "Zeros"}, "moving_variance_initializer": {"config": {}, "class_name": "Ones"}, "momentum": 0.99, "gamma_constraint": null, "name": "batch_normalization_3", "trainable": true, "beta_constraint": null}, "name": "batch_normalization_3", "class_name": "BatchNormalization", "inbound_nodes": [[["conv2d_3", 0, 0, {}]]]}, {"config": {"name": "elu_3", "trainable": true, "alpha": 1.0}, "name": "elu_3", "class_name": "ELU", "inbound_nodes": [[["batch_normalization_3", 0, 0, {}]]]}, {"config": {"name": "dropout_1", "rate": 0.5, "trainable": true}, "name": "dropout_1", "class_name": "Dropout", "inbound_nodes": [[["elu_3", 0, 0, {}]]]}, {"config": {"use_bias": true, "kernel_size": [5, 5], "trainable": true, "bias_regularizer": null, "kernel_initializer": {"config": {"distribution": "normal", "mode": "fan_avg", "seed": null, "scale": 1.0}, "class_name": "VarianceScaling"}, "padding": "same", "kernel_regularizer": null, "dilation_rate": [1, 1], "filters": 32, "activity_regularizer": null, "bias_constraint": null, "kernel_constraint": {"config": {"axis": 0, "max_value": 2.0}, "class_name": "MaxNorm"}, "activation": "linear", "name": "conv2d_4", "data_format": "channels_last", "bias_initializer": {"config": {}, "class_name": "Zeros"}, "strides": [1, 1]}, "name": "conv2d_4", "class_name": "Conv2D", "inbound_nodes": [[["dropout_1", 0, 0, {}]]]}, {"config": {"name": "add_1", "trainable": true}, "name": "add_1", "class_name": "Add", "inbound_nodes": [[["conv2d_4", 0, 0, {}], ["average_pooling2d_1", 0, 0, {}]]]}, {"config": {"beta_regularizer": null, "scale": true, "gamma_regularizer": null, "center": true, "epsilon": 0.001, "axis": -1, "moving_mean_initializer": {"config": {}, "class_name": "Zeros"}, "gamma_initializer": {"config": {}, "class_name": "Ones"}, "beta_initializer": {"config": {}, "class_name": "Zeros"}, "moving_variance_initializer": {"config": {}, "class_name": "Ones"}, "momentum": 0.99, "gamma_constraint": null, "name": "batch_normalization_4", "trainable": true, "beta_constraint": null}, "name": "batch_normalization_4", "class_name": "BatchNormalization", "inbound_nodes": [[["add_1", 0, 0, {}]]]}, {"config": {"name": "elu_4", "trainable": true, "alpha": 1.0}, "name": "elu_4", "class_name": "ELU", "inbound_nodes": [[["batch_normalization_4", 0, 0, {}]]]}, {"config": {"use_bias": true, "kernel_size": [5, 5], "trainable": true, "bias_regularizer": null, "kernel_initializer": {"config": {"distribution": "normal", "mode": "fan_avg", "seed": null, "scale": 1.0}, "class_name": "VarianceScaling"}, "padding": "same", "kernel_regularizer": null, "dilation_rate": [1, 1], "filters": 32, "activity_regularizer": null, "bias_constraint": null, "kernel_constraint": {"config": {"axis": 0, "max_value": 2.0}, "class_name": "MaxNorm"}, "activation": "linear", "name": "conv2d_5", "data_format": "channels_last", "bias_initializer": {"config": {}, "class_name": "Zeros"}, "strides": [1, 1]}, "name": "conv2d_5", "class_name": "Conv2D", "inbound_nodes": [[["elu_4", 0, 0, {}]]]}, {"config": {"beta_regularizer": null, "scale": true, "gamma_regularizer": null, "center": true, "epsilon": 0.001, "axis": -1, "moving_mean_initializer": {"config": {}, "class_name": "Zeros"}, "gamma_initializer": {"config": {}, "class_name": "Ones"}, "beta_initializer": {"config": {}, "class_name": "Zeros"}, "moving_variance_initializer": {"config": {}, "class_name": "Ones"}, "momentum": 0.99, "gamma_constraint": null, "name": "batch_normalization_5", "trainable": true, "beta_constraint": null}, "name": "batch_normalization_5", "class_name": "BatchNormalization", "inbound_nodes": [[["conv2d_5", 0, 0, {}]]]}, {"config": {"name": "elu_5", "trainable": true, "alpha": 1.0}, "name": "elu_5", "class_name": "ELU", "inbound_nodes": [[["batch_normalization_5", 0, 0, {}]]]}, {"config": {"name": "dropout_2", "rate": 0.5, "trainable": true}, "name": "dropout_2", "class_name": "Dropout", "inbound_nodes": [[["elu_5", 0, 0, {}]]]}, {"config": {"use_bias": true, "kernel_size": [5, 5], "trainable": true, "bias_regularizer": null, "kernel_initializer": {"config": {"distribution": "normal", "mode": "fan_avg", "seed": null, "scale": 1.0}, "class_name": "VarianceScaling"}, "padding": "same", "kernel_regularizer": null, "dilation_rate": [1, 1], "filters": 32, "activity_regularizer": null, "bias_constraint": null, "kernel_constraint": {"config": {"axis": 0, "max_value": 2.0}, "class_name": "MaxNorm"}, "activation": "linear", "name": "conv2d_6", "data_format": "channels_last", "bias_initializer": {"config": {}, "class_name": "Zeros"}, "strides": [1, 1]}, "name": "conv2d_6", "class_name": "Conv2D", "inbound_nodes": [[["dropout_2", 0, 0, {}]]]}, {"config": {"name": "add_2", "trainable": true}, "name": "add_2", "class_name": "Add", "inbound_nodes": [[["conv2d_6", 0, 0, {}], ["elu_4", 0, 0, {}]]]}, {"config": {"beta_regularizer": null, "scale": true, "gamma_regularizer": null, "center": true, "epsilon": 0.001, "axis": -1, "moving_mean_initializer": {"config": {}, "class_name": "Zeros"}, "gamma_initializer": {"config": {}, "class_name": "Ones"}, "beta_initializer": {"config": {}, "class_name": "Zeros"}, "moving_variance_initializer": {"config": {}, "class_name": "Ones"}, "momentum": 0.99, "gamma_constraint": null, "name": "batch_normalization_6", "trainable": true, "beta_constraint": null}, "name": "batch_normalization_6", "class_name": "BatchNormalization", "inbound_nodes": [[["add_2", 0, 0, {}]]]}, {"config": {"name": "elu_6", "trainable": true, "alpha": 1.0}, "name": "elu_6", "class_name": "ELU", "inbound_nodes": [[["batch_normalization_6", 0, 0, {}]]]}, {"config": {"use_bias": true, "kernel_size": [5, 5], "trainable": true, "bias_regularizer": null, "kernel_initializer": {"config": {"distribution": "normal", "mode": "fan_avg", "seed": null, "scale": 1.0}, "class_name": "VarianceScaling"}, "padding": "same", "kernel_regularizer": null, "dilation_rate": [1, 1], "filters": 64, "activity_regularizer": null, "bias_constraint": null, "kernel_constraint": {"config": {"axis": 0, "max_value": 2.0}, "class_name": "MaxNorm"}, "activation": "linear", "name": "conv2d_7", "data_format": "channels_last", "bias_initializer": {"config": {}, "class_name": "Zeros"}, "strides": [1, 1]}, "name": "conv2d_7", "class_name": "Conv2D", "inbound_nodes": [[["elu_6", 0, 0, {}]]]}, {"config": {"beta_regularizer": null, "scale": true, "gamma_regularizer": null, "center": true, "epsilon": 0.001, "axis": -1, "moving_mean_initializer": {"config": {}, "class_name": "Zeros"}, "gamma_initializer": {"config": {}, "class_name": "Ones"}, "beta_initializer": {"config": {}, "class_name": "Zeros"}, "moving_variance_initializer": {"config": {}, "class_name": "Ones"}, "momentum": 0.99, "gamma_constraint": null, "name": "batch_normalization_7", "trainable": true, "beta_constraint": null}, "name": "batch_normalization_7", "class_name": "BatchNormalization", "inbound_nodes": [[["conv2d_7", 0, 0, {}]]]}, {"config": {"name": "elu_7", "trainable": true, "alpha": 1.0}, "name": "elu_7", "class_name": "ELU", "inbound_nodes": [[["batch_normalization_7", 0, 0, {}]]]}, {"config": {"use_bias": true, "kernel_size": [3, 3], "trainable": true, "bias_regularizer": null, "kernel_initializer": {"config": {"distribution": "normal", "mode": "fan_avg", "seed": null, "scale": 1.0}, "class_name": "VarianceScaling"}, "padding": "same", "kernel_regularizer": null, "dilation_rate": [1, 1], "filters": 64, "activity_regularizer": null, "bias_constraint": null, "kernel_constraint": {"config": {"axis": 0, "max_value": 2.0}, "class_name": "MaxNorm"}, "activation": "linear", "name": "conv2d_8", "data_format": "channels_last", "bias_initializer": {"config": {}, "class_name": "Zeros"}, "strides": [1, 1]}, "name": "conv2d_8", "class_name": "Conv2D", "inbound_nodes": [[["elu_7", 0, 0, {}]]]}, {"config": {"beta_regularizer": null, "scale": true, "gamma_regularizer": null, "center": true, "epsilon": 0.001, "axis": -1, "moving_mean_initializer": {"config": {}, "class_name": "Zeros"}, "gamma_initializer": {"config": {}, "class_name": "Ones"}, "beta_initializer": {"config": {}, "class_name": "Zeros"}, "moving_variance_initializer": {"config": {}, "class_name": "Ones"}, "momentum": 0.99, "gamma_constraint": null, "name": "batch_normalization_8", "trainable": true, "beta_constraint": null}, "name": "batch_normalization_8", "class_name": "BatchNormalization", "inbound_nodes": [[["conv2d_8", 0, 0, {}]]]}, {"config": {"name": "elu_8", "trainable": true, "alpha": 1.0}, "name": "elu_8", "class_name": "ELU", "inbound_nodes": [[["batch_normalization_8", 0, 0, {}]]]}, {"config": {"name": "dropout_3", "rate": 0.5, "trainable": true}, "name": "dropout_3", "class_name": "Dropout", "inbound_nodes": [[["elu_8", 0, 0, {}]]]}, {"config": {"use_bias": true, "kernel_size": [3, 3], "trainable": true, "bias_regularizer": null, "kernel_initializer": {"config": {"distribution": "normal", "mode": "fan_avg", "seed": null, "scale": 1.0}, "class_name": "VarianceScaling"}, "padding": "same", "kernel_regularizer": null, "dilation_rate": [1, 1], "filters": 64, "activity_regularizer": null, "bias_constraint": null, "kernel_constraint": {"config": {"axis": 0, "max_value": 2.0}, "class_name": "MaxNorm"}, "activation": "linear", "name": "conv2d_9", "data_format": "channels_last", "bias_initializer": {"config": {}, "class_name": "Zeros"}, "strides": [1, 1]}, "name": "conv2d_9", "class_name": "Conv2D", "inbound_nodes": [[["dropout_3", 0, 0, {}]]]}, {"config": {"name": "add_3", "trainable": true}, "name": "add_3", "class_name": "Add", "inbound_nodes": [[["conv2d_9", 0, 0, {}], ["elu_7", 0, 0, {}]]]}, {"config": {"beta_regularizer": null, "scale": true, "gamma_regularizer": null, "center": true, "epsilon": 0.001, "axis": -1, "moving_mean_initializer": {"config": {}, "class_name": "Zeros"}, "gamma_initializer": {"config": {}, "class_name": "Ones"}, "beta_initializer": {"config": {}, "class_name": "Zeros"}, "moving_variance_initializer": {"config": {}, "class_name": "Ones"}, "momentum": 0.99, "gamma_constraint": null, "name": "batch_normalization_9", "trainable": true, "beta_constraint": null}, "name": "batch_normalization_9", "class_name": "BatchNormalization", "inbound_nodes": [[["add_3", 0, 0, {}]]]}, {"config": {"name": "elu_9", "trainable": true, "alpha": 1.0}, "name": "elu_9", "class_name": "ELU", "inbound_nodes": [[["batch_normalization_9", 0, 0, {}]]]}, {"config": {"name": "elu_10", "trainable": true, "alpha": 1.0}, "name": "elu_10", "class_name": "ELU", "inbound_nodes": [[["elu_9", 0, 0, {}]]]}, {"config": {"use_bias": true, "kernel_size": [3, 3], "trainable": true, "bias_regularizer": null, "kernel_initializer": {"config": {"distribution": "normal", "mode": "fan_avg", "seed": null, "scale": 1.0}, "class_name": "VarianceScaling"}, "padding": "same", "kernel_regularizer": null, "dilation_rate": [1, 1], "filters": 64, "activity_regularizer": null, "bias_constraint": null, "kernel_constraint": {"config": {"axis": 0, "max_value": 2.0}, "class_name": "MaxNorm"}, "activation": "linear", "name": "conv2d_10", "data_format": "channels_last", "bias_initializer": {"config": {}, "class_name": "Zeros"}, "strides": [1, 1]}, "name": "conv2d_10", "class_name": "Conv2D", "inbound_nodes": [[["elu_10", 0, 0, {}]]]}, {"config": {"beta_regularizer": null, "scale": true, "gamma_regularizer": null, "center": true, "epsilon": 0.001, "axis": -1, "moving_mean_initializer": {"config": {}, "class_name": "Zeros"}, "gamma_initializer": {"config": {}, "class_name": "Ones"}, "beta_initializer": {"config": {}, "class_name": "Zeros"}, "moving_variance_initializer": {"config": {}, "class_name": "Ones"}, "momentum": 0.99, "gamma_constraint": null, "name": "batch_normalization_10", "trainable": true, "beta_constraint": null}, "name": "batch_normalization_10", "class_name": "BatchNormalization", "inbound_nodes": [[["conv2d_10", 0, 0, {}]]]}, {"config": {"name": "elu_11", "trainable": true, "alpha": 1.0}, "name": "elu_11", "class_name": "ELU", "inbound_nodes": [[["batch_normalization_10", 0, 0, {}]]]}, {"config": {"name": "dropout_4", "rate": 0.5, "trainable": true}, "name": "dropout_4", "class_name": "Dropout", "inbound_nodes": [[["elu_11", 0, 0, {}]]]}, {"config": {"use_bias": true, "kernel_size": [3, 3], "trainable": true, "bias_regularizer": null, "kernel_initializer": {"config": {"distribution": "normal", "mode": "fan_avg", "seed": null, "scale": 1.0}, "class_name": "VarianceScaling"}, "padding": "same", "kernel_regularizer": null, "dilation_rate": [1, 1], "filters": 64, "activity_regularizer": null, "bias_constraint": null, "kernel_constraint": {"config": {"axis": 0, "max_value": 2.0}, "class_name": "MaxNorm"}, "activation": "linear", "name": "conv2d_11", "data_format": "channels_last", "bias_initializer": {"config": {}, "class_name": "Zeros"}, "strides": [1, 1]}, "name": "conv2d_11", "class_name": "Conv2D", "inbound_nodes": [[["dropout_4", 0, 0, {}]]]}, {"config": {"name": "add_4", "trainable": true}, "name": "add_4", "class_name": "Add", "inbound_nodes": [[["conv2d_11", 0, 0, {}], ["elu_10", 0, 0, {}]]]}, {"config": {"beta_regularizer": null, "scale": true, "gamma_regularizer": null, "center": true, "epsilon": 0.001, "axis": -1, "moving_mean_initializer": {"config": {}, "class_name": "Zeros"}, "gamma_initializer": {"config": {}, "class_name": "Ones"}, "beta_initializer": {"config": {}, "class_name": "Zeros"}, "moving_variance_initializer": {"config": {}, "class_name": "Ones"}, "momentum": 0.99, "gamma_constraint": null, "name": "batch_normalization_11", "trainable": true, "beta_constraint": null}, "name": "batch_normalization_11", "class_name": "BatchNormalization", "inbound_nodes": [[["add_4", 0, 0, {}]]]}, {"config": {"name": "elu_12", "trainable": true, "alpha": 1.0}, "name": "elu_12", "class_name": "ELU", "inbound_nodes": [[["batch_normalization_11", 0, 0, {}]]]}, {"config": {"use_bias": true, "kernel_size": [3, 3], "trainable": true, "bias_regularizer": null, "kernel_initializer": {"config": {"distribution": "normal", "mode": "fan_avg", "seed": null, "scale": 1.0}, "class_name": "VarianceScaling"}, "padding": "same", "kernel_regularizer": null, "dilation_rate": [1, 1], "filters": 64, "activity_regularizer": null, "bias_constraint": null, "kernel_constraint": {"config": {"axis": 0, "max_value": 2.0}, "class_name": "MaxNorm"}, "activation": "linear", "name": "conv2d_12", "data_format": "channels_last", "bias_initializer": {"config": {}, "class_name": "Zeros"}, "strides": [1, 1]}, "name": "conv2d_12", "class_name": "Conv2D", "inbound_nodes": [[["elu_12", 0, 0, {}]]]}, {"config": {"beta_regularizer": null, "scale": true, "gamma_regularizer": null, "center": true, "epsilon": 0.001, "axis": -1, "moving_mean_initializer": {"config": {}, "class_name": "Zeros"}, "gamma_initializer": {"config": {}, "class_name": "Ones"}, "beta_initializer": {"config": {}, "class_name": "Zeros"}, "moving_variance_initializer": {"config": {}, "class_name": "Ones"}, "momentum": 0.99, "gamma_constraint": null, "name": "batch_normalization_12", "trainable": true, "beta_constraint": null}, "name": "batch_normalization_12", "class_name": "BatchNormalization", "inbound_nodes": [[["conv2d_12", 0, 0, {}]]]}, {"config": {"name": "elu_13", "trainable": true, "alpha": 1.0}, "name": "elu_13", "class_name": "ELU", "inbound_nodes": [[["batch_normalization_12", 0, 0, {}]]]}, {"config": {"name": "dropout_5", "rate": 0.5, "trainable": true}, "name": "dropout_5", "class_name": "Dropout", "inbound_nodes": [[["elu_13", 0, 0, {}]]]}, {"config": {"use_bias": true, "kernel_size": [3, 3], "trainable": true, "bias_regularizer": null, "kernel_initializer": {"config": {"distribution": "normal", "mode": "fan_avg", "seed": null, "scale": 1.0}, "class_name": "VarianceScaling"}, "padding": "same", "kernel_regularizer": null, "dilation_rate": [1, 1], "filters": 64, "activity_regularizer": null, "bias_constraint": null, "kernel_constraint": {"config": {"axis": 0, "max_value": 2.0}, "class_name": "MaxNorm"}, "activation": "linear", "name": "conv2d_13", "data_format": "channels_last", "bias_initializer": {"config": {}, "class_name": "Zeros"}, "strides": [1, 1]}, "name": "conv2d_13", "class_name": "Conv2D", "inbound_nodes": [[["dropout_5", 0, 0, {}]]]}, {"config": {"name": "add_5", "trainable": true}, "name": "add_5", "class_name": "Add", "inbound_nodes": [[["conv2d_13", 0, 0, {}], ["elu_12", 0, 0, {}]]]}, {"config": {"beta_regularizer": null, "scale": true, "gamma_regularizer": null, "center": true, "epsilon": 0.001, "axis": -1, "moving_mean_initializer": {"config": {}, "class_name": "Zeros"}, "gamma_initializer": {"config": {}, "class_name": "Ones"}, "beta_initializer": {"config": {}, "class_name": "Zeros"}, "moving_variance_initializer": {"config": {}, "class_name": "Ones"}, "momentum": 0.99, "gamma_constraint": null, "name": "batch_normalization_13", "trainable": true, "beta_constraint": null}, "name": "batch_normalization_13", "class_name": "BatchNormalization", "inbound_nodes": [[["add_5", 0, 0, {}]]]}, {"config": {"name": "elu_14", "trainable": true, "alpha": 1.0}, "name": "elu_14", "class_name": "ELU", "inbound_nodes": [[["batch_normalization_13", 0, 0, {}]]]}, {"config": {"use_bias": true, "kernel_size": [3, 3], "trainable": true, "bias_regularizer": null, "kernel_initializer": {"config": {"distribution": "normal", "mode": "fan_avg", "seed": null, "scale": 1.0}, "class_name": "VarianceScaling"}, "padding": "same", "kernel_regularizer": null, "dilation_rate": [1, 1], "filters": 64, "activity_regularizer": null, "bias_constraint": null, "kernel_constraint": {"config": {"axis": 0, "max_value": 2.0}, "class_name": "MaxNorm"}, "activation": "linear", "name": "conv2d_14", "data_format": "channels_last", "bias_initializer": {"config": {}, "class_name": "Zeros"}, "strides": [1, 1]}, "name": "conv2d_14", "class_name": "Conv2D", "inbound_nodes": [[["elu_14", 0, 0, {}]]]}, {"config": {"beta_regularizer": null, "scale": true, "gamma_regularizer": null, "center": true, "epsilon": 0.001, "axis": -1, "moving_mean_initializer": {"config": {}, "class_name": "Zeros"}, "gamma_initializer": {"config": {}, "class_name": "Ones"}, "beta_initializer": {"config": {}, "class_name": "Zeros"}, "moving_variance_initializer": {"config": {}, "class_name": "Ones"}, "momentum": 0.99, "gamma_constraint": null, "name": "batch_normalization_14", "trainable": true, "beta_constraint": null}, "name": "batch_normalization_14", "class_name": "BatchNormalization", "inbound_nodes": [[["conv2d_14", 0, 0, {}]]]}, {"config": {"name": "elu_15", "trainable": true, "alpha": 1.0}, "name": "elu_15", "class_name": "ELU", "inbound_nodes": [[["batch_normalization_14", 0, 0, {}]]]}, {"config": {"name": "dropout_6", "rate": 0.5, "trainable": true}, "name": "dropout_6", "class_name": "Dropout", "inbound_nodes": [[["elu_15", 0, 0, {}]]]}, {"config": {"use_bias": true, "kernel_size": [3, 3], "trainable": true, "bias_regularizer": null, "kernel_initializer": {"config": {"distribution": "normal", "mode": "fan_avg", "seed": null, "scale": 1.0}, "class_name": "VarianceScaling"}, "padding": "same", "kernel_regularizer": null, "dilation_rate": [1, 1], "filters": 64, "activity_regularizer": null, "bias_constraint": null, "kernel_constraint": {"config": {"axis": 0, "max_value": 2.0}, "class_name": "MaxNorm"}, "activation": "linear", "name": "conv2d_15", "data_format": "channels_last", "bias_initializer": {"config": {}, "class_name": "Zeros"}, "strides": [1, 1]}, "name": "conv2d_15", "class_name": "Conv2D", "inbound_nodes": [[["dropout_6", 0, 0, {}]]]}, {"config": {"name": "add_6", "trainable": true}, "name": "add_6", "class_name": "Add", "inbound_nodes": [[["conv2d_15", 0, 0, {}], ["elu_14", 0, 0, {}]]]}, {"config": {"beta_regularizer": null, "scale": true, "gamma_regularizer": null, "center": true, "epsilon": 0.001, "axis": -1, "moving_mean_initializer": {"config": {}, "class_name": "Zeros"}, "gamma_initializer": {"config": {}, "class_name": "Ones"}, "beta_initializer": {"config": {}, "class_name": "Zeros"}, "moving_variance_initializer": {"config": {}, "class_name": "Ones"}, "momentum": 0.99, "gamma_constraint": null, "name": "batch_normalization_15", "trainable": true, "beta_constraint": null}, "name": "batch_normalization_15", "class_name": "BatchNormalization", "inbound_nodes": [[["add_6", 0, 0, {}]]]}, {"config": {"name": "elu_16", "trainable": true, "alpha": 1.0}, "name": "elu_16", "class_name": "ELU", "inbound_nodes": [[["batch_normalization_15", 0, 0, {}]]]}, {"config": {"use_bias": true, "kernel_size": [3, 3], "trainable": true, "bias_regularizer": null, "kernel_initializer": {"config": {"distribution": "normal", "mode": "fan_avg", "seed": null, "scale": 1.0}, "class_name": "VarianceScaling"}, "padding": "same", "kernel_regularizer": null, "dilation_rate": [1, 1], "filters": 64, "activity_regularizer": null, "bias_constraint": null, "kernel_constraint": {"config": {"axis": 0, "max_value": 2.0}, "class_name": "MaxNorm"}, "activation": "linear", "name": "conv2d_16", "data_format": "channels_last", "bias_initializer": {"config": {}, "class_name": "Zeros"}, "strides": [1, 1]}, "name": "conv2d_16", "class_name": "Conv2D", "inbound_nodes": [[["elu_16", 0, 0, {}]]]}, {"config": {"beta_regularizer": null, "scale": true, "gamma_regularizer": null, "center": true, "epsilon": 0.001, "axis": -1, "moving_mean_initializer": {"config": {}, "class_name": "Zeros"}, "gamma_initializer": {"config": {}, "class_name": "Ones"}, "beta_initializer": {"config": {}, "class_name": "Zeros"}, "moving_variance_initializer": {"config": {}, "class_name": "Ones"}, "momentum": 0.99, "gamma_constraint": null, "name": "batch_normalization_16", "trainable": true, "beta_constraint": null}, "name": "batch_normalization_16", "class_name": "BatchNormalization", "inbound_nodes": [[["conv2d_16", 0, 0, {}]]]}, {"config": {"name": "elu_17", "trainable": true, "alpha": 1.0}, "name": "elu_17", "class_name": "ELU", "inbound_nodes": [[["batch_normalization_16", 0, 0, {}]]]}, {"config": {"name": "dropout_7", "rate": 0.5, "trainable": true}, "name": "dropout_7", "class_name": "Dropout", "inbound_nodes": [[["elu_17", 0, 0, {}]]]}, {"config": {"use_bias": true, "kernel_size": [3, 3], "trainable": true, "bias_regularizer": null, "kernel_initializer": {"config": {"distribution": "normal", "mode": "fan_avg", "seed": null, "scale": 1.0}, "class_name": "VarianceScaling"}, "padding": "same", "kernel_regularizer": null, "dilation_rate": [1, 1], "filters": 64, "activity_regularizer": null, "bias_constraint": null, "kernel_constraint": {"config": {"axis": 0, "max_value": 2.0}, "class_name": "MaxNorm"}, "activation": "linear", "name": "conv2d_17", "data_format": "channels_last", "bias_initializer": {"config": {}, "class_name": "Zeros"}, "strides": [1, 1]}, "name": "conv2d_17", "class_name": "Conv2D", "inbound_nodes": [[["dropout_7", 0, 0, {}]]]}, {"config": {"name": "add_7", "trainable": true}, "name": "add_7", "class_name": "Add", "inbound_nodes": [[["conv2d_17", 0, 0, {}], ["elu_16", 0, 0, {}]]]}, {"config": {"beta_regularizer": null, "scale": true, "gamma_regularizer": null, "center": true, "epsilon": 0.001, "axis": -1, "moving_mean_initializer": {"config": {}, "class_name": "Zeros"}, "gamma_initializer": {"config": {}, "class_name": "Ones"}, "beta_initializer": {"config": {}, "class_name": "Zeros"}, "moving_variance_initializer": {"config": {}, "class_name": "Ones"}, "momentum": 0.99, "gamma_constraint": null, "name": "batch_normalization_17", "trainable": true, "beta_constraint": null}, "name": "batch_normalization_17", "class_name": "BatchNormalization", "inbound_nodes": [[["add_7", 0, 0, {}]]]}, {"config": {"name": "elu_18", "trainable": true, "alpha": 1.0}, "name": "elu_18", "class_name": "ELU", "inbound_nodes": [[["batch_normalization_17", 0, 0, {}]]]}, {"config": {"use_bias": true, "kernel_size": [3, 3], "trainable": true, "bias_regularizer": null, "kernel_initializer": {"config": {"distribution": "normal", "mode": "fan_avg", "seed": null, "scale": 1.0}, "class_name": "VarianceScaling"}, "padding": "same", "kernel_regularizer": null, "dilation_rate": [1, 1], "filters": 64, "activity_regularizer": null, "bias_constraint": null, "kernel_constraint": {"config": {"axis": 0, "max_value": 2.0}, "class_name": "MaxNorm"}, "activation": "linear", "name": "conv2d_18", "data_format": "channels_last", "bias_initializer": {"config": {}, "class_name": "Zeros"}, "strides": [1, 1]}, "name": "conv2d_18", "class_name": "Conv2D", "inbound_nodes": [[["elu_18", 0, 0, {}]]]}, {"config": {"beta_regularizer": null, "scale": true, "gamma_regularizer": null, "center": true, "epsilon": 0.001, "axis": -1, "moving_mean_initializer": {"config": {}, "class_name": "Zeros"}, "gamma_initializer": {"config": {}, "class_name": "Ones"}, "beta_initializer": {"config": {}, "class_name": "Zeros"}, "moving_variance_initializer": {"config": {}, "class_name": "Ones"}, "momentum": 0.99, "gamma_constraint": null, "name": "batch_normalization_18", "trainable": true, "beta_constraint": null}, "name": "batch_normalization_18", "class_name": "BatchNormalization", "inbound_nodes": [[["conv2d_18", 0, 0, {}]]]}, {"config": {"name": "elu_19", "trainable": true, "alpha": 1.0}, "name": "elu_19", "class_name": "ELU", "inbound_nodes": [[["batch_normalization_18", 0, 0, {}]]]}, {"config": {"name": "dropout_8", "rate": 0.5, "trainable": true}, "name": "dropout_8", "class_name": "Dropout", "inbound_nodes": [[["elu_19", 0, 0, {}]]]}, {"config": {"use_bias": true, "kernel_size": [3, 3], "trainable": true, "bias_regularizer": null, "kernel_initializer": {"config": {"distribution": "normal", "mode": "fan_avg", "seed": null, "scale": 1.0}, "class_name": "VarianceScaling"}, "padding": "same", "kernel_regularizer": null, "dilation_rate": [1, 1], "filters": 64, "activity_regularizer": null, "bias_constraint": null, "kernel_constraint": {"config": {"axis": 0, "max_value": 2.0}, "class_name": "MaxNorm"}, "activation": "linear", "name": "conv2d_19", "data_format": "channels_last", "bias_initializer": {"config": {}, "class_name": "Zeros"}, "strides": [1, 1]}, "name": "conv2d_19", "class_name": "Conv2D", "inbound_nodes": [[["dropout_8", 0, 0, {}]]]}, {"config": {"name": "add_8", "trainable": true}, "name": "add_8", "class_name": "Add", "inbound_nodes": [[["conv2d_19", 0, 0, {}], ["elu_18", 0, 0, {}]]]}, {"config": {"beta_regularizer": null, "scale": true, "gamma_regularizer": null, "center": true, "epsilon": 0.001, "axis": -1, "moving_mean_initializer": {"config": {}, "class_name": "Zeros"}, "gamma_initializer": {"config": {}, "class_name": "Ones"}, "beta_initializer": {"config": {}, "class_name": "Zeros"}, "moving_variance_initializer": {"config": {}, "class_name": "Ones"}, "momentum": 0.99, "gamma_constraint": null, "name": "batch_normalization_19", "trainable": true, "beta_constraint": null}, "name": "batch_normalization_19", "class_name": "BatchNormalization", "inbound_nodes": [[["add_8", 0, 0, {}]]]}, {"config": {"name": "elu_20", "trainable": true, "alpha": 1.0}, "name": "elu_20", "class_name": "ELU", "inbound_nodes": [[["batch_normalization_19", 0, 0, {}]]]}, {"config": {"use_bias": true, "kernel_size": [3, 3], "trainable": true, "bias_regularizer": null, "kernel_initializer": {"config": {"distribution": "normal", "mode": "fan_avg", "seed": null, "scale": 1.0}, "class_name": "VarianceScaling"}, "padding": "same", "kernel_regularizer": null, "dilation_rate": [1, 1], "filters": 64, "activity_regularizer": null, "bias_constraint": null, "kernel_constraint": {"config": {"axis": 0, "max_value": 2.0}, "class_name": "MaxNorm"}, "activation": "linear", "name": "conv2d_20", "data_format": "channels_last", "bias_initializer": {"config": {}, "class_name": "Zeros"}, "strides": [1, 1]}, "name": "conv2d_20", "class_name": "Conv2D", "inbound_nodes": [[["elu_20", 0, 0, {}]]]}, {"config": {"beta_regularizer": null, "scale": true, "gamma_regularizer": null, "center": true, "epsilon": 0.001, "axis": -1, "moving_mean_initializer": {"config": {}, "class_name": "Zeros"}, "gamma_initializer": {"config": {}, "class_name": "Ones"}, "beta_initializer": {"config": {}, "class_name": "Zeros"}, "moving_variance_initializer": {"config": {}, "class_name": "Ones"}, "momentum": 0.99, "gamma_constraint": null, "name": "batch_normalization_20", "trainable": true, "beta_constraint": null}, "name": "batch_normalization_20", "class_name": "BatchNormalization", "inbound_nodes": [[["conv2d_20", 0, 0, {}]]]}, {"config": {"name": "elu_21", "trainable": true, "alpha": 1.0}, "name": "elu_21", "class_name": "ELU", "inbound_nodes": [[["batch_normalization_20", 0, 0, {}]]]}, {"config": {"name": "dropout_9", "rate": 0.5, "trainable": true}, "name": "dropout_9", "class_name": "Dropout", "inbound_nodes": [[["elu_21", 0, 0, {}]]]}, {"config": {"use_bias": true, "kernel_size": [3, 3], "trainable": true, "bias_regularizer": null, "kernel_initializer": {"config": {"distribution": "normal", "mode": "fan_avg", "seed": null, "scale": 1.0}, "class_name": "VarianceScaling"}, "padding": "same", "kernel_regularizer": null, "dilation_rate": [1, 1], "filters": 64, "activity_regularizer": null, "bias_constraint": null, "kernel_constraint": {"config": {"axis": 0, "max_value": 2.0}, "class_name": "MaxNorm"}, "activation": "linear", "name": "conv2d_21", "data_format": "channels_last", "bias_initializer": {"config": {}, "class_name": "Zeros"}, "strides": [1, 1]}, "name": "conv2d_21", "class_name": "Conv2D", "inbound_nodes": [[["dropout_9", 0, 0, {}]]]}, {"config": {"name": "add_9", "trainable": true}, "name": "add_9", "class_name": "Add", "inbound_nodes": [[["conv2d_21", 0, 0, {}], ["elu_20", 0, 0, {}]]]}, {"config": {"beta_regularizer": null, "scale": true, "gamma_regularizer": null, "center": true, "epsilon": 0.001, "axis": -1, "moving_mean_initializer": {"config": {}, "class_name": "Zeros"}, "gamma_initializer": {"config": {}, "class_name": "Ones"}, "beta_initializer": {"config": {}, "class_name": "Zeros"}, "moving_variance_initializer": {"config": {}, "class_name": "Ones"}, "momentum": 0.99, "gamma_constraint": null, "name": "batch_normalization_21", "trainable": true, "beta_constraint": null}, "name": "batch_normalization_21", "class_name": "BatchNormalization", "inbound_nodes": [[["add_9", 0, 0, {}]]]}, {"config": {"name": "elu_22", "trainable": true, "alpha": 1.0}, "name": "elu_22", "class_name": "ELU", "inbound_nodes": [[["batch_normalization_21", 0, 0, {}]]]}, {"config": {"use_bias": true, "kernel_size": [3, 3], "trainable": true, "bias_regularizer": null, "kernel_initializer": {"config": {"distribution": "normal", "mode": "fan_avg", "seed": null, "scale": 1.0}, "class_name": "VarianceScaling"}, "padding": "same", "kernel_regularizer": null, "dilation_rate": [1, 1], "filters": 256, "activity_regularizer": null, "bias_constraint": null, "kernel_constraint": {"config": {"axis": 0, "max_value": 2.0}, "class_name": "MaxNorm"}, "activation": "linear", "name": "conv2d_22", "data_format": "channels_last", "bias_initializer": {"config": {}, "class_name": "Zeros"}, "strides": [1, 1]}, "name": "conv2d_22", "class_name": "Conv2D", "inbound_nodes": [[["elu_22", 0, 0, {}]]]}, {"config": {"beta_regularizer": null, "scale": true, "gamma_regularizer": null, "center": true, "epsilon": 0.001, "axis": -1, "moving_mean_initializer": {"config": {}, "class_name": "Zeros"}, "gamma_initializer": {"config": {}, "class_name": "Ones"}, "beta_initializer": {"config": {}, "class_name": "Zeros"}, "moving_variance_initializer": {"config": {}, "class_name": "Ones"}, "momentum": 0.99, "gamma_constraint": null, "name": "batch_normalization_22", "trainable": true, "beta_constraint": null}, "name": "batch_normalization_22", "class_name": "BatchNormalization", "inbound_nodes": [[["conv2d_22", 0, 0, {}]]]}, {"config": {"name": "elu_23", "trainable": true, "alpha": 1.0}, "name": "elu_23", "class_name": "ELU", "inbound_nodes": [[["batch_normalization_22", 0, 0, {}]]]}, {"config": {"pool_size": [4, 4], "trainable": true, "padding": "valid", "name": "average_pooling2d_2", "data_format": "channels_last", "strides": [2, 2]}, "name": "average_pooling2d_2", "class_name": "AveragePooling2D", "inbound_nodes": [[["elu_23", 0, 0, {}]]]}, {"config": {"name": "flatten_1", "trainable": true}, "name": "flatten_1", "class_name": "Flatten", "inbound_nodes": [[["average_pooling2d_2", 0, 0, {}]]]}, {"config": {"use_bias": true, "trainable": true, "kernel_initializer": {"config": {"distribution": "normal", "mode": "fan_avg", "seed": null, "scale": 1.0}, "class_name": "VarianceScaling"}, "kernel_regularizer": null, "activation": "elu", "bias_regularizer": null, "activity_regularizer": null, "bias_constraint": null, "name": "dense_1", "kernel_constraint": {"config": {"axis": 0, "max_value": 2.0}, "class_name": "MaxNorm"}, "units": 1164, "bias_initializer": {"config": {}, "class_name": "Zeros"}}, "name": "dense_1", "class_name": "Dense", "inbound_nodes": [[["flatten_1", 0, 0, {}]]]}, {"config": {"use_bias": true, "trainable": true, "kernel_initializer": {"config": {"distribution": "normal", "mode": "fan_avg", "seed": null, "scale": 1.0}, "class_name": "VarianceScaling"}, "kernel_regularizer": null, "activation": "linear", "bias_regularizer": null, "activity_regularizer": null, "bias_constraint": null, "name": "dense_2", "kernel_constraint": {"config": {"axis": 0, "max_value": 2.0}, "class_name": "MaxNorm"}, "units": 512, "bias_initializer": {"config": {}, "class_name": "Zeros"}}, "name": "dense_2", "class_name": "Dense", "inbound_nodes": [[["dense_1", 0, 0, {}]]]}, {"config": {"use_bias": true, "trainable": true, "kernel_initializer": {"config": {"distribution": "normal", "mode": "fan_avg", "seed": null, "scale": 1.0}, "class_name": "VarianceScaling"}, "kernel_regularizer": null, "activation": "linear", "bias_regularizer": null, "activity_regularizer": null, "bias_constraint": null, "name": "dense_3", "kernel_constraint": {"config": {"axis": 0, "max_value": 2.0}, "class_name": "MaxNorm"}, "units": 100, "bias_initializer": {"config": {}, "class_name": "Zeros"}}, "name": "dense_3", "class_name": "Dense", "inbound_nodes": [[["dense_2", 0, 0, {}]]]}, {"config": {"use_bias": true, "trainable": true, "kernel_initializer": {"config": {"distribution": "normal", "mode": "fan_avg", "seed": null, "scale": 1.0}, "class_name": "VarianceScaling"}, "kernel_regularizer": null, "activation": "linear", "bias_regularizer": null, "activity_regularizer": null, "bias_constraint": null, "name": "dense_4", "kernel_constraint": {"config": {"axis": 0, "max_value": 2.0}, "class_name": "MaxNorm"}, "units": 50, "bias_initializer": {"config": {}, "class_name": "Zeros"}}, "name": "dense_4", "class_name": "Dense", "inbound_nodes": [[["dense_3", 0, 0, {}]]]}, {"config": {"use_bias": true, "trainable": true, "kernel_initializer": {"config": {"distribution": "uniform", "mode": "fan_avg", "seed": null, "scale": 1.0}, "class_name": "VarianceScaling"}, "kernel_regularizer": null, "activation": "linear", "bias_regularizer": null, "activity_regularizer": null, "bias_constraint": null, "name": "dense_5", "kernel_constraint": null, "units": 1, "bias_initializer": {"config": {}, "class_name": "Zeros"}}, "name": "dense_5", "class_name": "Dense", "inbound_nodes": [[["dense_4", 0, 0, {}]]]}, {"config": {"use_bias": true, "trainable": true, "kernel_initializer": {"config": {"distribution": "uniform", "mode": "fan_avg", "seed": null, "scale": 1.0}, "class_name": "VarianceScaling"}, "kernel_regularizer": null, "activation": "linear", "bias_regularizer": null, "activity_regularizer": null, "bias_constraint": null, "name": "steering_output", "kernel_constraint": null, "units": 1, "bias_initializer": {"config": {}, "class_name": "Zeros"}}, "name": "steering_output", "class_name": "Dense", "inbound_nodes": [[["dense_5", 0, 0, {}]]]}], "name": "model_1", "input_layers": [["images", 0, 0]], "output_layers": [["steering_output", 0, 0]]}, "keras_version": "2.0.2", "backend": "tensorflow", "class_name": "Model"}