{"keras_version": "2.0.2", "config": {"output_layers": [["steering_output", 0, 0]], "name": "model_1", "layers": [{"inbound_nodes": [], "config": {"batch_input_shape": [null, 80, 80, 3], "sparse": false, "dtype": "float32", "name": "images"}, "class_name": "InputLayer", "name": "images"}, {"inbound_nodes": [[["images", 0, 0, {}]]], "config": {"function": ["\u00e3\u0001\u0000\u0000\u0000\u0000\u0000\u0000\u0000\u0001\u0000\u0000\u0000\u0002\u0000\u0000\u0000S\u0000\u0000\u0000s\f\u0000\u0000\u0000|\u0000\u0000d\u0001\u0000\u001bd\u0002\u0000\u0018S)\u0003N\u00e7\u0000\u0000\u0000\u0000\u0000\u00e0_@\u00e7\u0000\u0000\u0000\u0000\u0000\u0000\u00f0?\u00a9\u0000)\u0001\u00da\u0001xr\u0003\u0000\u0000\u0000r\u0003\u0000\u0000\u0000\u00fa\bmodel.py\u00da\b<lambda>+\u0001\u0000\u0000s\u0000\u0000\u0000\u0000", null, null], "output_shape_type": "raw", "name": "lambda_1", "output_shape": null, "function_type": "lambda", "trainable": true, "arguments": {}}, "class_name": "Lambda", "name": "lambda_1"}, {"inbound_nodes": [[["lambda_1", 0, 0, {}]]], "config": {"dilation_rate": [1, 1], "kernel_initializer": {"config": {"distribution": "normal", "scale": 1.0, "seed": null, "mode": "fan_avg"}, "class_name": "VarianceScaling"}, "use_bias": true, "kernel_size": [5, 5], "trainable": true, "activation": "linear", "filters": 32, "activity_regularizer": null, "bias_initializer": {"config": {}, "class_name": "Zeros"}, "strides": [2, 2], "kernel_regularizer": null, "data_format": "channels_last", "bias_regularizer": null, "bias_constraint": null, "name": "conv2d_1", "kernel_constraint": {"config": {"max_value": 2.0, "axis": 0}, "class_name": "MaxNorm"}, "padding": "same"}, "class_name": "Conv2D", "name": "conv2d_1"}, {"inbound_nodes": [[["conv2d_1", 0, 0, {}]]], "config": {"scale": true, "center": true, "moving_mean_initializer": {"config": {}, "class_name": "Zeros"}, "epsilon": 0.001, "beta_constraint": null, "gamma_initializer": {"config": {}, "class_name": "Ones"}, "axis": -1, "beta_initializer": {"config": {}, "class_name": "Zeros"}, "moving_variance_initializer": {"config": {}, "class_name": "Ones"}, "beta_regularizer": null, "gamma_constraint": null, "momentum": 0.99, "name": "batch_normalization_1", "trainable": true, "gamma_regularizer": null}, "class_name": "BatchNormalization", "name": "batch_normalization_1"}, {"inbound_nodes": [[["batch_normalization_1", 0, 0, {}]]], "config": {"name": "elu_1", "trainable": true, "alpha": 1.0}, "class_name": "ELU", "name": "elu_1"}, {"inbound_nodes": [[["elu_1", 0, 0, {}]]], "config": {"dilation_rate": [1, 1], "kernel_initializer": {"config": {"distribution": "normal", "scale": 1.0, "seed": null, "mode": "fan_avg"}, "class_name": "VarianceScaling"}, "use_bias": true, "kernel_size": [5, 5], "trainable": true, "activation": "linear", "filters": 32, "activity_regularizer": null, "bias_initializer": {"config": {}, "class_name": "Zeros"}, "strides": [2, 2], "kernel_regularizer": null, "data_format": "channels_last", "bias_regularizer": null, "bias_constraint": null, "name": "conv2d_2", "kernel_constraint": {"config": {"max_value": 2.0, "axis": 0}, "class_name": "MaxNorm"}, "padding": "same"}, "class_name": "Conv2D", "name": "conv2d_2"}, {"inbound_nodes": [[["conv2d_2", 0, 0, {}]]], "config": {"scale": true, "center": true, "moving_mean_initializer": {"config": {}, "class_name": "Zeros"}, "epsilon": 0.001, "beta_constraint": null, "gamma_initializer": {"config": {}, "class_name": "Ones"}, "axis": -1, "beta_initializer": {"config": {}, "class_name": "Zeros"}, "moving_variance_initializer": {"config": {}, "class_name": "Ones"}, "beta_regularizer": null, "gamma_constraint": null, "momentum": 0.99, "name": "batch_normalization_2", "trainable": true, "gamma_regularizer": null}, "class_name": "BatchNormalization", "name": "batch_normalization_2"}, {"inbound_nodes": [[["batch_normalization_2", 0, 0, {}]]], "config": {"name": "elu_2", "trainable": true, "alpha": 1.0}, "class_name": "ELU", "name": "elu_2"}, {"inbound_nodes": [[["elu_2", 0, 0, {}]]], "config": {"strides": [2, 2], "trainable": true, "data_format": "channels_last", "pool_size": [4, 4], "name": "average_pooling2d_1", "padding": "same"}, "class_name": "AveragePooling2D", "name": "average_pooling2d_1"}, {"inbound_nodes": [[["average_pooling2d_1", 0, 0, {}]]], "config": {"dilation_rate": [1, 1], "kernel_initializer": {"config": {"distribution": "normal", "scale": 1.0, "seed": null, "mode": "fan_avg"}, "class_name": "VarianceScaling"}, "use_bias": true, "kernel_size": [5, 5], "trainable": true, "activation": "linear", "filters": 32, "activity_regularizer": null, "bias_initializer": {"config": {}, "class_name": "Zeros"}, "strides": [1, 1], "kernel_regularizer": null, "data_format": "channels_last", "bias_regularizer": null, "bias_constraint": null, "name": "conv2d_3", "kernel_constraint": {"config": {"max_value": 2.0, "axis": 0}, "class_name": "MaxNorm"}, "padding": "same"}, "class_name": "Conv2D", "name": "conv2d_3"}, {"inbound_nodes": [[["conv2d_3", 0, 0, {}]]], "config": {"scale": true, "center": true, "moving_mean_initializer": {"config": {}, "class_name": "Zeros"}, "epsilon": 0.001, "beta_constraint": null, "gamma_initializer": {"config": {}, "class_name": "Ones"}, "axis": -1, "beta_initializer": {"config": {}, "class_name": "Zeros"}, "moving_variance_initializer": {"config": {}, "class_name": "Ones"}, "beta_regularizer": null, "gamma_constraint": null, "momentum": 0.99, "name": "batch_normalization_3", "trainable": true, "gamma_regularizer": null}, "class_name": "BatchNormalization", "name": "batch_normalization_3"}, {"inbound_nodes": [[["batch_normalization_3", 0, 0, {}]]], "config": {"name": "elu_3", "trainable": true, "alpha": 1.0}, "class_name": "ELU", "name": "elu_3"}, {"inbound_nodes": [[["elu_3", 0, 0, {}]]], "config": {"name": "dropout_1", "rate": 0.5, "trainable": true}, "class_name": "Dropout", "name": "dropout_1"}, {"inbound_nodes": [[["dropout_1", 0, 0, {}]]], "config": {"dilation_rate": [1, 1], "kernel_initializer": {"config": {"distribution": "normal", "scale": 1.0, "seed": null, "mode": "fan_avg"}, "class_name": "VarianceScaling"}, "use_bias": true, "kernel_size": [5, 5], "trainable": true, "activation": "linear", "filters": 32, "activity_regularizer": null, "bias_initializer": {"config": {}, "class_name": "Zeros"}, "strides": [1, 1], "kernel_regularizer": null, "data_format": "channels_last", "bias_regularizer": null, "bias_constraint": null, "name": "conv2d_4", "kernel_constraint": {"config": {"max_value": 2.0, "axis": 0}, "class_name": "MaxNorm"}, "padding": "same"}, "class_name": "Conv2D", "name": "conv2d_4"}, {"inbound_nodes": [[["conv2d_4", 0, 0, {}], ["average_pooling2d_1", 0, 0, {}]]], "config": {"name": "add_1", "trainable": true}, "class_name": "Add", "name": "add_1"}, {"inbound_nodes": [[["add_1", 0, 0, {}]]], "config": {"scale": true, "center": true, "moving_mean_initializer": {"config": {}, "class_name": "Zeros"}, "epsilon": 0.001, "beta_constraint": null, "gamma_initializer": {"config": {}, "class_name": "Ones"}, "axis": -1, "beta_initializer": {"config": {}, "class_name": "Zeros"}, "moving_variance_initializer": {"config": {}, "class_name": "Ones"}, "beta_regularizer": null, "gamma_constraint": null, "momentum": 0.99, "name": "batch_normalization_4", "trainable": true, "gamma_regularizer": null}, "class_name": "BatchNormalization", "name": "batch_normalization_4"}, {"inbound_nodes": [[["batch_normalization_4", 0, 0, {}]]], "config": {"name": "elu_4", "trainable": true, "alpha": 1.0}, "class_name": "ELU", "name": "elu_4"}, {"inbound_nodes": [[["elu_4", 0, 0, {}]]], "config": {"dilation_rate": [1, 1], "kernel_initializer": {"config": {"distribution": "normal", "scale": 1.0, "seed": null, "mode": "fan_avg"}, "class_name": "VarianceScaling"}, "use_bias": true, "kernel_size": [5, 5], "trainable": true, "activation": "linear", "filters": 32, "activity_regularizer": null, "bias_initializer": {"config": {}, "class_name": "Zeros"}, "strides": [1, 1], "kernel_regularizer": null, "data_format": "channels_last", "bias_regularizer": null, "bias_constraint": null, "name": "conv2d_5", "kernel_constraint": {"config": {"max_value": 2.0, "axis": 0}, "class_name": "MaxNorm"}, "padding": "same"}, "class_name": "Conv2D", "name": "conv2d_5"}, {"inbound_nodes": [[["conv2d_5", 0, 0, {}]]], "config": {"scale": true, "center": true, "moving_mean_initializer": {"config": {}, "class_name": "Zeros"}, "epsilon": 0.001, "beta_constraint": null, "gamma_initializer": {"config": {}, "class_name": "Ones"}, "axis": -1, "beta_initializer": {"config": {}, "class_name": "Zeros"}, "moving_variance_initializer": {"config": {}, "class_name": "Ones"}, "beta_regularizer": null, "gamma_constraint": null, "momentum": 0.99, "name": "batch_normalization_5", "trainable": true, "gamma_regularizer": null}, "class_name": "BatchNormalization", "name": "batch_normalization_5"}, {"inbound_nodes": [[["batch_normalization_5", 0, 0, {}]]], "config": {"name": "elu_5", "trainable": true, "alpha": 1.0}, "class_name": "ELU", "name": "elu_5"}, {"inbound_nodes": [[["elu_5", 0, 0, {}]]], "config": {"name": "dropout_2", "rate": 0.5, "trainable": true}, "class_name": "Dropout", "name": "dropout_2"}, {"inbound_nodes": [[["dropout_2", 0, 0, {}]]], "config": {"dilation_rate": [1, 1], "kernel_initializer": {"config": {"distribution": "normal", "scale": 1.0, "seed": null, "mode": "fan_avg"}, "class_name": "VarianceScaling"}, "use_bias": true, "kernel_size": [5, 5], "trainable": true, "activation": "linear", "filters": 32, "activity_regularizer": null, "bias_initializer": {"config": {}, "class_name": "Zeros"}, "strides": [1, 1], "kernel_regularizer": null, "data_format": "channels_last", "bias_regularizer": null, "bias_constraint": null, "name": "conv2d_6", "kernel_constraint": {"config": {"max_value": 2.0, "axis": 0}, "class_name": "MaxNorm"}, "padding": "same"}, "class_name": "Conv2D", "name": "conv2d_6"}, {"inbound_nodes": [[["conv2d_6", 0, 0, {}], ["elu_4", 0, 0, {}]]], "config": {"name": "add_2", "trainable": true}, "class_name": "Add", "name": "add_2"}, {"inbound_nodes": [[["add_2", 0, 0, {}]]], "config": {"scale": true, "center": true, "moving_mean_initializer": {"config": {}, "class_name": "Zeros"}, "epsilon": 0.001, "beta_constraint": null, "gamma_initializer": {"config": {}, "class_name": "Ones"}, "axis": -1, "beta_initializer": {"config": {}, "class_name": "Zeros"}, "moving_variance_initializer": {"config": {}, "class_name": "Ones"}, "beta_regularizer": null, "gamma_constraint": null, "momentum": 0.99, "name": "batch_normalization_6", "trainable": true, "gamma_regularizer": null}, "class_name": "BatchNormalization", "name": "batch_normalization_6"}, {"inbound_nodes": [[["batch_normalization_6", 0, 0, {}]]], "config": {"name": "elu_6", "trainable": true, "alpha": 1.0}, "class_name": "ELU", "name": "elu_6"}, {"inbound_nodes": [[["elu_6", 0, 0, {}]]], "config": {"dilation_rate": [1, 1], "kernel_initializer": {"config": {"distribution": "normal", "scale": 1.0, "seed": null, "mode": "fan_avg"}, "class_name": "VarianceScaling"}, "use_bias": true, "kernel_size": [5, 5], "trainable": true, "activation": "linear", "filters": 64, "activity_regularizer": null, "bias_initializer": {"config": {}, "class_name": "Zeros"}, "strides": [1, 1], "kernel_regularizer": null, "data_format": "channels_last", "bias_regularizer": null, "bias_constraint": null, "name": "conv2d_7", "kernel_constraint": {"config": {"max_value": 2.0, "axis": 0}, "class_name": "MaxNorm"}, "padding": "same"}, "class_name": "Conv2D", "name": "conv2d_7"}, {"inbound_nodes": [[["conv2d_7", 0, 0, {}]]], "config": {"scale": true, "center": true, "moving_mean_initializer": {"config": {}, "class_name": "Zeros"}, "epsilon": 0.001, "beta_constraint": null, "gamma_initializer": {"config": {}, "class_name": "Ones"}, "axis": -1, "beta_initializer": {"config": {}, "class_name": "Zeros"}, "moving_variance_initializer": {"config": {}, "class_name": "Ones"}, "beta_regularizer": null, "gamma_constraint": null, "momentum": 0.99, "name": "batch_normalization_7", "trainable": true, "gamma_regularizer": null}, "class_name": "BatchNormalization", "name": "batch_normalization_7"}, {"inbound_nodes": [[["batch_normalization_7", 0, 0, {}]]], "config": {"name": "elu_7", "trainable": true, "alpha": 1.0}, "class_name": "ELU", "name": "elu_7"}, {"inbound_nodes": [[["elu_7", 0, 0, {}]]], "config": {"dilation_rate": [1, 1], "kernel_initializer": {"config": {"distribution": "normal", "scale": 1.0, "seed": null, "mode": "fan_avg"}, "class_name": "VarianceScaling"}, "use_bias": true, "kernel_size": [3, 3], "trainable": true, "activation": "linear", "filters": 64, "activity_regularizer": null, "bias_initializer": {"config": {}, "class_name": "Zeros"}, "strides": [1, 1], "kernel_regularizer": null, "data_format": "channels_last", "bias_regularizer": null, "bias_constraint": null, "name": "conv2d_8", "kernel_constraint": {"config": {"max_value": 2.0, "axis": 0}, "class_name": "MaxNorm"}, "padding": "same"}, "class_name": "Conv2D", "name": "conv2d_8"}, {"inbound_nodes": [[["conv2d_8", 0, 0, {}]]], "config": {"scale": true, "center": true, "moving_mean_initializer": {"config": {}, "class_name": "Zeros"}, "epsilon": 0.001, "beta_constraint": null, "gamma_initializer": {"config": {}, "class_name": "Ones"}, "axis": -1, "beta_initializer": {"config": {}, "class_name": "Zeros"}, "moving_variance_initializer": {"config": {}, "class_name": "Ones"}, "beta_regularizer": null, "gamma_constraint": null, "momentum": 0.99, "name": "batch_normalization_8", "trainable": true, "gamma_regularizer": null}, "class_name": "BatchNormalization", "name": "batch_normalization_8"}, {"inbound_nodes": [[["batch_normalization_8", 0, 0, {}]]], "config": {"name": "elu_8", "trainable": true, "alpha": 1.0}, "class_name": "ELU", "name": "elu_8"}, {"inbound_nodes": [[["elu_8", 0, 0, {}]]], "config": {"name": "dropout_3", "rate": 0.5, "trainable": true}, "class_name": "Dropout", "name": "dropout_3"}, {"inbound_nodes": [[["dropout_3", 0, 0, {}]]], "config": {"dilation_rate": [1, 1], "kernel_initializer": {"config": {"distribution": "normal", "scale": 1.0, "seed": null, "mode": "fan_avg"}, "class_name": "VarianceScaling"}, "use_bias": true, "kernel_size": [3, 3], "trainable": true, "activation": "linear", "filters": 64, "activity_regularizer": null, "bias_initializer": {"config": {}, "class_name": "Zeros"}, "strides": [1, 1], "kernel_regularizer": null, "data_format": "channels_last", "bias_regularizer": null, "bias_constraint": null, "name": "conv2d_9", "kernel_constraint": {"config": {"max_value": 2.0, "axis": 0}, "class_name": "MaxNorm"}, "padding": "same"}, "class_name": "Conv2D", "name": "conv2d_9"}, {"inbound_nodes": [[["conv2d_9", 0, 0, {}], ["elu_7", 0, 0, {}]]], "config": {"name": "add_3", "trainable": true}, "class_name": "Add", "name": "add_3"}, {"inbound_nodes": [[["add_3", 0, 0, {}]]], "config": {"scale": true, "center": true, "moving_mean_initializer": {"config": {}, "class_name": "Zeros"}, "epsilon": 0.001, "beta_constraint": null, "gamma_initializer": {"config": {}, "class_name": "Ones"}, "axis": -1, "beta_initializer": {"config": {}, "class_name": "Zeros"}, "moving_variance_initializer": {"config": {}, "class_name": "Ones"}, "beta_regularizer": null, "gamma_constraint": null, "momentum": 0.99, "name": "batch_normalization_9", "trainable": true, "gamma_regularizer": null}, "class_name": "BatchNormalization", "name": "batch_normalization_9"}, {"inbound_nodes": [[["batch_normalization_9", 0, 0, {}]]], "config": {"name": "elu_9", "trainable": true, "alpha": 1.0}, "class_name": "ELU", "name": "elu_9"}, {"inbound_nodes": [[["elu_9", 0, 0, {}]]], "config": {"name": "elu_10", "trainable": true, "alpha": 1.0}, "class_name": "ELU", "name": "elu_10"}, {"inbound_nodes": [[["elu_10", 0, 0, {}]]], "config": {"dilation_rate": [1, 1], "kernel_initializer": {"config": {"distribution": "normal", "scale": 1.0, "seed": null, "mode": "fan_avg"}, "class_name": "VarianceScaling"}, "use_bias": true, "kernel_size": [3, 3], "trainable": true, "activation": "linear", "filters": 64, "activity_regularizer": null, "bias_initializer": {"config": {}, "class_name": "Zeros"}, "strides": [1, 1], "kernel_regularizer": null, "data_format": "channels_last", "bias_regularizer": null, "bias_constraint": null, "name": "conv2d_10", "kernel_constraint": {"config": {"max_value": 2.0, "axis": 0}, "class_name": "MaxNorm"}, "padding": "same"}, "class_name": "Conv2D", "name": "conv2d_10"}, {"inbound_nodes": [[["conv2d_10", 0, 0, {}]]], "config": {"scale": true, "center": true, "moving_mean_initializer": {"config": {}, "class_name": "Zeros"}, "epsilon": 0.001, "beta_constraint": null, "gamma_initializer": {"config": {}, "class_name": "Ones"}, "axis": -1, "beta_initializer": {"config": {}, "class_name": "Zeros"}, "moving_variance_initializer": {"config": {}, "class_name": "Ones"}, "beta_regularizer": null, "gamma_constraint": null, "momentum": 0.99, "name": "batch_normalization_10", "trainable": true, "gamma_regularizer": null}, "class_name": "BatchNormalization", "name": "batch_normalization_10"}, {"inbound_nodes": [[["batch_normalization_10", 0, 0, {}]]], "config": {"name": "elu_11", "trainable": true, "alpha": 1.0}, "class_name": "ELU", "name": "elu_11"}, {"inbound_nodes": [[["elu_11", 0, 0, {}]]], "config": {"name": "dropout_4", "rate": 0.5, "trainable": true}, "class_name": "Dropout", "name": "dropout_4"}, {"inbound_nodes": [[["dropout_4", 0, 0, {}]]], "config": {"dilation_rate": [1, 1], "kernel_initializer": {"config": {"distribution": "normal", "scale": 1.0, "seed": null, "mode": "fan_avg"}, "class_name": "VarianceScaling"}, "use_bias": true, "kernel_size": [3, 3], "trainable": true, "activation": "linear", "filters": 64, "activity_regularizer": null, "bias_initializer": {"config": {}, "class_name": "Zeros"}, "strides": [1, 1], "kernel_regularizer": null, "data_format": "channels_last", "bias_regularizer": null, "bias_constraint": null, "name": "conv2d_11", "kernel_constraint": {"config": {"max_value": 2.0, "axis": 0}, "class_name": "MaxNorm"}, "padding": "same"}, "class_name": "Conv2D", "name": "conv2d_11"}, {"inbound_nodes": [[["conv2d_11", 0, 0, {}], ["elu_10", 0, 0, {}]]], "config": {"name": "add_4", "trainable": true}, "class_name": "Add", "name": "add_4"}, {"inbound_nodes": [[["add_4", 0, 0, {}]]], "config": {"scale": true, "center": true, "moving_mean_initializer": {"config": {}, "class_name": "Zeros"}, "epsilon": 0.001, "beta_constraint": null, "gamma_initializer": {"config": {}, "class_name": "Ones"}, "axis": -1, "beta_initializer": {"config": {}, "class_name": "Zeros"}, "moving_variance_initializer": {"config": {}, "class_name": "Ones"}, "beta_regularizer": null, "gamma_constraint": null, "momentum": 0.99, "name": "batch_normalization_11", "trainable": true, "gamma_regularizer": null}, "class_name": "BatchNormalization", "name": "batch_normalization_11"}, {"inbound_nodes": [[["batch_normalization_11", 0, 0, {}]]], "config": {"name": "elu_12", "trainable": true, "alpha": 1.0}, "class_name": "ELU", "name": "elu_12"}, {"inbound_nodes": [[["elu_12", 0, 0, {}]]], "config": {"dilation_rate": [1, 1], "kernel_initializer": {"config": {"distribution": "normal", "scale": 1.0, "seed": null, "mode": "fan_avg"}, "class_name": "VarianceScaling"}, "use_bias": true, "kernel_size": [3, 3], "trainable": true, "activation": "linear", "filters": 64, "activity_regularizer": null, "bias_initializer": {"config": {}, "class_name": "Zeros"}, "strides": [1, 1], "kernel_regularizer": null, "data_format": "channels_last", "bias_regularizer": null, "bias_constraint": null, "name": "conv2d_12", "kernel_constraint": {"config": {"max_value": 2.0, "axis": 0}, "class_name": "MaxNorm"}, "padding": "same"}, "class_name": "Conv2D", "name": "conv2d_12"}, {"inbound_nodes": [[["conv2d_12", 0, 0, {}]]], "config": {"scale": true, "center": true, "moving_mean_initializer": {"config": {}, "class_name": "Zeros"}, "epsilon": 0.001, "beta_constraint": null, "gamma_initializer": {"config": {}, "class_name": "Ones"}, "axis": -1, "beta_initializer": {"config": {}, "class_name": "Zeros"}, "moving_variance_initializer": {"config": {}, "class_name": "Ones"}, "beta_regularizer": null, "gamma_constraint": null, "momentum": 0.99, "name": "batch_normalization_12", "trainable": true, "gamma_regularizer": null}, "class_name": "BatchNormalization", "name": "batch_normalization_12"}, {"inbound_nodes": [[["batch_normalization_12", 0, 0, {}]]], "config": {"name": "elu_13", "trainable": true, "alpha": 1.0}, "class_name": "ELU", "name": "elu_13"}, {"inbound_nodes": [[["elu_13", 0, 0, {}]]], "config": {"name": "dropout_5", "rate": 0.5, "trainable": true}, "class_name": "Dropout", "name": "dropout_5"}, {"inbound_nodes": [[["dropout_5", 0, 0, {}]]], "config": {"dilation_rate": [1, 1], "kernel_initializer": {"config": {"distribution": "normal", "scale": 1.0, "seed": null, "mode": "fan_avg"}, "class_name": "VarianceScaling"}, "use_bias": true, "kernel_size": [3, 3], "trainable": true, "activation": "linear", "filters": 64, "activity_regularizer": null, "bias_initializer": {"config": {}, "class_name": "Zeros"}, "strides": [1, 1], "kernel_regularizer": null, "data_format": "channels_last", "bias_regularizer": null, "bias_constraint": null, "name": "conv2d_13", "kernel_constraint": {"config": {"max_value": 2.0, "axis": 0}, "class_name": "MaxNorm"}, "padding": "same"}, "class_name": "Conv2D", "name": "conv2d_13"}, {"inbound_nodes": [[["conv2d_13", 0, 0, {}], ["elu_12", 0, 0, {}]]], "config": {"name": "add_5", "trainable": true}, "class_name": "Add", "name": "add_5"}, {"inbound_nodes": [[["add_5", 0, 0, {}]]], "config": {"scale": true, "center": true, "moving_mean_initializer": {"config": {}, "class_name": "Zeros"}, "epsilon": 0.001, "beta_constraint": null, "gamma_initializer": {"config": {}, "class_name": "Ones"}, "axis": -1, "beta_initializer": {"config": {}, "class_name": "Zeros"}, "moving_variance_initializer": {"config": {}, "class_name": "Ones"}, "beta_regularizer": null, "gamma_constraint": null, "momentum": 0.99, "name": "batch_normalization_13", "trainable": true, "gamma_regularizer": null}, "class_name": "BatchNormalization", "name": "batch_normalization_13"}, {"inbound_nodes": [[["batch_normalization_13", 0, 0, {}]]], "config": {"name": "elu_14", "trainable": true, "alpha": 1.0}, "class_name": "ELU", "name": "elu_14"}, {"inbound_nodes": [[["elu_14", 0, 0, {}]]], "config": {"dilation_rate": [1, 1], "kernel_initializer": {"config": {"distribution": "normal", "scale": 1.0, "seed": null, "mode": "fan_avg"}, "class_name": "VarianceScaling"}, "use_bias": true, "kernel_size": [3, 3], "trainable": true, "activation": "linear", "filters": 64, "activity_regularizer": null, "bias_initializer": {"config": {}, "class_name": "Zeros"}, "strides": [1, 1], "kernel_regularizer": null, "data_format": "channels_last", "bias_regularizer": null, "bias_constraint": null, "name": "conv2d_14", "kernel_constraint": {"config": {"max_value": 2.0, "axis": 0}, "class_name": "MaxNorm"}, "padding": "same"}, "class_name": "Conv2D", "name": "conv2d_14"}, {"inbound_nodes": [[["conv2d_14", 0, 0, {}]]], "config": {"scale": true, "center": true, "moving_mean_initializer": {"config": {}, "class_name": "Zeros"}, "epsilon": 0.001, "beta_constraint": null, "gamma_initializer": {"config": {}, "class_name": "Ones"}, "axis": -1, "beta_initializer": {"config": {}, "class_name": "Zeros"}, "moving_variance_initializer": {"config": {}, "class_name": "Ones"}, "beta_regularizer": null, "gamma_constraint": null, "momentum": 0.99, "name": "batch_normalization_14", "trainable": true, "gamma_regularizer": null}, "class_name": "BatchNormalization", "name": "batch_normalization_14"}, {"inbound_nodes": [[["batch_normalization_14", 0, 0, {}]]], "config": {"name": "elu_15", "trainable": true, "alpha": 1.0}, "class_name": "ELU", "name": "elu_15"}, {"inbound_nodes": [[["elu_15", 0, 0, {}]]], "config": {"name": "dropout_6", "rate": 0.5, "trainable": true}, "class_name": "Dropout", "name": "dropout_6"}, {"inbound_nodes": [[["dropout_6", 0, 0, {}]]], "config": {"dilation_rate": [1, 1], "kernel_initializer": {"config": {"distribution": "normal", "scale": 1.0, "seed": null, "mode": "fan_avg"}, "class_name": "VarianceScaling"}, "use_bias": true, "kernel_size": [3, 3], "trainable": true, "activation": "linear", "filters": 64, "activity_regularizer": null, "bias_initializer": {"config": {}, "class_name": "Zeros"}, "strides": [1, 1], "kernel_regularizer": null, "data_format": "channels_last", "bias_regularizer": null, "bias_constraint": null, "name": "conv2d_15", "kernel_constraint": {"config": {"max_value": 2.0, "axis": 0}, "class_name": "MaxNorm"}, "padding": "same"}, "class_name": "Conv2D", "name": "conv2d_15"}, {"inbound_nodes": [[["conv2d_15", 0, 0, {}], ["elu_14", 0, 0, {}]]], "config": {"name": "add_6", "trainable": true}, "class_name": "Add", "name": "add_6"}, {"inbound_nodes": [[["add_6", 0, 0, {}]]], "config": {"scale": true, "center": true, "moving_mean_initializer": {"config": {}, "class_name": "Zeros"}, "epsilon": 0.001, "beta_constraint": null, "gamma_initializer": {"config": {}, "class_name": "Ones"}, "axis": -1, "beta_initializer": {"config": {}, "class_name": "Zeros"}, "moving_variance_initializer": {"config": {}, "class_name": "Ones"}, "beta_regularizer": null, "gamma_constraint": null, "momentum": 0.99, "name": "batch_normalization_15", "trainable": true, "gamma_regularizer": null}, "class_name": "BatchNormalization", "name": "batch_normalization_15"}, {"inbound_nodes": [[["batch_normalization_15", 0, 0, {}]]], "config": {"name": "elu_16", "trainable": true, "alpha": 1.0}, "class_name": "ELU", "name": "elu_16"}, {"inbound_nodes": [[["elu_16", 0, 0, {}]]], "config": {"dilation_rate": [1, 1], "kernel_initializer": {"config": {"distribution": "normal", "scale": 1.0, "seed": null, "mode": "fan_avg"}, "class_name": "VarianceScaling"}, "use_bias": true, "kernel_size": [3, 3], "trainable": true, "activation": "linear", "filters": 64, "activity_regularizer": null, "bias_initializer": {"config": {}, "class_name": "Zeros"}, "strides": [1, 1], "kernel_regularizer": null, "data_format": "channels_last", "bias_regularizer": null, "bias_constraint": null, "name": "conv2d_16", "kernel_constraint": {"config": {"max_value": 2.0, "axis": 0}, "class_name": "MaxNorm"}, "padding": "same"}, "class_name": "Conv2D", "name": "conv2d_16"}, {"inbound_nodes": [[["conv2d_16", 0, 0, {}]]], "config": {"scale": true, "center": true, "moving_mean_initializer": {"config": {}, "class_name": "Zeros"}, "epsilon": 0.001, "beta_constraint": null, "gamma_initializer": {"config": {}, "class_name": "Ones"}, "axis": -1, "beta_initializer": {"config": {}, "class_name": "Zeros"}, "moving_variance_initializer": {"config": {}, "class_name": "Ones"}, "beta_regularizer": null, "gamma_constraint": null, "momentum": 0.99, "name": "batch_normalization_16", "trainable": true, "gamma_regularizer": null}, "class_name": "BatchNormalization", "name": "batch_normalization_16"}, {"inbound_nodes": [[["batch_normalization_16", 0, 0, {}]]], "config": {"name": "elu_17", "trainable": true, "alpha": 1.0}, "class_name": "ELU", "name": "elu_17"}, {"inbound_nodes": [[["elu_17", 0, 0, {}]]], "config": {"name": "dropout_7", "rate": 0.5, "trainable": true}, "class_name": "Dropout", "name": "dropout_7"}, {"inbound_nodes": [[["dropout_7", 0, 0, {}]]], "config": {"dilation_rate": [1, 1], "kernel_initializer": {"config": {"distribution": "normal", "scale": 1.0, "seed": null, "mode": "fan_avg"}, "class_name": "VarianceScaling"}, "use_bias": true, "kernel_size": [3, 3], "trainable": true, "activation": "linear", "filters": 64, "activity_regularizer": null, "bias_initializer": {"config": {}, "class_name": "Zeros"}, "strides": [1, 1], "kernel_regularizer": null, "data_format": "channels_last", "bias_regularizer": null, "bias_constraint": null, "name": "conv2d_17", "kernel_constraint": {"config": {"max_value": 2.0, "axis": 0}, "class_name": "MaxNorm"}, "padding": "same"}, "class_name": "Conv2D", "name": "conv2d_17"}, {"inbound_nodes": [[["conv2d_17", 0, 0, {}], ["elu_16", 0, 0, {}]]], "config": {"name": "add_7", "trainable": true}, "class_name": "Add", "name": "add_7"}, {"inbound_nodes": [[["add_7", 0, 0, {}]]], "config": {"scale": true, "center": true, "moving_mean_initializer": {"config": {}, "class_name": "Zeros"}, "epsilon": 0.001, "beta_constraint": null, "gamma_initializer": {"config": {}, "class_name": "Ones"}, "axis": -1, "beta_initializer": {"config": {}, "class_name": "Zeros"}, "moving_variance_initializer": {"config": {}, "class_name": "Ones"}, "beta_regularizer": null, "gamma_constraint": null, "momentum": 0.99, "name": "batch_normalization_17", "trainable": true, "gamma_regularizer": null}, "class_name": "BatchNormalization", "name": "batch_normalization_17"}, {"inbound_nodes": [[["batch_normalization_17", 0, 0, {}]]], "config": {"name": "elu_18", "trainable": true, "alpha": 1.0}, "class_name": "ELU", "name": "elu_18"}, {"inbound_nodes": [[["elu_18", 0, 0, {}]]], "config": {"dilation_rate": [1, 1], "kernel_initializer": {"config": {"distribution": "normal", "scale": 1.0, "seed": null, "mode": "fan_avg"}, "class_name": "VarianceScaling"}, "use_bias": true, "kernel_size": [3, 3], "trainable": true, "activation": "linear", "filters": 64, "activity_regularizer": null, "bias_initializer": {"config": {}, "class_name": "Zeros"}, "strides": [1, 1], "kernel_regularizer": null, "data_format": "channels_last", "bias_regularizer": null, "bias_constraint": null, "name": "conv2d_18", "kernel_constraint": {"config": {"max_value": 2.0, "axis": 0}, "class_name": "MaxNorm"}, "padding": "same"}, "class_name": "Conv2D", "name": "conv2d_18"}, {"inbound_nodes": [[["conv2d_18", 0, 0, {}]]], "config": {"scale": true, "center": true, "moving_mean_initializer": {"config": {}, "class_name": "Zeros"}, "epsilon": 0.001, "beta_constraint": null, "gamma_initializer": {"config": {}, "class_name": "Ones"}, "axis": -1, "beta_initializer": {"config": {}, "class_name": "Zeros"}, "moving_variance_initializer": {"config": {}, "class_name": "Ones"}, "beta_regularizer": null, "gamma_constraint": null, "momentum": 0.99, "name": "batch_normalization_18", "trainable": true, "gamma_regularizer": null}, "class_name": "BatchNormalization", "name": "batch_normalization_18"}, {"inbound_nodes": [[["batch_normalization_18", 0, 0, {}]]], "config": {"name": "elu_19", "trainable": true, "alpha": 1.0}, "class_name": "ELU", "name": "elu_19"}, {"inbound_nodes": [[["elu_19", 0, 0, {}]]], "config": {"name": "dropout_8", "rate": 0.5, "trainable": true}, "class_name": "Dropout", "name": "dropout_8"}, {"inbound_nodes": [[["dropout_8", 0, 0, {}]]], "config": {"dilation_rate": [1, 1], "kernel_initializer": {"config": {"distribution": "normal", "scale": 1.0, "seed": null, "mode": "fan_avg"}, "class_name": "VarianceScaling"}, "use_bias": true, "kernel_size": [3, 3], "trainable": true, "activation": "linear", "filters": 64, "activity_regularizer": null, "bias_initializer": {"config": {}, "class_name": "Zeros"}, "strides": [1, 1], "kernel_regularizer": null, "data_format": "channels_last", "bias_regularizer": null, "bias_constraint": null, "name": "conv2d_19", "kernel_constraint": {"config": {"max_value": 2.0, "axis": 0}, "class_name": "MaxNorm"}, "padding": "same"}, "class_name": "Conv2D", "name": "conv2d_19"}, {"inbound_nodes": [[["conv2d_19", 0, 0, {}], ["elu_18", 0, 0, {}]]], "config": {"name": "add_8", "trainable": true}, "class_name": "Add", "name": "add_8"}, {"inbound_nodes": [[["add_8", 0, 0, {}]]], "config": {"scale": true, "center": true, "moving_mean_initializer": {"config": {}, "class_name": "Zeros"}, "epsilon": 0.001, "beta_constraint": null, "gamma_initializer": {"config": {}, "class_name": "Ones"}, "axis": -1, "beta_initializer": {"config": {}, "class_name": "Zeros"}, "moving_variance_initializer": {"config": {}, "class_name": "Ones"}, "beta_regularizer": null, "gamma_constraint": null, "momentum": 0.99, "name": "batch_normalization_19", "trainable": true, "gamma_regularizer": null}, "class_name": "BatchNormalization", "name": "batch_normalization_19"}, {"inbound_nodes": [[["batch_normalization_19", 0, 0, {}]]], "config": {"name": "elu_20", "trainable": true, "alpha": 1.0}, "class_name": "ELU", "name": "elu_20"}, {"inbound_nodes": [[["elu_20", 0, 0, {}]]], "config": {"dilation_rate": [1, 1], "kernel_initializer": {"config": {"distribution": "normal", "scale": 1.0, "seed": null, "mode": "fan_avg"}, "class_name": "VarianceScaling"}, "use_bias": true, "kernel_size": [3, 3], "trainable": true, "activation": "linear", "filters": 64, "activity_regularizer": null, "bias_initializer": {"config": {}, "class_name": "Zeros"}, "strides": [1, 1], "kernel_regularizer": null, "data_format": "channels_last", "bias_regularizer": null, "bias_constraint": null, "name": "conv2d_20", "kernel_constraint": {"config": {"max_value": 2.0, "axis": 0}, "class_name": "MaxNorm"}, "padding": "same"}, "class_name": "Conv2D", "name": "conv2d_20"}, {"inbound_nodes": [[["conv2d_20", 0, 0, {}]]], "config": {"scale": true, "center": true, "moving_mean_initializer": {"config": {}, "class_name": "Zeros"}, "epsilon": 0.001, "beta_constraint": null, "gamma_initializer": {"config": {}, "class_name": "Ones"}, "axis": -1, "beta_initializer": {"config": {}, "class_name": "Zeros"}, "moving_variance_initializer": {"config": {}, "class_name": "Ones"}, "beta_regularizer": null, "gamma_constraint": null, "momentum": 0.99, "name": "batch_normalization_20", "trainable": true, "gamma_regularizer": null}, "class_name": "BatchNormalization", "name": "batch_normalization_20"}, {"inbound_nodes": [[["batch_normalization_20", 0, 0, {}]]], "config": {"name": "elu_21", "trainable": true, "alpha": 1.0}, "class_name": "ELU", "name": "elu_21"}, {"inbound_nodes": [[["elu_21", 0, 0, {}]]], "config": {"name": "dropout_9", "rate": 0.5, "trainable": true}, "class_name": "Dropout", "name": "dropout_9"}, {"inbound_nodes": [[["dropout_9", 0, 0, {}]]], "config": {"dilation_rate": [1, 1], "kernel_initializer": {"config": {"distribution": "normal", "scale": 1.0, "seed": null, "mode": "fan_avg"}, "class_name": "VarianceScaling"}, "use_bias": true, "kernel_size": [3, 3], "trainable": true, "activation": "linear", "filters": 64, "activity_regularizer": null, "bias_initializer": {"config": {}, "class_name": "Zeros"}, "strides": [1, 1], "kernel_regularizer": null, "data_format": "channels_last", "bias_regularizer": null, "bias_constraint": null, "name": "conv2d_21", "kernel_constraint": {"config": {"max_value": 2.0, "axis": 0}, "class_name": "MaxNorm"}, "padding": "same"}, "class_name": "Conv2D", "name": "conv2d_21"}, {"inbound_nodes": [[["conv2d_21", 0, 0, {}], ["elu_20", 0, 0, {}]]], "config": {"name": "add_9", "trainable": true}, "class_name": "Add", "name": "add_9"}, {"inbound_nodes": [[["add_9", 0, 0, {}]]], "config": {"scale": true, "center": true, "moving_mean_initializer": {"config": {}, "class_name": "Zeros"}, "epsilon": 0.001, "beta_constraint": null, "gamma_initializer": {"config": {}, "class_name": "Ones"}, "axis": -1, "beta_initializer": {"config": {}, "class_name": "Zeros"}, "moving_variance_initializer": {"config": {}, "class_name": "Ones"}, "beta_regularizer": null, "gamma_constraint": null, "momentum": 0.99, "name": "batch_normalization_21", "trainable": true, "gamma_regularizer": null}, "class_name": "BatchNormalization", "name": "batch_normalization_21"}, {"inbound_nodes": [[["batch_normalization_21", 0, 0, {}]]], "config": {"name": "elu_22", "trainable": true, "alpha": 1.0}, "class_name": "ELU", "name": "elu_22"}, {"inbound_nodes": [[["elu_22", 0, 0, {}]]], "config": {"dilation_rate": [1, 1], "kernel_initializer": {"config": {"distribution": "normal", "scale": 1.0, "seed": null, "mode": "fan_avg"}, "class_name": "VarianceScaling"}, "use_bias": true, "kernel_size": [3, 3], "trainable": true, "activation": "linear", "filters": 256, "activity_regularizer": null, "bias_initializer": {"config": {}, "class_name": "Zeros"}, "strides": [1, 1], "kernel_regularizer": null, "data_format": "channels_last", "bias_regularizer": null, "bias_constraint": null, "name": "conv2d_22", "kernel_constraint": {"config": {"max_value": 2.0, "axis": 0}, "class_name": "MaxNorm"}, "padding": "same"}, "class_name": "Conv2D", "name": "conv2d_22"}, {"inbound_nodes": [[["conv2d_22", 0, 0, {}]]], "config": {"scale": true, "center": true, "moving_mean_initializer": {"config": {}, "class_name": "Zeros"}, "epsilon": 0.001, "beta_constraint": null, "gamma_initializer": {"config": {}, "class_name": "Ones"}, "axis": -1, "beta_initializer": {"config": {}, "class_name": "Zeros"}, "moving_variance_initializer": {"config": {}, "class_name": "Ones"}, "beta_regularizer": null, "gamma_constraint": null, "momentum": 0.99, "name": "batch_normalization_22", "trainable": true, "gamma_regularizer": null}, "class_name": "BatchNormalization", "name": "batch_normalization_22"}, {"inbound_nodes": [[["batch_normalization_22", 0, 0, {}]]], "config": {"name": "elu_23", "trainable": true, "alpha": 1.0}, "class_name": "ELU", "name": "elu_23"}, {"inbound_nodes": [[["elu_23", 0, 0, {}]]], "config": {"strides": [2, 2], "trainable": true, "data_format": "channels_last", "pool_size": [4, 4], "name": "average_pooling2d_2", "padding": "valid"}, "class_name": "AveragePooling2D", "name": "average_pooling2d_2"}, {"inbound_nodes": [[["average_pooling2d_2", 0, 0, {}]]], "config": {"name": "flatten_1", "trainable": true}, "class_name": "Flatten", "name": "flatten_1"}, {"inbound_nodes": [[["flatten_1", 0, 0, {}]]], "config": {"kernel_initializer": {"config": {"distribution": "normal", "scale": 1.0, "seed": null, "mode": "fan_avg"}, "class_name": "VarianceScaling"}, "use_bias": true, "bias_initializer": {"config": {}, "class_name": "Zeros"}, "activation": "elu", "activity_regularizer": null, "bias_constraint": null, "kernel_regularizer": null, "bias_regularizer": null, "units": 1164, "name": "dense_1", "kernel_constraint": {"config": {"max_value": 2.0, "axis": 0}, "class_name": "MaxNorm"}, "trainable": true}, "class_name": "Dense", "name": "dense_1"}, {"inbound_nodes": [[["dense_1", 0, 0, {}]]], "config": {"kernel_initializer": {"config": {"distribution": "normal", "scale": 1.0, "seed": null, "mode": "fan_avg"}, "class_name": "VarianceScaling"}, "use_bias": true, "bias_initializer": {"config": {}, "class_name": "Zeros"}, "activation": "linear", "activity_regularizer": null, "bias_constraint": null, "kernel_regularizer": null, "bias_regularizer": null, "units": 512, "name": "dense_2", "kernel_constraint": {"config": {"max_value": 2.0, "axis": 0}, "class_name": "MaxNorm"}, "trainable": true}, "class_name": "Dense", "name": "dense_2"}, {"inbound_nodes": [[["dense_2", 0, 0, {}]]], "config": {"kernel_initializer": {"config": {"distribution": "normal", "scale": 1.0, "seed": null, "mode": "fan_avg"}, "class_name": "VarianceScaling"}, "use_bias": true, "bias_initializer": {"config": {}, "class_name": "Zeros"}, "activation": "linear", "activity_regularizer": null, "bias_constraint": null, "kernel_regularizer": null, "bias_regularizer": null, "units": 100, "name": "dense_3", "kernel_constraint": {"config": {"max_value": 2.0, "axis": 0}, "class_name": "MaxNorm"}, "trainable": true}, "class_name": "Dense", "name": "dense_3"}, {"inbound_nodes": [[["dense_3", 0, 0, {}]]], "config": {"kernel_initializer": {"config": {"distribution": "normal", "scale": 1.0, "seed": null, "mode": "fan_avg"}, "class_name": "VarianceScaling"}, "use_bias": true, "bias_initializer": {"config": {}, "class_name": "Zeros"}, "activation": "linear", "activity_regularizer": null, "bias_constraint": null, "kernel_regularizer": null, "bias_regularizer": null, "units": 50, "name": "dense_4", "kernel_constraint": {"config": {"max_value": 2.0, "axis": 0}, "class_name": "MaxNorm"}, "trainable": true}, "class_name": "Dense", "name": "dense_4"}, {"inbound_nodes": [[["dense_4", 0, 0, {}]]], "config": {"kernel_initializer": {"config": {"distribution": "uniform", "scale": 1.0, "seed": null, "mode": "fan_avg"}, "class_name": "VarianceScaling"}, "use_bias": true, "bias_initializer": {"config": {}, "class_name": "Zeros"}, "activation": "linear", "activity_regularizer": null, "bias_constraint": null, "kernel_regularizer": null, "bias_regularizer": null, "units": 1, "name": "dense_5", "kernel_constraint": null, "trainable": true}, "class_name": "Dense", "name": "dense_5"}, {"inbound_nodes": [[["dense_5", 0, 0, {}]]], "config": {"kernel_initializer": {"config": {"distribution": "uniform", "scale": 1.0, "seed": null, "mode": "fan_avg"}, "class_name": "VarianceScaling"}, "use_bias": true, "bias_initializer": {"config": {}, "class_name": "Zeros"}, "activation": "linear", "activity_regularizer": null, "bias_constraint": null, "kernel_regularizer": null, "bias_regularizer": null, "units": 1, "name": "steering_output", "kernel_constraint": null, "trainable": true}, "class_name": "Dense", "name": "steering_output"}], "input_layers": [["images", 0, 0]]}, "class_name": "Model", "backend": "tensorflow"}