{"backend": "tensorflow", "config": {"name": "model_1", "layers": [{"name": "images", "inbound_nodes": [], "config": {"name": "images", "batch_input_shape": [null, 80, 80, 3], "sparse": false, "dtype": "float32"}, "class_name": "InputLayer"}, {"name": "lambda_1", "inbound_nodes": [[["images", 0, 0, {}]]], "config": {"name": "lambda_1", "function": ["\u00e3\u0001\u0000\u0000\u0000\u0000\u0000\u0000\u0000\u0001\u0000\u0000\u0000\u0002\u0000\u0000\u0000S\u0000\u0000\u0000s\f\u0000\u0000\u0000|\u0000\u0000d\u0001\u0000\u001bd\u0002\u0000\u0018S)\u0003N\u00e7\u0000\u0000\u0000\u0000\u0000\u00e0_@\u00e7\u0000\u0000\u0000\u0000\u0000\u0000\u00f0?\u00a9\u0000)\u0001\u00da\u0001xr\u0003\u0000\u0000\u0000r\u0003\u0000\u0000\u0000\u00fa\bmodel.py\u00da\b<lambda>A\u0001\u0000\u0000s\u0000\u0000\u0000\u0000", null, null], "trainable": true, "output_shape_type": "raw", "arguments": {}, "output_shape": null, "function_type": "lambda"}, "class_name": "Lambda"}, {"name": "conv2d_1", "inbound_nodes": [[["lambda_1", 0, 0, {}]]], "config": {"activation": "linear", "use_bias": true, "filters": 32, "kernel_regularizer": null, "name": "conv2d_1", "dilation_rate": [1, 1], "bias_initializer": {"config": {}, "class_name": "Zeros"}, "kernel_initializer": {"config": {"scale": 1.0, "distribution": "normal", "mode": "fan_avg", "seed": null}, "class_name": "VarianceScaling"}, "bias_regularizer": null, "strides": [2, 2], "trainable": true, "padding": "same", "activity_regularizer": null, "kernel_size": [5, 5], "kernel_constraint": {"config": {"axis": 0, "max_value": 2.0}, "class_name": "MaxNorm"}, "data_format": "channels_last", "bias_constraint": null}, "class_name": "Conv2D"}, {"name": "batch_normalization_1", "inbound_nodes": [[["conv2d_1", 0, 0, {}]]], "config": {"axis": -1, "scale": true, "gamma_constraint": null, "epsilon": 0.001, "name": "batch_normalization_1", "center": true, "beta_initializer": {"config": {}, "class_name": "Zeros"}, "moving_mean_initializer": {"config": {}, "class_name": "Zeros"}, "gamma_initializer": {"config": {}, "class_name": "Ones"}, "trainable": true, "beta_regularizer": null, "beta_constraint": null, "moving_variance_initializer": {"config": {}, "class_name": "Ones"}, "gamma_regularizer": null, "momentum": 0.99}, "class_name": "BatchNormalization"}, {"name": "elu_1", "inbound_nodes": [[["batch_normalization_1", 0, 0, {}]]], "config": {"name": "elu_1", "trainable": true, "alpha": 1.0}, "class_name": "ELU"}, {"name": "conv2d_2", "inbound_nodes": [[["elu_1", 0, 0, {}]]], "config": {"activation": "linear", "use_bias": true, "filters": 32, "kernel_regularizer": null, "name": "conv2d_2", "dilation_rate": [1, 1], "bias_initializer": {"config": {}, "class_name": "Zeros"}, "kernel_initializer": {"config": {"scale": 1.0, "distribution": "normal", "mode": "fan_avg", "seed": null}, "class_name": "VarianceScaling"}, "bias_regularizer": null, "strides": [2, 2], "trainable": true, "padding": "same", "activity_regularizer": null, "kernel_size": [5, 5], "kernel_constraint": {"config": {"axis": 0, "max_value": 2.0}, "class_name": "MaxNorm"}, "data_format": "channels_last", "bias_constraint": null}, "class_name": "Conv2D"}, {"name": "batch_normalization_2", "inbound_nodes": [[["conv2d_2", 0, 0, {}]]], "config": {"axis": -1, "scale": true, "gamma_constraint": null, "epsilon": 0.001, "name": "batch_normalization_2", "center": true, "beta_initializer": {"config": {}, "class_name": "Zeros"}, "moving_mean_initializer": {"config": {}, "class_name": "Zeros"}, "gamma_initializer": {"config": {}, "class_name": "Ones"}, "trainable": true, "beta_regularizer": null, "beta_constraint": null, "moving_variance_initializer": {"config": {}, "class_name": "Ones"}, "gamma_regularizer": null, "momentum": 0.99}, "class_name": "BatchNormalization"}, {"name": "elu_2", "inbound_nodes": [[["batch_normalization_2", 0, 0, {}]]], "config": {"name": "elu_2", "trainable": true, "alpha": 1.0}, "class_name": "ELU"}, {"name": "average_pooling2d_1", "inbound_nodes": [[["elu_2", 0, 0, {}]]], "config": {"strides": [2, 2], "trainable": true, "padding": "same", "name": "average_pooling2d_1", "pool_size": [4, 4], "data_format": "channels_last"}, "class_name": "AveragePooling2D"}, {"name": "conv2d_3", "inbound_nodes": [[["average_pooling2d_1", 0, 0, {}]]], "config": {"activation": "linear", "use_bias": true, "filters": 32, "kernel_regularizer": null, "name": "conv2d_3", "dilation_rate": [1, 1], "bias_initializer": {"config": {}, "class_name": "Zeros"}, "kernel_initializer": {"config": {"scale": 1.0, "distribution": "normal", "mode": "fan_avg", "seed": null}, "class_name": "VarianceScaling"}, "bias_regularizer": null, "strides": [1, 1], "trainable": true, "padding": "same", "activity_regularizer": null, "kernel_size": [5, 5], "kernel_constraint": {"config": {"axis": 0, "max_value": 2.0}, "class_name": "MaxNorm"}, "data_format": "channels_last", "bias_constraint": null}, "class_name": "Conv2D"}, {"name": "batch_normalization_3", "inbound_nodes": [[["conv2d_3", 0, 0, {}]]], "config": {"axis": -1, "scale": true, "gamma_constraint": null, "epsilon": 0.001, "name": "batch_normalization_3", "center": true, "beta_initializer": {"config": {}, "class_name": "Zeros"}, "moving_mean_initializer": {"config": {}, "class_name": "Zeros"}, "gamma_initializer": {"config": {}, "class_name": "Ones"}, "trainable": true, "beta_regularizer": null, "beta_constraint": null, "moving_variance_initializer": {"config": {}, "class_name": "Ones"}, "gamma_regularizer": null, "momentum": 0.99}, "class_name": "BatchNormalization"}, {"name": "elu_3", "inbound_nodes": [[["batch_normalization_3", 0, 0, {}]]], "config": {"name": "elu_3", "trainable": true, "alpha": 1.0}, "class_name": "ELU"}, {"name": "dropout_1", "inbound_nodes": [[["elu_3", 0, 0, {}]]], "config": {"name": "dropout_1", "trainable": true, "rate": 0.5}, "class_name": "Dropout"}, {"name": "conv2d_4", "inbound_nodes": [[["dropout_1", 0, 0, {}]]], "config": {"activation": "linear", "use_bias": true, "filters": 32, "kernel_regularizer": null, "name": "conv2d_4", "dilation_rate": [1, 1], "bias_initializer": {"config": {}, "class_name": "Zeros"}, "kernel_initializer": {"config": {"scale": 1.0, "distribution": "normal", "mode": "fan_avg", "seed": null}, "class_name": "VarianceScaling"}, "bias_regularizer": null, "strides": [1, 1], "trainable": true, "padding": "same", "activity_regularizer": null, "kernel_size": [5, 5], "kernel_constraint": {"config": {"axis": 0, "max_value": 2.0}, "class_name": "MaxNorm"}, "data_format": "channels_last", "bias_constraint": null}, "class_name": "Conv2D"}, {"name": "add_1", "inbound_nodes": [[["conv2d_4", 0, 0, {}], ["average_pooling2d_1", 0, 0, {}]]], "config": {"name": "add_1", "trainable": true}, "class_name": "Add"}, {"name": "batch_normalization_4", "inbound_nodes": [[["add_1", 0, 0, {}]]], "config": {"axis": -1, "scale": true, "gamma_constraint": null, "epsilon": 0.001, "name": "batch_normalization_4", "center": true, "beta_initializer": {"config": {}, "class_name": "Zeros"}, "moving_mean_initializer": {"config": {}, "class_name": "Zeros"}, "gamma_initializer": {"config": {}, "class_name": "Ones"}, "trainable": true, "beta_regularizer": null, "beta_constraint": null, "moving_variance_initializer": {"config": {}, "class_name": "Ones"}, "gamma_regularizer": null, "momentum": 0.99}, "class_name": "BatchNormalization"}, {"name": "elu_4", "inbound_nodes": [[["batch_normalization_4", 0, 0, {}]]], "config": {"name": "elu_4", "trainable": true, "alpha": 1.0}, "class_name": "ELU"}, {"name": "conv2d_5", "inbound_nodes": [[["elu_4", 0, 0, {}]]], "config": {"activation": "linear", "use_bias": true, "filters": 32, "kernel_regularizer": null, "name": "conv2d_5", "dilation_rate": [1, 1], "bias_initializer": {"config": {}, "class_name": "Zeros"}, "kernel_initializer": {"config": {"scale": 1.0, "distribution": "normal", "mode": "fan_avg", "seed": null}, "class_name": "VarianceScaling"}, "bias_regularizer": null, "strides": [1, 1], "trainable": true, "padding": "same", "activity_regularizer": null, "kernel_size": [5, 5], "kernel_constraint": {"config": {"axis": 0, "max_value": 2.0}, "class_name": "MaxNorm"}, "data_format": "channels_last", "bias_constraint": null}, "class_name": "Conv2D"}, {"name": "batch_normalization_5", "inbound_nodes": [[["conv2d_5", 0, 0, {}]]], "config": {"axis": -1, "scale": true, "gamma_constraint": null, "epsilon": 0.001, "name": "batch_normalization_5", "center": true, "beta_initializer": {"config": {}, "class_name": "Zeros"}, "moving_mean_initializer": {"config": {}, "class_name": "Zeros"}, "gamma_initializer": {"config": {}, "class_name": "Ones"}, "trainable": true, "beta_regularizer": null, "beta_constraint": null, "moving_variance_initializer": {"config": {}, "class_name": "Ones"}, "gamma_regularizer": null, "momentum": 0.99}, "class_name": "BatchNormalization"}, {"name": "elu_5", "inbound_nodes": [[["batch_normalization_5", 0, 0, {}]]], "config": {"name": "elu_5", "trainable": true, "alpha": 1.0}, "class_name": "ELU"}, {"name": "dropout_2", "inbound_nodes": [[["elu_5", 0, 0, {}]]], "config": {"name": "dropout_2", "trainable": true, "rate": 0.5}, "class_name": "Dropout"}, {"name": "conv2d_6", "inbound_nodes": [[["dropout_2", 0, 0, {}]]], "config": {"activation": "linear", "use_bias": true, "filters": 32, "kernel_regularizer": null, "name": "conv2d_6", "dilation_rate": [1, 1], "bias_initializer": {"config": {}, "class_name": "Zeros"}, "kernel_initializer": {"config": {"scale": 1.0, "distribution": "normal", "mode": "fan_avg", "seed": null}, "class_name": "VarianceScaling"}, "bias_regularizer": null, "strides": [1, 1], "trainable": true, "padding": "same", "activity_regularizer": null, "kernel_size": [5, 5], "kernel_constraint": {"config": {"axis": 0, "max_value": 2.0}, "class_name": "MaxNorm"}, "data_format": "channels_last", "bias_constraint": null}, "class_name": "Conv2D"}, {"name": "add_2", "inbound_nodes": [[["conv2d_6", 0, 0, {}], ["elu_4", 0, 0, {}]]], "config": {"name": "add_2", "trainable": true}, "class_name": "Add"}, {"name": "batch_normalization_6", "inbound_nodes": [[["add_2", 0, 0, {}]]], "config": {"axis": -1, "scale": true, "gamma_constraint": null, "epsilon": 0.001, "name": "batch_normalization_6", "center": true, "beta_initializer": {"config": {}, "class_name": "Zeros"}, "moving_mean_initializer": {"config": {}, "class_name": "Zeros"}, "gamma_initializer": {"config": {}, "class_name": "Ones"}, "trainable": true, "beta_regularizer": null, "beta_constraint": null, "moving_variance_initializer": {"config": {}, "class_name": "Ones"}, "gamma_regularizer": null, "momentum": 0.99}, "class_name": "BatchNormalization"}, {"name": "elu_6", "inbound_nodes": [[["batch_normalization_6", 0, 0, {}]]], "config": {"name": "elu_6", "trainable": true, "alpha": 1.0}, "class_name": "ELU"}, {"name": "conv2d_7", "inbound_nodes": [[["elu_6", 0, 0, {}]]], "config": {"activation": "linear", "use_bias": true, "filters": 64, "kernel_regularizer": null, "name": "conv2d_7", "dilation_rate": [1, 1], "bias_initializer": {"config": {}, "class_name": "Zeros"}, "kernel_initializer": {"config": {"scale": 1.0, "distribution": "normal", "mode": "fan_avg", "seed": null}, "class_name": "VarianceScaling"}, "bias_regularizer": null, "strides": [1, 1], "trainable": true, "padding": "same", "activity_regularizer": null, "kernel_size": [5, 5], "kernel_constraint": {"config": {"axis": 0, "max_value": 2.0}, "class_name": "MaxNorm"}, "data_format": "channels_last", "bias_constraint": null}, "class_name": "Conv2D"}, {"name": "batch_normalization_7", "inbound_nodes": [[["conv2d_7", 0, 0, {}]]], "config": {"axis": -1, "scale": true, "gamma_constraint": null, "epsilon": 0.001, "name": "batch_normalization_7", "center": true, "beta_initializer": {"config": {}, "class_name": "Zeros"}, "moving_mean_initializer": {"config": {}, "class_name": "Zeros"}, "gamma_initializer": {"config": {}, "class_name": "Ones"}, "trainable": true, "beta_regularizer": null, "beta_constraint": null, "moving_variance_initializer": {"config": {}, "class_name": "Ones"}, "gamma_regularizer": null, "momentum": 0.99}, "class_name": "BatchNormalization"}, {"name": "elu_7", "inbound_nodes": [[["batch_normalization_7", 0, 0, {}]]], "config": {"name": "elu_7", "trainable": true, "alpha": 1.0}, "class_name": "ELU"}, {"name": "conv2d_8", "inbound_nodes": [[["elu_7", 0, 0, {}]]], "config": {"activation": "linear", "use_bias": true, "filters": 64, "kernel_regularizer": null, "name": "conv2d_8", "dilation_rate": [1, 1], "bias_initializer": {"config": {}, "class_name": "Zeros"}, "kernel_initializer": {"config": {"scale": 1.0, "distribution": "normal", "mode": "fan_avg", "seed": null}, "class_name": "VarianceScaling"}, "bias_regularizer": null, "strides": [1, 1], "trainable": true, "padding": "same", "activity_regularizer": null, "kernel_size": [3, 3], "kernel_constraint": {"config": {"axis": 0, "max_value": 2.0}, "class_name": "MaxNorm"}, "data_format": "channels_last", "bias_constraint": null}, "class_name": "Conv2D"}, {"name": "batch_normalization_8", "inbound_nodes": [[["conv2d_8", 0, 0, {}]]], "config": {"axis": -1, "scale": true, "gamma_constraint": null, "epsilon": 0.001, "name": "batch_normalization_8", "center": true, "beta_initializer": {"config": {}, "class_name": "Zeros"}, "moving_mean_initializer": {"config": {}, "class_name": "Zeros"}, "gamma_initializer": {"config": {}, "class_name": "Ones"}, "trainable": true, "beta_regularizer": null, "beta_constraint": null, "moving_variance_initializer": {"config": {}, "class_name": "Ones"}, "gamma_regularizer": null, "momentum": 0.99}, "class_name": "BatchNormalization"}, {"name": "elu_8", "inbound_nodes": [[["batch_normalization_8", 0, 0, {}]]], "config": {"name": "elu_8", "trainable": true, "alpha": 1.0}, "class_name": "ELU"}, {"name": "dropout_3", "inbound_nodes": [[["elu_8", 0, 0, {}]]], "config": {"name": "dropout_3", "trainable": true, "rate": 0.5}, "class_name": "Dropout"}, {"name": "conv2d_9", "inbound_nodes": [[["dropout_3", 0, 0, {}]]], "config": {"activation": "linear", "use_bias": true, "filters": 64, "kernel_regularizer": null, "name": "conv2d_9", "dilation_rate": [1, 1], "bias_initializer": {"config": {}, "class_name": "Zeros"}, "kernel_initializer": {"config": {"scale": 1.0, "distribution": "normal", "mode": "fan_avg", "seed": null}, "class_name": "VarianceScaling"}, "bias_regularizer": null, "strides": [1, 1], "trainable": true, "padding": "same", "activity_regularizer": null, "kernel_size": [3, 3], "kernel_constraint": {"config": {"axis": 0, "max_value": 2.0}, "class_name": "MaxNorm"}, "data_format": "channels_last", "bias_constraint": null}, "class_name": "Conv2D"}, {"name": "add_3", "inbound_nodes": [[["conv2d_9", 0, 0, {}], ["elu_7", 0, 0, {}]]], "config": {"name": "add_3", "trainable": true}, "class_name": "Add"}, {"name": "batch_normalization_9", "inbound_nodes": [[["add_3", 0, 0, {}]]], "config": {"axis": -1, "scale": true, "gamma_constraint": null, "epsilon": 0.001, "name": "batch_normalization_9", "center": true, "beta_initializer": {"config": {}, "class_name": "Zeros"}, "moving_mean_initializer": {"config": {}, "class_name": "Zeros"}, "gamma_initializer": {"config": {}, "class_name": "Ones"}, "trainable": true, "beta_regularizer": null, "beta_constraint": null, "moving_variance_initializer": {"config": {}, "class_name": "Ones"}, "gamma_regularizer": null, "momentum": 0.99}, "class_name": "BatchNormalization"}, {"name": "elu_9", "inbound_nodes": [[["batch_normalization_9", 0, 0, {}]]], "config": {"name": "elu_9", "trainable": true, "alpha": 1.0}, "class_name": "ELU"}, {"name": "elu_10", "inbound_nodes": [[["elu_9", 0, 0, {}]]], "config": {"name": "elu_10", "trainable": true, "alpha": 1.0}, "class_name": "ELU"}, {"name": "conv2d_10", "inbound_nodes": [[["elu_10", 0, 0, {}]]], "config": {"activation": "linear", "use_bias": true, "filters": 64, "kernel_regularizer": null, "name": "conv2d_10", "dilation_rate": [1, 1], "bias_initializer": {"config": {}, "class_name": "Zeros"}, "kernel_initializer": {"config": {"scale": 1.0, "distribution": "normal", "mode": "fan_avg", "seed": null}, "class_name": "VarianceScaling"}, "bias_regularizer": null, "strides": [1, 1], "trainable": true, "padding": "same", "activity_regularizer": null, "kernel_size": [3, 3], "kernel_constraint": {"config": {"axis": 0, "max_value": 2.0}, "class_name": "MaxNorm"}, "data_format": "channels_last", "bias_constraint": null}, "class_name": "Conv2D"}, {"name": "batch_normalization_10", "inbound_nodes": [[["conv2d_10", 0, 0, {}]]], "config": {"axis": -1, "scale": true, "gamma_constraint": null, "epsilon": 0.001, "name": "batch_normalization_10", "center": true, "beta_initializer": {"config": {}, "class_name": "Zeros"}, "moving_mean_initializer": {"config": {}, "class_name": "Zeros"}, "gamma_initializer": {"config": {}, "class_name": "Ones"}, "trainable": true, "beta_regularizer": null, "beta_constraint": null, "moving_variance_initializer": {"config": {}, "class_name": "Ones"}, "gamma_regularizer": null, "momentum": 0.99}, "class_name": "BatchNormalization"}, {"name": "elu_11", "inbound_nodes": [[["batch_normalization_10", 0, 0, {}]]], "config": {"name": "elu_11", "trainable": true, "alpha": 1.0}, "class_name": "ELU"}, {"name": "dropout_4", "inbound_nodes": [[["elu_11", 0, 0, {}]]], "config": {"name": "dropout_4", "trainable": true, "rate": 0.5}, "class_name": "Dropout"}, {"name": "conv2d_11", "inbound_nodes": [[["dropout_4", 0, 0, {}]]], "config": {"activation": "linear", "use_bias": true, "filters": 64, "kernel_regularizer": null, "name": "conv2d_11", "dilation_rate": [1, 1], "bias_initializer": {"config": {}, "class_name": "Zeros"}, "kernel_initializer": {"config": {"scale": 1.0, "distribution": "normal", "mode": "fan_avg", "seed": null}, "class_name": "VarianceScaling"}, "bias_regularizer": null, "strides": [1, 1], "trainable": true, "padding": "same", "activity_regularizer": null, "kernel_size": [3, 3], "kernel_constraint": {"config": {"axis": 0, "max_value": 2.0}, "class_name": "MaxNorm"}, "data_format": "channels_last", "bias_constraint": null}, "class_name": "Conv2D"}, {"name": "add_4", "inbound_nodes": [[["conv2d_11", 0, 0, {}], ["elu_10", 0, 0, {}]]], "config": {"name": "add_4", "trainable": true}, "class_name": "Add"}, {"name": "batch_normalization_11", "inbound_nodes": [[["add_4", 0, 0, {}]]], "config": {"axis": -1, "scale": true, "gamma_constraint": null, "epsilon": 0.001, "name": "batch_normalization_11", "center": true, "beta_initializer": {"config": {}, "class_name": "Zeros"}, "moving_mean_initializer": {"config": {}, "class_name": "Zeros"}, "gamma_initializer": {"config": {}, "class_name": "Ones"}, "trainable": true, "beta_regularizer": null, "beta_constraint": null, "moving_variance_initializer": {"config": {}, "class_name": "Ones"}, "gamma_regularizer": null, "momentum": 0.99}, "class_name": "BatchNormalization"}, {"name": "elu_12", "inbound_nodes": [[["batch_normalization_11", 0, 0, {}]]], "config": {"name": "elu_12", "trainable": true, "alpha": 1.0}, "class_name": "ELU"}, {"name": "conv2d_12", "inbound_nodes": [[["elu_12", 0, 0, {}]]], "config": {"activation": "linear", "use_bias": true, "filters": 64, "kernel_regularizer": null, "name": "conv2d_12", "dilation_rate": [1, 1], "bias_initializer": {"config": {}, "class_name": "Zeros"}, "kernel_initializer": {"config": {"scale": 1.0, "distribution": "normal", "mode": "fan_avg", "seed": null}, "class_name": "VarianceScaling"}, "bias_regularizer": null, "strides": [1, 1], "trainable": true, "padding": "same", "activity_regularizer": null, "kernel_size": [3, 3], "kernel_constraint": {"config": {"axis": 0, "max_value": 2.0}, "class_name": "MaxNorm"}, "data_format": "channels_last", "bias_constraint": null}, "class_name": "Conv2D"}, {"name": "batch_normalization_12", "inbound_nodes": [[["conv2d_12", 0, 0, {}]]], "config": {"axis": -1, "scale": true, "gamma_constraint": null, "epsilon": 0.001, "name": "batch_normalization_12", "center": true, "beta_initializer": {"config": {}, "class_name": "Zeros"}, "moving_mean_initializer": {"config": {}, "class_name": "Zeros"}, "gamma_initializer": {"config": {}, "class_name": "Ones"}, "trainable": true, "beta_regularizer": null, "beta_constraint": null, "moving_variance_initializer": {"config": {}, "class_name": "Ones"}, "gamma_regularizer": null, "momentum": 0.99}, "class_name": "BatchNormalization"}, {"name": "elu_13", "inbound_nodes": [[["batch_normalization_12", 0, 0, {}]]], "config": {"name": "elu_13", "trainable": true, "alpha": 1.0}, "class_name": "ELU"}, {"name": "dropout_5", "inbound_nodes": [[["elu_13", 0, 0, {}]]], "config": {"name": "dropout_5", "trainable": true, "rate": 0.5}, "class_name": "Dropout"}, {"name": "conv2d_13", "inbound_nodes": [[["dropout_5", 0, 0, {}]]], "config": {"activation": "linear", "use_bias": true, "filters": 64, "kernel_regularizer": null, "name": "conv2d_13", "dilation_rate": [1, 1], "bias_initializer": {"config": {}, "class_name": "Zeros"}, "kernel_initializer": {"config": {"scale": 1.0, "distribution": "normal", "mode": "fan_avg", "seed": null}, "class_name": "VarianceScaling"}, "bias_regularizer": null, "strides": [1, 1], "trainable": true, "padding": "same", "activity_regularizer": null, "kernel_size": [3, 3], "kernel_constraint": {"config": {"axis": 0, "max_value": 2.0}, "class_name": "MaxNorm"}, "data_format": "channels_last", "bias_constraint": null}, "class_name": "Conv2D"}, {"name": "add_5", "inbound_nodes": [[["conv2d_13", 0, 0, {}], ["elu_12", 0, 0, {}]]], "config": {"name": "add_5", "trainable": true}, "class_name": "Add"}, {"name": "batch_normalization_13", "inbound_nodes": [[["add_5", 0, 0, {}]]], "config": {"axis": -1, "scale": true, "gamma_constraint": null, "epsilon": 0.001, "name": "batch_normalization_13", "center": true, "beta_initializer": {"config": {}, "class_name": "Zeros"}, "moving_mean_initializer": {"config": {}, "class_name": "Zeros"}, "gamma_initializer": {"config": {}, "class_name": "Ones"}, "trainable": true, "beta_regularizer": null, "beta_constraint": null, "moving_variance_initializer": {"config": {}, "class_name": "Ones"}, "gamma_regularizer": null, "momentum": 0.99}, "class_name": "BatchNormalization"}, {"name": "elu_14", "inbound_nodes": [[["batch_normalization_13", 0, 0, {}]]], "config": {"name": "elu_14", "trainable": true, "alpha": 1.0}, "class_name": "ELU"}, {"name": "conv2d_14", "inbound_nodes": [[["elu_14", 0, 0, {}]]], "config": {"activation": "linear", "use_bias": true, "filters": 64, "kernel_regularizer": null, "name": "conv2d_14", "dilation_rate": [1, 1], "bias_initializer": {"config": {}, "class_name": "Zeros"}, "kernel_initializer": {"config": {"scale": 1.0, "distribution": "normal", "mode": "fan_avg", "seed": null}, "class_name": "VarianceScaling"}, "bias_regularizer": null, "strides": [1, 1], "trainable": true, "padding": "same", "activity_regularizer": null, "kernel_size": [3, 3], "kernel_constraint": {"config": {"axis": 0, "max_value": 2.0}, "class_name": "MaxNorm"}, "data_format": "channels_last", "bias_constraint": null}, "class_name": "Conv2D"}, {"name": "batch_normalization_14", "inbound_nodes": [[["conv2d_14", 0, 0, {}]]], "config": {"axis": -1, "scale": true, "gamma_constraint": null, "epsilon": 0.001, "name": "batch_normalization_14", "center": true, "beta_initializer": {"config": {}, "class_name": "Zeros"}, "moving_mean_initializer": {"config": {}, "class_name": "Zeros"}, "gamma_initializer": {"config": {}, "class_name": "Ones"}, "trainable": true, "beta_regularizer": null, "beta_constraint": null, "moving_variance_initializer": {"config": {}, "class_name": "Ones"}, "gamma_regularizer": null, "momentum": 0.99}, "class_name": "BatchNormalization"}, {"name": "elu_15", "inbound_nodes": [[["batch_normalization_14", 0, 0, {}]]], "config": {"name": "elu_15", "trainable": true, "alpha": 1.0}, "class_name": "ELU"}, {"name": "dropout_6", "inbound_nodes": [[["elu_15", 0, 0, {}]]], "config": {"name": "dropout_6", "trainable": true, "rate": 0.5}, "class_name": "Dropout"}, {"name": "conv2d_15", "inbound_nodes": [[["dropout_6", 0, 0, {}]]], "config": {"activation": "linear", "use_bias": true, "filters": 64, "kernel_regularizer": null, "name": "conv2d_15", "dilation_rate": [1, 1], "bias_initializer": {"config": {}, "class_name": "Zeros"}, "kernel_initializer": {"config": {"scale": 1.0, "distribution": "normal", "mode": "fan_avg", "seed": null}, "class_name": "VarianceScaling"}, "bias_regularizer": null, "strides": [1, 1], "trainable": true, "padding": "same", "activity_regularizer": null, "kernel_size": [3, 3], "kernel_constraint": {"config": {"axis": 0, "max_value": 2.0}, "class_name": "MaxNorm"}, "data_format": "channels_last", "bias_constraint": null}, "class_name": "Conv2D"}, {"name": "add_6", "inbound_nodes": [[["conv2d_15", 0, 0, {}], ["elu_14", 0, 0, {}]]], "config": {"name": "add_6", "trainable": true}, "class_name": "Add"}, {"name": "batch_normalization_15", "inbound_nodes": [[["add_6", 0, 0, {}]]], "config": {"axis": -1, "scale": true, "gamma_constraint": null, "epsilon": 0.001, "name": "batch_normalization_15", "center": true, "beta_initializer": {"config": {}, "class_name": "Zeros"}, "moving_mean_initializer": {"config": {}, "class_name": "Zeros"}, "gamma_initializer": {"config": {}, "class_name": "Ones"}, "trainable": true, "beta_regularizer": null, "beta_constraint": null, "moving_variance_initializer": {"config": {}, "class_name": "Ones"}, "gamma_regularizer": null, "momentum": 0.99}, "class_name": "BatchNormalization"}, {"name": "elu_16", "inbound_nodes": [[["batch_normalization_15", 0, 0, {}]]], "config": {"name": "elu_16", "trainable": true, "alpha": 1.0}, "class_name": "ELU"}, {"name": "conv2d_16", "inbound_nodes": [[["elu_16", 0, 0, {}]]], "config": {"activation": "linear", "use_bias": true, "filters": 64, "kernel_regularizer": null, "name": "conv2d_16", "dilation_rate": [1, 1], "bias_initializer": {"config": {}, "class_name": "Zeros"}, "kernel_initializer": {"config": {"scale": 1.0, "distribution": "normal", "mode": "fan_avg", "seed": null}, "class_name": "VarianceScaling"}, "bias_regularizer": null, "strides": [1, 1], "trainable": true, "padding": "same", "activity_regularizer": null, "kernel_size": [3, 3], "kernel_constraint": {"config": {"axis": 0, "max_value": 2.0}, "class_name": "MaxNorm"}, "data_format": "channels_last", "bias_constraint": null}, "class_name": "Conv2D"}, {"name": "batch_normalization_16", "inbound_nodes": [[["conv2d_16", 0, 0, {}]]], "config": {"axis": -1, "scale": true, "gamma_constraint": null, "epsilon": 0.001, "name": "batch_normalization_16", "center": true, "beta_initializer": {"config": {}, "class_name": "Zeros"}, "moving_mean_initializer": {"config": {}, "class_name": "Zeros"}, "gamma_initializer": {"config": {}, "class_name": "Ones"}, "trainable": true, "beta_regularizer": null, "beta_constraint": null, "moving_variance_initializer": {"config": {}, "class_name": "Ones"}, "gamma_regularizer": null, "momentum": 0.99}, "class_name": "BatchNormalization"}, {"name": "elu_17", "inbound_nodes": [[["batch_normalization_16", 0, 0, {}]]], "config": {"name": "elu_17", "trainable": true, "alpha": 1.0}, "class_name": "ELU"}, {"name": "dropout_7", "inbound_nodes": [[["elu_17", 0, 0, {}]]], "config": {"name": "dropout_7", "trainable": true, "rate": 0.5}, "class_name": "Dropout"}, {"name": "conv2d_17", "inbound_nodes": [[["dropout_7", 0, 0, {}]]], "config": {"activation": "linear", "use_bias": true, "filters": 64, "kernel_regularizer": null, "name": "conv2d_17", "dilation_rate": [1, 1], "bias_initializer": {"config": {}, "class_name": "Zeros"}, "kernel_initializer": {"config": {"scale": 1.0, "distribution": "normal", "mode": "fan_avg", "seed": null}, "class_name": "VarianceScaling"}, "bias_regularizer": null, "strides": [1, 1], "trainable": true, "padding": "same", "activity_regularizer": null, "kernel_size": [3, 3], "kernel_constraint": {"config": {"axis": 0, "max_value": 2.0}, "class_name": "MaxNorm"}, "data_format": "channels_last", "bias_constraint": null}, "class_name": "Conv2D"}, {"name": "add_7", "inbound_nodes": [[["conv2d_17", 0, 0, {}], ["elu_16", 0, 0, {}]]], "config": {"name": "add_7", "trainable": true}, "class_name": "Add"}, {"name": "batch_normalization_17", "inbound_nodes": [[["add_7", 0, 0, {}]]], "config": {"axis": -1, "scale": true, "gamma_constraint": null, "epsilon": 0.001, "name": "batch_normalization_17", "center": true, "beta_initializer": {"config": {}, "class_name": "Zeros"}, "moving_mean_initializer": {"config": {}, "class_name": "Zeros"}, "gamma_initializer": {"config": {}, "class_name": "Ones"}, "trainable": true, "beta_regularizer": null, "beta_constraint": null, "moving_variance_initializer": {"config": {}, "class_name": "Ones"}, "gamma_regularizer": null, "momentum": 0.99}, "class_name": "BatchNormalization"}, {"name": "elu_18", "inbound_nodes": [[["batch_normalization_17", 0, 0, {}]]], "config": {"name": "elu_18", "trainable": true, "alpha": 1.0}, "class_name": "ELU"}, {"name": "conv2d_18", "inbound_nodes": [[["elu_18", 0, 0, {}]]], "config": {"activation": "linear", "use_bias": true, "filters": 64, "kernel_regularizer": null, "name": "conv2d_18", "dilation_rate": [1, 1], "bias_initializer": {"config": {}, "class_name": "Zeros"}, "kernel_initializer": {"config": {"scale": 1.0, "distribution": "normal", "mode": "fan_avg", "seed": null}, "class_name": "VarianceScaling"}, "bias_regularizer": null, "strides": [1, 1], "trainable": true, "padding": "same", "activity_regularizer": null, "kernel_size": [3, 3], "kernel_constraint": {"config": {"axis": 0, "max_value": 2.0}, "class_name": "MaxNorm"}, "data_format": "channels_last", "bias_constraint": null}, "class_name": "Conv2D"}, {"name": "batch_normalization_18", "inbound_nodes": [[["conv2d_18", 0, 0, {}]]], "config": {"axis": -1, "scale": true, "gamma_constraint": null, "epsilon": 0.001, "name": "batch_normalization_18", "center": true, "beta_initializer": {"config": {}, "class_name": "Zeros"}, "moving_mean_initializer": {"config": {}, "class_name": "Zeros"}, "gamma_initializer": {"config": {}, "class_name": "Ones"}, "trainable": true, "beta_regularizer": null, "beta_constraint": null, "moving_variance_initializer": {"config": {}, "class_name": "Ones"}, "gamma_regularizer": null, "momentum": 0.99}, "class_name": "BatchNormalization"}, {"name": "elu_19", "inbound_nodes": [[["batch_normalization_18", 0, 0, {}]]], "config": {"name": "elu_19", "trainable": true, "alpha": 1.0}, "class_name": "ELU"}, {"name": "dropout_8", "inbound_nodes": [[["elu_19", 0, 0, {}]]], "config": {"name": "dropout_8", "trainable": true, "rate": 0.5}, "class_name": "Dropout"}, {"name": "conv2d_19", "inbound_nodes": [[["dropout_8", 0, 0, {}]]], "config": {"activation": "linear", "use_bias": true, "filters": 64, "kernel_regularizer": null, "name": "conv2d_19", "dilation_rate": [1, 1], "bias_initializer": {"config": {}, "class_name": "Zeros"}, "kernel_initializer": {"config": {"scale": 1.0, "distribution": "normal", "mode": "fan_avg", "seed": null}, "class_name": "VarianceScaling"}, "bias_regularizer": null, "strides": [1, 1], "trainable": true, "padding": "same", "activity_regularizer": null, "kernel_size": [3, 3], "kernel_constraint": {"config": {"axis": 0, "max_value": 2.0}, "class_name": "MaxNorm"}, "data_format": "channels_last", "bias_constraint": null}, "class_name": "Conv2D"}, {"name": "add_8", "inbound_nodes": [[["conv2d_19", 0, 0, {}], ["elu_18", 0, 0, {}]]], "config": {"name": "add_8", "trainable": true}, "class_name": "Add"}, {"name": "batch_normalization_19", "inbound_nodes": [[["add_8", 0, 0, {}]]], "config": {"axis": -1, "scale": true, "gamma_constraint": null, "epsilon": 0.001, "name": "batch_normalization_19", "center": true, "beta_initializer": {"config": {}, "class_name": "Zeros"}, "moving_mean_initializer": {"config": {}, "class_name": "Zeros"}, "gamma_initializer": {"config": {}, "class_name": "Ones"}, "trainable": true, "beta_regularizer": null, "beta_constraint": null, "moving_variance_initializer": {"config": {}, "class_name": "Ones"}, "gamma_regularizer": null, "momentum": 0.99}, "class_name": "BatchNormalization"}, {"name": "elu_20", "inbound_nodes": [[["batch_normalization_19", 0, 0, {}]]], "config": {"name": "elu_20", "trainable": true, "alpha": 1.0}, "class_name": "ELU"}, {"name": "conv2d_20", "inbound_nodes": [[["elu_20", 0, 0, {}]]], "config": {"activation": "linear", "use_bias": true, "filters": 64, "kernel_regularizer": null, "name": "conv2d_20", "dilation_rate": [1, 1], "bias_initializer": {"config": {}, "class_name": "Zeros"}, "kernel_initializer": {"config": {"scale": 1.0, "distribution": "normal", "mode": "fan_avg", "seed": null}, "class_name": "VarianceScaling"}, "bias_regularizer": null, "strides": [1, 1], "trainable": true, "padding": "same", "activity_regularizer": null, "kernel_size": [3, 3], "kernel_constraint": {"config": {"axis": 0, "max_value": 2.0}, "class_name": "MaxNorm"}, "data_format": "channels_last", "bias_constraint": null}, "class_name": "Conv2D"}, {"name": "batch_normalization_20", "inbound_nodes": [[["conv2d_20", 0, 0, {}]]], "config": {"axis": -1, "scale": true, "gamma_constraint": null, "epsilon": 0.001, "name": "batch_normalization_20", "center": true, "beta_initializer": {"config": {}, "class_name": "Zeros"}, "moving_mean_initializer": {"config": {}, "class_name": "Zeros"}, "gamma_initializer": {"config": {}, "class_name": "Ones"}, "trainable": true, "beta_regularizer": null, "beta_constraint": null, "moving_variance_initializer": {"config": {}, "class_name": "Ones"}, "gamma_regularizer": null, "momentum": 0.99}, "class_name": "BatchNormalization"}, {"name": "elu_21", "inbound_nodes": [[["batch_normalization_20", 0, 0, {}]]], "config": {"name": "elu_21", "trainable": true, "alpha": 1.0}, "class_name": "ELU"}, {"name": "dropout_9", "inbound_nodes": [[["elu_21", 0, 0, {}]]], "config": {"name": "dropout_9", "trainable": true, "rate": 0.5}, "class_name": "Dropout"}, {"name": "conv2d_21", "inbound_nodes": [[["dropout_9", 0, 0, {}]]], "config": {"activation": "linear", "use_bias": true, "filters": 64, "kernel_regularizer": null, "name": "conv2d_21", "dilation_rate": [1, 1], "bias_initializer": {"config": {}, "class_name": "Zeros"}, "kernel_initializer": {"config": {"scale": 1.0, "distribution": "normal", "mode": "fan_avg", "seed": null}, "class_name": "VarianceScaling"}, "bias_regularizer": null, "strides": [1, 1], "trainable": true, "padding": "same", "activity_regularizer": null, "kernel_size": [3, 3], "kernel_constraint": {"config": {"axis": 0, "max_value": 2.0}, "class_name": "MaxNorm"}, "data_format": "channels_last", "bias_constraint": null}, "class_name": "Conv2D"}, {"name": "add_9", "inbound_nodes": [[["conv2d_21", 0, 0, {}], ["elu_20", 0, 0, {}]]], "config": {"name": "add_9", "trainable": true}, "class_name": "Add"}, {"name": "batch_normalization_21", "inbound_nodes": [[["add_9", 0, 0, {}]]], "config": {"axis": -1, "scale": true, "gamma_constraint": null, "epsilon": 0.001, "name": "batch_normalization_21", "center": true, "beta_initializer": {"config": {}, "class_name": "Zeros"}, "moving_mean_initializer": {"config": {}, "class_name": "Zeros"}, "gamma_initializer": {"config": {}, "class_name": "Ones"}, "trainable": true, "beta_regularizer": null, "beta_constraint": null, "moving_variance_initializer": {"config": {}, "class_name": "Ones"}, "gamma_regularizer": null, "momentum": 0.99}, "class_name": "BatchNormalization"}, {"name": "elu_22", "inbound_nodes": [[["batch_normalization_21", 0, 0, {}]]], "config": {"name": "elu_22", "trainable": true, "alpha": 1.0}, "class_name": "ELU"}, {"name": "conv2d_22", "inbound_nodes": [[["elu_22", 0, 0, {}]]], "config": {"activation": "linear", "use_bias": true, "filters": 256, "kernel_regularizer": null, "name": "conv2d_22", "dilation_rate": [1, 1], "bias_initializer": {"config": {}, "class_name": "Zeros"}, "kernel_initializer": {"config": {"scale": 1.0, "distribution": "normal", "mode": "fan_avg", "seed": null}, "class_name": "VarianceScaling"}, "bias_regularizer": null, "strides": [1, 1], "trainable": true, "padding": "same", "activity_regularizer": null, "kernel_size": [3, 3], "kernel_constraint": {"config": {"axis": 0, "max_value": 2.0}, "class_name": "MaxNorm"}, "data_format": "channels_last", "bias_constraint": null}, "class_name": "Conv2D"}, {"name": "batch_normalization_22", "inbound_nodes": [[["conv2d_22", 0, 0, {}]]], "config": {"axis": -1, "scale": true, "gamma_constraint": null, "epsilon": 0.001, "name": "batch_normalization_22", "center": true, "beta_initializer": {"config": {}, "class_name": "Zeros"}, "moving_mean_initializer": {"config": {}, "class_name": "Zeros"}, "gamma_initializer": {"config": {}, "class_name": "Ones"}, "trainable": true, "beta_regularizer": null, "beta_constraint": null, "moving_variance_initializer": {"config": {}, "class_name": "Ones"}, "gamma_regularizer": null, "momentum": 0.99}, "class_name": "BatchNormalization"}, {"name": "elu_23", "inbound_nodes": [[["batch_normalization_22", 0, 0, {}]]], "config": {"name": "elu_23", "trainable": true, "alpha": 1.0}, "class_name": "ELU"}, {"name": "average_pooling2d_2", "inbound_nodes": [[["elu_23", 0, 0, {}]]], "config": {"strides": [2, 2], "trainable": true, "padding": "valid", "name": "average_pooling2d_2", "pool_size": [4, 4], "data_format": "channels_last"}, "class_name": "AveragePooling2D"}, {"name": "flatten_1", "inbound_nodes": [[["average_pooling2d_2", 0, 0, {}]]], "config": {"name": "flatten_1", "trainable": true}, "class_name": "Flatten"}, {"name": "dense_1", "inbound_nodes": [[["flatten_1", 0, 0, {}]]], "config": {"activation": "elu", "units": 1164, "kernel_regularizer": null, "name": "dense_1", "bias_initializer": {"config": {}, "class_name": "Zeros"}, "kernel_initializer": {"config": {"scale": 1.0, "distribution": "normal", "mode": "fan_avg", "seed": null}, "class_name": "VarianceScaling"}, "use_bias": true, "bias_regularizer": null, "trainable": true, "activity_regularizer": null, "kernel_constraint": {"config": {"axis": 0, "max_value": 2.0}, "class_name": "MaxNorm"}, "bias_constraint": null}, "class_name": "Dense"}, {"name": "dense_2", "inbound_nodes": [[["dense_1", 0, 0, {}]]], "config": {"activation": "linear", "units": 512, "kernel_regularizer": null, "name": "dense_2", "bias_initializer": {"config": {}, "class_name": "Zeros"}, "kernel_initializer": {"config": {"scale": 1.0, "distribution": "normal", "mode": "fan_avg", "seed": null}, "class_name": "VarianceScaling"}, "use_bias": true, "bias_regularizer": null, "trainable": true, "activity_regularizer": null, "kernel_constraint": {"config": {"axis": 0, "max_value": 2.0}, "class_name": "MaxNorm"}, "bias_constraint": null}, "class_name": "Dense"}, {"name": "dense_3", "inbound_nodes": [[["dense_2", 0, 0, {}]]], "config": {"activation": "linear", "units": 100, "kernel_regularizer": null, "name": "dense_3", "bias_initializer": {"config": {}, "class_name": "Zeros"}, "kernel_initializer": {"config": {"scale": 1.0, "distribution": "normal", "mode": "fan_avg", "seed": null}, "class_name": "VarianceScaling"}, "use_bias": true, "bias_regularizer": null, "trainable": true, "activity_regularizer": null, "kernel_constraint": {"config": {"axis": 0, "max_value": 2.0}, "class_name": "MaxNorm"}, "bias_constraint": null}, "class_name": "Dense"}, {"name": "dense_4", "inbound_nodes": [[["dense_3", 0, 0, {}]]], "config": {"activation": "linear", "units": 50, "kernel_regularizer": null, "name": "dense_4", "bias_initializer": {"config": {}, "class_name": "Zeros"}, "kernel_initializer": {"config": {"scale": 1.0, "distribution": "normal", "mode": "fan_avg", "seed": null}, "class_name": "VarianceScaling"}, "use_bias": true, "bias_regularizer": null, "trainable": true, "activity_regularizer": null, "kernel_constraint": {"config": {"axis": 0, "max_value": 2.0}, "class_name": "MaxNorm"}, "bias_constraint": null}, "class_name": "Dense"}, {"name": "dense_5", "inbound_nodes": [[["dense_4", 0, 0, {}]]], "config": {"activation": "linear", "units": 1, "kernel_regularizer": null, "name": "dense_5", "bias_initializer": {"config": {}, "class_name": "Zeros"}, "kernel_initializer": {"config": {"scale": 1.0, "distribution": "uniform", "mode": "fan_avg", "seed": null}, "class_name": "VarianceScaling"}, "use_bias": true, "bias_regularizer": null, "trainable": true, "activity_regularizer": null, "kernel_constraint": null, "bias_constraint": null}, "class_name": "Dense"}, {"name": "steering_output", "inbound_nodes": [[["dense_5", 0, 0, {}]]], "config": {"activation": "linear", "units": 1, "kernel_regularizer": null, "name": "steering_output", "bias_initializer": {"config": {}, "class_name": "Zeros"}, "kernel_initializer": {"config": {"scale": 1.0, "distribution": "uniform", "mode": "fan_avg", "seed": null}, "class_name": "VarianceScaling"}, "use_bias": true, "bias_regularizer": null, "trainable": true, "activity_regularizer": null, "kernel_constraint": null, "bias_constraint": null}, "class_name": "Dense"}], "output_layers": [["steering_output", 0, 0]], "input_layers": [["images", 0, 0]]}, "class_name": "Model", "keras_version": "2.0.2"}