{"config": {"output_layers": [["steering_output", 0, 0]], "input_layers": [["images", 0, 0]], "layers": [{"config": {"name": "images", "sparse": false, "batch_input_shape": [null, 80, 80, 3], "dtype": "float32"}, "name": "images", "inbound_nodes": [], "class_name": "InputLayer"}, {"config": {"trainable": true, "output_shape_type": "raw", "name": "lambda_1", "output_shape": null, "arguments": {}, "function": ["\u00e3\u0001\u0000\u0000\u0000\u0000\u0000\u0000\u0000\u0001\u0000\u0000\u0000\u0002\u0000\u0000\u0000S\u0000\u0000\u0000s\f\u0000\u0000\u0000|\u0000\u0000d\u0001\u0000\u001bd\u0002\u0000\u0018S)\u0003Ng\u0000\u0000\u0000\u0000\u0000\u00e0_@g\u0000\u0000\u0000\u0000\u0000\u0000\u00f0?\u00a9\u0000)\u0001\u00da\u0001xr\u0001\u0000\u0000\u0000r\u0001\u0000\u0000\u0000\u00fa\bmodel.py\u00da\b<lambda>+\u0001\u0000\u0000\u00f3\u0000\u0000\u0000\u0000", null, null], "function_type": "lambda"}, "name": "lambda_1", "inbound_nodes": [[["images", 0, 0, {}]]], "class_name": "Lambda"}, {"config": {"dilation_rate": [1, 1], "bias_initializer": {"config": {}, "class_name": "Zeros"}, "filters": 32, "padding": "same", "trainable": true, "bias_constraint": null, "strides": [2, 2], "name": "conv2d_1", "bias_regularizer": null, "kernel_regularizer": null, "activation": "linear", "use_bias": true, "kernel_size": [5, 5], "activity_regularizer": null, "data_format": "channels_last", "kernel_constraint": {"config": {"max_value": 2.0, "axis": 0}, "class_name": "MaxNorm"}, "kernel_initializer": {"config": {"scale": 1.0, "seed": null, "distribution": "normal", "mode": "fan_avg"}, "class_name": "VarianceScaling"}}, "name": "conv2d_1", "inbound_nodes": [[["lambda_1", 0, 0, {}]]], "class_name": "Conv2D"}, {"config": {"beta_constraint": null, "center": true, "trainable": true, "axis": -1, "moving_variance_initializer": {"config": {}, "class_name": "Ones"}, "scale": true, "beta_initializer": {"config": {}, "class_name": "Zeros"}, "gamma_constraint": null, "gamma_initializer": {"config": {}, "class_name": "Ones"}, "momentum": 0.99, "name": "batch_normalization_1", "gamma_regularizer": null, "epsilon": 0.001, "beta_regularizer": null, "moving_mean_initializer": {"config": {}, "class_name": "Zeros"}}, "name": "batch_normalization_1", "inbound_nodes": [[["conv2d_1", 0, 0, {}]]], "class_name": "BatchNormalization"}, {"config": {"alpha": 1.0, "trainable": true, "name": "elu_1"}, "name": "elu_1", "inbound_nodes": [[["batch_normalization_1", 0, 0, {}]]], "class_name": "ELU"}, {"config": {"dilation_rate": [1, 1], "bias_initializer": {"config": {}, "class_name": "Zeros"}, "filters": 32, "padding": "same", "trainable": true, "bias_constraint": null, "strides": [2, 2], "name": "conv2d_2", "bias_regularizer": null, "kernel_regularizer": null, "activation": "linear", "use_bias": true, "kernel_size": [5, 5], "activity_regularizer": null, "data_format": "channels_last", "kernel_constraint": {"config": {"max_value": 2.0, "axis": 0}, "class_name": "MaxNorm"}, "kernel_initializer": {"config": {"scale": 1.0, "seed": null, "distribution": "normal", "mode": "fan_avg"}, "class_name": "VarianceScaling"}}, "name": "conv2d_2", "inbound_nodes": [[["elu_1", 0, 0, {}]]], "class_name": "Conv2D"}, {"config": {"beta_constraint": null, "center": true, "trainable": true, "axis": -1, "moving_variance_initializer": {"config": {}, "class_name": "Ones"}, "scale": true, "beta_initializer": {"config": {}, "class_name": "Zeros"}, "gamma_constraint": null, "gamma_initializer": {"config": {}, "class_name": "Ones"}, "momentum": 0.99, "name": "batch_normalization_2", "gamma_regularizer": null, "epsilon": 0.001, "beta_regularizer": null, "moving_mean_initializer": {"config": {}, "class_name": "Zeros"}}, "name": "batch_normalization_2", "inbound_nodes": [[["conv2d_2", 0, 0, {}]]], "class_name": "BatchNormalization"}, {"config": {"alpha": 1.0, "trainable": true, "name": "elu_2"}, "name": "elu_2", "inbound_nodes": [[["batch_normalization_2", 0, 0, {}]]], "class_name": "ELU"}, {"config": {"trainable": true, "pool_size": [4, 4], "name": "average_pooling2d_1", "strides": [2, 2], "padding": "same", "data_format": "channels_last"}, "name": "average_pooling2d_1", "inbound_nodes": [[["elu_2", 0, 0, {}]]], "class_name": "AveragePooling2D"}, {"config": {"dilation_rate": [1, 1], "bias_initializer": {"config": {}, "class_name": "Zeros"}, "filters": 32, "padding": "same", "trainable": true, "bias_constraint": null, "strides": [1, 1], "name": "conv2d_3", "bias_regularizer": null, "kernel_regularizer": null, "activation": "linear", "use_bias": true, "kernel_size": [5, 5], "activity_regularizer": null, "data_format": "channels_last", "kernel_constraint": {"config": {"max_value": 2.0, "axis": 0}, "class_name": "MaxNorm"}, "kernel_initializer": {"config": {"scale": 1.0, "seed": null, "distribution": "normal", "mode": "fan_avg"}, "class_name": "VarianceScaling"}}, "name": "conv2d_3", "inbound_nodes": [[["average_pooling2d_1", 0, 0, {}]]], "class_name": "Conv2D"}, {"config": {"beta_constraint": null, "center": true, "trainable": true, "axis": -1, "moving_variance_initializer": {"config": {}, "class_name": "Ones"}, "scale": true, "beta_initializer": {"config": {}, "class_name": "Zeros"}, "gamma_constraint": null, "gamma_initializer": {"config": {}, "class_name": "Ones"}, "momentum": 0.99, "name": "batch_normalization_3", "gamma_regularizer": null, "epsilon": 0.001, "beta_regularizer": null, "moving_mean_initializer": {"config": {}, "class_name": "Zeros"}}, "name": "batch_normalization_3", "inbound_nodes": [[["conv2d_3", 0, 0, {}]]], "class_name": "BatchNormalization"}, {"config": {"alpha": 1.0, "trainable": true, "name": "elu_3"}, "name": "elu_3", "inbound_nodes": [[["batch_normalization_3", 0, 0, {}]]], "class_name": "ELU"}, {"config": {"trainable": true, "rate": 0.5, "name": "dropout_1"}, "name": "dropout_1", "inbound_nodes": [[["elu_3", 0, 0, {}]]], "class_name": "Dropout"}, {"config": {"dilation_rate": [1, 1], "bias_initializer": {"config": {}, "class_name": "Zeros"}, "filters": 32, "padding": "same", "trainable": true, "bias_constraint": null, "strides": [1, 1], "name": "conv2d_4", "bias_regularizer": null, "kernel_regularizer": null, "activation": "linear", "use_bias": true, "kernel_size": [5, 5], "activity_regularizer": null, "data_format": "channels_last", "kernel_constraint": {"config": {"max_value": 2.0, "axis": 0}, "class_name": "MaxNorm"}, "kernel_initializer": {"config": {"scale": 1.0, "seed": null, "distribution": "normal", "mode": "fan_avg"}, "class_name": "VarianceScaling"}}, "name": "conv2d_4", "inbound_nodes": [[["dropout_1", 0, 0, {}]]], "class_name": "Conv2D"}, {"config": {"trainable": true, "name": "add_1"}, "name": "add_1", "inbound_nodes": [[["conv2d_4", 0, 0, {}], ["average_pooling2d_1", 0, 0, {}]]], "class_name": "Add"}, {"config": {"beta_constraint": null, "center": true, "trainable": true, "axis": -1, "moving_variance_initializer": {"config": {}, "class_name": "Ones"}, "scale": true, "beta_initializer": {"config": {}, "class_name": "Zeros"}, "gamma_constraint": null, "gamma_initializer": {"config": {}, "class_name": "Ones"}, "momentum": 0.99, "name": "batch_normalization_4", "gamma_regularizer": null, "epsilon": 0.001, "beta_regularizer": null, "moving_mean_initializer": {"config": {}, "class_name": "Zeros"}}, "name": "batch_normalization_4", "inbound_nodes": [[["add_1", 0, 0, {}]]], "class_name": "BatchNormalization"}, {"config": {"alpha": 1.0, "trainable": true, "name": "elu_4"}, "name": "elu_4", "inbound_nodes": [[["batch_normalization_4", 0, 0, {}]]], "class_name": "ELU"}, {"config": {"dilation_rate": [1, 1], "bias_initializer": {"config": {}, "class_name": "Zeros"}, "filters": 32, "padding": "same", "trainable": true, "bias_constraint": null, "strides": [1, 1], "name": "conv2d_5", "bias_regularizer": null, "kernel_regularizer": null, "activation": "linear", "use_bias": true, "kernel_size": [5, 5], "activity_regularizer": null, "data_format": "channels_last", "kernel_constraint": {"config": {"max_value": 2.0, "axis": 0}, "class_name": "MaxNorm"}, "kernel_initializer": {"config": {"scale": 1.0, "seed": null, "distribution": "normal", "mode": "fan_avg"}, "class_name": "VarianceScaling"}}, "name": "conv2d_5", "inbound_nodes": [[["elu_4", 0, 0, {}]]], "class_name": "Conv2D"}, {"config": {"beta_constraint": null, "center": true, "trainable": true, "axis": -1, "moving_variance_initializer": {"config": {}, "class_name": "Ones"}, "scale": true, "beta_initializer": {"config": {}, "class_name": "Zeros"}, "gamma_constraint": null, "gamma_initializer": {"config": {}, "class_name": "Ones"}, "momentum": 0.99, "name": "batch_normalization_5", "gamma_regularizer": null, "epsilon": 0.001, "beta_regularizer": null, "moving_mean_initializer": {"config": {}, "class_name": "Zeros"}}, "name": "batch_normalization_5", "inbound_nodes": [[["conv2d_5", 0, 0, {}]]], "class_name": "BatchNormalization"}, {"config": {"alpha": 1.0, "trainable": true, "name": "elu_5"}, "name": "elu_5", "inbound_nodes": [[["batch_normalization_5", 0, 0, {}]]], "class_name": "ELU"}, {"config": {"trainable": true, "rate": 0.5, "name": "dropout_2"}, "name": "dropout_2", "inbound_nodes": [[["elu_5", 0, 0, {}]]], "class_name": "Dropout"}, {"config": {"dilation_rate": [1, 1], "bias_initializer": {"config": {}, "class_name": "Zeros"}, "filters": 32, "padding": "same", "trainable": true, "bias_constraint": null, "strides": [1, 1], "name": "conv2d_6", "bias_regularizer": null, "kernel_regularizer": null, "activation": "linear", "use_bias": true, "kernel_size": [5, 5], "activity_regularizer": null, "data_format": "channels_last", "kernel_constraint": {"config": {"max_value": 2.0, "axis": 0}, "class_name": "MaxNorm"}, "kernel_initializer": {"config": {"scale": 1.0, "seed": null, "distribution": "normal", "mode": "fan_avg"}, "class_name": "VarianceScaling"}}, "name": "conv2d_6", "inbound_nodes": [[["dropout_2", 0, 0, {}]]], "class_name": "Conv2D"}, {"config": {"trainable": true, "name": "add_2"}, "name": "add_2", "inbound_nodes": [[["conv2d_6", 0, 0, {}], ["elu_4", 0, 0, {}]]], "class_name": "Add"}, {"config": {"beta_constraint": null, "center": true, "trainable": true, "axis": -1, "moving_variance_initializer": {"config": {}, "class_name": "Ones"}, "scale": true, "beta_initializer": {"config": {}, "class_name": "Zeros"}, "gamma_constraint": null, "gamma_initializer": {"config": {}, "class_name": "Ones"}, "momentum": 0.99, "name": "batch_normalization_6", "gamma_regularizer": null, "epsilon": 0.001, "beta_regularizer": null, "moving_mean_initializer": {"config": {}, "class_name": "Zeros"}}, "name": "batch_normalization_6", "inbound_nodes": [[["add_2", 0, 0, {}]]], "class_name": "BatchNormalization"}, {"config": {"alpha": 1.0, "trainable": true, "name": "elu_6"}, "name": "elu_6", "inbound_nodes": [[["batch_normalization_6", 0, 0, {}]]], "class_name": "ELU"}, {"config": {"dilation_rate": [1, 1], "bias_initializer": {"config": {}, "class_name": "Zeros"}, "filters": 64, "padding": "same", "trainable": true, "bias_constraint": null, "strides": [1, 1], "name": "conv2d_7", "bias_regularizer": null, "kernel_regularizer": null, "activation": "linear", "use_bias": true, "kernel_size": [5, 5], "activity_regularizer": null, "data_format": "channels_last", "kernel_constraint": {"config": {"max_value": 2.0, "axis": 0}, "class_name": "MaxNorm"}, "kernel_initializer": {"config": {"scale": 1.0, "seed": null, "distribution": "normal", "mode": "fan_avg"}, "class_name": "VarianceScaling"}}, "name": "conv2d_7", "inbound_nodes": [[["elu_6", 0, 0, {}]]], "class_name": "Conv2D"}, {"config": {"beta_constraint": null, "center": true, "trainable": true, "axis": -1, "moving_variance_initializer": {"config": {}, "class_name": "Ones"}, "scale": true, "beta_initializer": {"config": {}, "class_name": "Zeros"}, "gamma_constraint": null, "gamma_initializer": {"config": {}, "class_name": "Ones"}, "momentum": 0.99, "name": "batch_normalization_7", "gamma_regularizer": null, "epsilon": 0.001, "beta_regularizer": null, "moving_mean_initializer": {"config": {}, "class_name": "Zeros"}}, "name": "batch_normalization_7", "inbound_nodes": [[["conv2d_7", 0, 0, {}]]], "class_name": "BatchNormalization"}, {"config": {"alpha": 1.0, "trainable": true, "name": "elu_7"}, "name": "elu_7", "inbound_nodes": [[["batch_normalization_7", 0, 0, {}]]], "class_name": "ELU"}, {"config": {"dilation_rate": [1, 1], "bias_initializer": {"config": {}, "class_name": "Zeros"}, "filters": 64, "padding": "same", "trainable": true, "bias_constraint": null, "strides": [1, 1], "name": "conv2d_8", "bias_regularizer": null, "kernel_regularizer": null, "activation": "linear", "use_bias": true, "kernel_size": [3, 3], "activity_regularizer": null, "data_format": "channels_last", "kernel_constraint": {"config": {"max_value": 2.0, "axis": 0}, "class_name": "MaxNorm"}, "kernel_initializer": {"config": {"scale": 1.0, "seed": null, "distribution": "normal", "mode": "fan_avg"}, "class_name": "VarianceScaling"}}, "name": "conv2d_8", "inbound_nodes": [[["elu_7", 0, 0, {}]]], "class_name": "Conv2D"}, {"config": {"beta_constraint": null, "center": true, "trainable": true, "axis": -1, "moving_variance_initializer": {"config": {}, "class_name": "Ones"}, "scale": true, "beta_initializer": {"config": {}, "class_name": "Zeros"}, "gamma_constraint": null, "gamma_initializer": {"config": {}, "class_name": "Ones"}, "momentum": 0.99, "name": "batch_normalization_8", "gamma_regularizer": null, "epsilon": 0.001, "beta_regularizer": null, "moving_mean_initializer": {"config": {}, "class_name": "Zeros"}}, "name": "batch_normalization_8", "inbound_nodes": [[["conv2d_8", 0, 0, {}]]], "class_name": "BatchNormalization"}, {"config": {"alpha": 1.0, "trainable": true, "name": "elu_8"}, "name": "elu_8", "inbound_nodes": [[["batch_normalization_8", 0, 0, {}]]], "class_name": "ELU"}, {"config": {"trainable": true, "rate": 0.5, "name": "dropout_3"}, "name": "dropout_3", "inbound_nodes": [[["elu_8", 0, 0, {}]]], "class_name": "Dropout"}, {"config": {"dilation_rate": [1, 1], "bias_initializer": {"config": {}, "class_name": "Zeros"}, "filters": 64, "padding": "same", "trainable": true, "bias_constraint": null, "strides": [1, 1], "name": "conv2d_9", "bias_regularizer": null, "kernel_regularizer": null, "activation": "linear", "use_bias": true, "kernel_size": [3, 3], "activity_regularizer": null, "data_format": "channels_last", "kernel_constraint": {"config": {"max_value": 2.0, "axis": 0}, "class_name": "MaxNorm"}, "kernel_initializer": {"config": {"scale": 1.0, "seed": null, "distribution": "normal", "mode": "fan_avg"}, "class_name": "VarianceScaling"}}, "name": "conv2d_9", "inbound_nodes": [[["dropout_3", 0, 0, {}]]], "class_name": "Conv2D"}, {"config": {"trainable": true, "name": "add_3"}, "name": "add_3", "inbound_nodes": [[["conv2d_9", 0, 0, {}], ["elu_7", 0, 0, {}]]], "class_name": "Add"}, {"config": {"beta_constraint": null, "center": true, "trainable": true, "axis": -1, "moving_variance_initializer": {"config": {}, "class_name": "Ones"}, "scale": true, "beta_initializer": {"config": {}, "class_name": "Zeros"}, "gamma_constraint": null, "gamma_initializer": {"config": {}, "class_name": "Ones"}, "momentum": 0.99, "name": "batch_normalization_9", "gamma_regularizer": null, "epsilon": 0.001, "beta_regularizer": null, "moving_mean_initializer": {"config": {}, "class_name": "Zeros"}}, "name": "batch_normalization_9", "inbound_nodes": [[["add_3", 0, 0, {}]]], "class_name": "BatchNormalization"}, {"config": {"alpha": 1.0, "trainable": true, "name": "elu_9"}, "name": "elu_9", "inbound_nodes": [[["batch_normalization_9", 0, 0, {}]]], "class_name": "ELU"}, {"config": {"alpha": 1.0, "trainable": true, "name": "elu_10"}, "name": "elu_10", "inbound_nodes": [[["elu_9", 0, 0, {}]]], "class_name": "ELU"}, {"config": {"dilation_rate": [1, 1], "bias_initializer": {"config": {}, "class_name": "Zeros"}, "filters": 64, "padding": "same", "trainable": true, "bias_constraint": null, "strides": [1, 1], "name": "conv2d_10", "bias_regularizer": null, "kernel_regularizer": null, "activation": "linear", "use_bias": true, "kernel_size": [3, 3], "activity_regularizer": null, "data_format": "channels_last", "kernel_constraint": {"config": {"max_value": 2.0, "axis": 0}, "class_name": "MaxNorm"}, "kernel_initializer": {"config": {"scale": 1.0, "seed": null, "distribution": "normal", "mode": "fan_avg"}, "class_name": "VarianceScaling"}}, "name": "conv2d_10", "inbound_nodes": [[["elu_10", 0, 0, {}]]], "class_name": "Conv2D"}, {"config": {"beta_constraint": null, "center": true, "trainable": true, "axis": -1, "moving_variance_initializer": {"config": {}, "class_name": "Ones"}, "scale": true, "beta_initializer": {"config": {}, "class_name": "Zeros"}, "gamma_constraint": null, "gamma_initializer": {"config": {}, "class_name": "Ones"}, "momentum": 0.99, "name": "batch_normalization_10", "gamma_regularizer": null, "epsilon": 0.001, "beta_regularizer": null, "moving_mean_initializer": {"config": {}, "class_name": "Zeros"}}, "name": "batch_normalization_10", "inbound_nodes": [[["conv2d_10", 0, 0, {}]]], "class_name": "BatchNormalization"}, {"config": {"alpha": 1.0, "trainable": true, "name": "elu_11"}, "name": "elu_11", "inbound_nodes": [[["batch_normalization_10", 0, 0, {}]]], "class_name": "ELU"}, {"config": {"trainable": true, "rate": 0.5, "name": "dropout_4"}, "name": "dropout_4", "inbound_nodes": [[["elu_11", 0, 0, {}]]], "class_name": "Dropout"}, {"config": {"dilation_rate": [1, 1], "bias_initializer": {"config": {}, "class_name": "Zeros"}, "filters": 64, "padding": "same", "trainable": true, "bias_constraint": null, "strides": [1, 1], "name": "conv2d_11", "bias_regularizer": null, "kernel_regularizer": null, "activation": "linear", "use_bias": true, "kernel_size": [3, 3], "activity_regularizer": null, "data_format": "channels_last", "kernel_constraint": {"config": {"max_value": 2.0, "axis": 0}, "class_name": "MaxNorm"}, "kernel_initializer": {"config": {"scale": 1.0, "seed": null, "distribution": "normal", "mode": "fan_avg"}, "class_name": "VarianceScaling"}}, "name": "conv2d_11", "inbound_nodes": [[["dropout_4", 0, 0, {}]]], "class_name": "Conv2D"}, {"config": {"trainable": true, "name": "add_4"}, "name": "add_4", "inbound_nodes": [[["conv2d_11", 0, 0, {}], ["elu_10", 0, 0, {}]]], "class_name": "Add"}, {"config": {"beta_constraint": null, "center": true, "trainable": true, "axis": -1, "moving_variance_initializer": {"config": {}, "class_name": "Ones"}, "scale": true, "beta_initializer": {"config": {}, "class_name": "Zeros"}, "gamma_constraint": null, "gamma_initializer": {"config": {}, "class_name": "Ones"}, "momentum": 0.99, "name": "batch_normalization_11", "gamma_regularizer": null, "epsilon": 0.001, "beta_regularizer": null, "moving_mean_initializer": {"config": {}, "class_name": "Zeros"}}, "name": "batch_normalization_11", "inbound_nodes": [[["add_4", 0, 0, {}]]], "class_name": "BatchNormalization"}, {"config": {"alpha": 1.0, "trainable": true, "name": "elu_12"}, "name": "elu_12", "inbound_nodes": [[["batch_normalization_11", 0, 0, {}]]], "class_name": "ELU"}, {"config": {"dilation_rate": [1, 1], "bias_initializer": {"config": {}, "class_name": "Zeros"}, "filters": 64, "padding": "same", "trainable": true, "bias_constraint": null, "strides": [1, 1], "name": "conv2d_12", "bias_regularizer": null, "kernel_regularizer": null, "activation": "linear", "use_bias": true, "kernel_size": [3, 3], "activity_regularizer": null, "data_format": "channels_last", "kernel_constraint": {"config": {"max_value": 2.0, "axis": 0}, "class_name": "MaxNorm"}, "kernel_initializer": {"config": {"scale": 1.0, "seed": null, "distribution": "normal", "mode": "fan_avg"}, "class_name": "VarianceScaling"}}, "name": "conv2d_12", "inbound_nodes": [[["elu_12", 0, 0, {}]]], "class_name": "Conv2D"}, {"config": {"beta_constraint": null, "center": true, "trainable": true, "axis": -1, "moving_variance_initializer": {"config": {}, "class_name": "Ones"}, "scale": true, "beta_initializer": {"config": {}, "class_name": "Zeros"}, "gamma_constraint": null, "gamma_initializer": {"config": {}, "class_name": "Ones"}, "momentum": 0.99, "name": "batch_normalization_12", "gamma_regularizer": null, "epsilon": 0.001, "beta_regularizer": null, "moving_mean_initializer": {"config": {}, "class_name": "Zeros"}}, "name": "batch_normalization_12", "inbound_nodes": [[["conv2d_12", 0, 0, {}]]], "class_name": "BatchNormalization"}, {"config": {"alpha": 1.0, "trainable": true, "name": "elu_13"}, "name": "elu_13", "inbound_nodes": [[["batch_normalization_12", 0, 0, {}]]], "class_name": "ELU"}, {"config": {"trainable": true, "rate": 0.5, "name": "dropout_5"}, "name": "dropout_5", "inbound_nodes": [[["elu_13", 0, 0, {}]]], "class_name": "Dropout"}, {"config": {"dilation_rate": [1, 1], "bias_initializer": {"config": {}, "class_name": "Zeros"}, "filters": 64, "padding": "same", "trainable": true, "bias_constraint": null, "strides": [1, 1], "name": "conv2d_13", "bias_regularizer": null, "kernel_regularizer": null, "activation": "linear", "use_bias": true, "kernel_size": [3, 3], "activity_regularizer": null, "data_format": "channels_last", "kernel_constraint": {"config": {"max_value": 2.0, "axis": 0}, "class_name": "MaxNorm"}, "kernel_initializer": {"config": {"scale": 1.0, "seed": null, "distribution": "normal", "mode": "fan_avg"}, "class_name": "VarianceScaling"}}, "name": "conv2d_13", "inbound_nodes": [[["dropout_5", 0, 0, {}]]], "class_name": "Conv2D"}, {"config": {"trainable": true, "name": "add_5"}, "name": "add_5", "inbound_nodes": [[["conv2d_13", 0, 0, {}], ["elu_12", 0, 0, {}]]], "class_name": "Add"}, {"config": {"beta_constraint": null, "center": true, "trainable": true, "axis": -1, "moving_variance_initializer": {"config": {}, "class_name": "Ones"}, "scale": true, "beta_initializer": {"config": {}, "class_name": "Zeros"}, "gamma_constraint": null, "gamma_initializer": {"config": {}, "class_name": "Ones"}, "momentum": 0.99, "name": "batch_normalization_13", "gamma_regularizer": null, "epsilon": 0.001, "beta_regularizer": null, "moving_mean_initializer": {"config": {}, "class_name": "Zeros"}}, "name": "batch_normalization_13", "inbound_nodes": [[["add_5", 0, 0, {}]]], "class_name": "BatchNormalization"}, {"config": {"alpha": 1.0, "trainable": true, "name": "elu_14"}, "name": "elu_14", "inbound_nodes": [[["batch_normalization_13", 0, 0, {}]]], "class_name": "ELU"}, {"config": {"dilation_rate": [1, 1], "bias_initializer": {"config": {}, "class_name": "Zeros"}, "filters": 64, "padding": "same", "trainable": true, "bias_constraint": null, "strides": [1, 1], "name": "conv2d_14", "bias_regularizer": null, "kernel_regularizer": null, "activation": "linear", "use_bias": true, "kernel_size": [3, 3], "activity_regularizer": null, "data_format": "channels_last", "kernel_constraint": {"config": {"max_value": 2.0, "axis": 0}, "class_name": "MaxNorm"}, "kernel_initializer": {"config": {"scale": 1.0, "seed": null, "distribution": "normal", "mode": "fan_avg"}, "class_name": "VarianceScaling"}}, "name": "conv2d_14", "inbound_nodes": [[["elu_14", 0, 0, {}]]], "class_name": "Conv2D"}, {"config": {"beta_constraint": null, "center": true, "trainable": true, "axis": -1, "moving_variance_initializer": {"config": {}, "class_name": "Ones"}, "scale": true, "beta_initializer": {"config": {}, "class_name": "Zeros"}, "gamma_constraint": null, "gamma_initializer": {"config": {}, "class_name": "Ones"}, "momentum": 0.99, "name": "batch_normalization_14", "gamma_regularizer": null, "epsilon": 0.001, "beta_regularizer": null, "moving_mean_initializer": {"config": {}, "class_name": "Zeros"}}, "name": "batch_normalization_14", "inbound_nodes": [[["conv2d_14", 0, 0, {}]]], "class_name": "BatchNormalization"}, {"config": {"alpha": 1.0, "trainable": true, "name": "elu_15"}, "name": "elu_15", "inbound_nodes": [[["batch_normalization_14", 0, 0, {}]]], "class_name": "ELU"}, {"config": {"trainable": true, "rate": 0.5, "name": "dropout_6"}, "name": "dropout_6", "inbound_nodes": [[["elu_15", 0, 0, {}]]], "class_name": "Dropout"}, {"config": {"dilation_rate": [1, 1], "bias_initializer": {"config": {}, "class_name": "Zeros"}, "filters": 64, "padding": "same", "trainable": true, "bias_constraint": null, "strides": [1, 1], "name": "conv2d_15", "bias_regularizer": null, "kernel_regularizer": null, "activation": "linear", "use_bias": true, "kernel_size": [3, 3], "activity_regularizer": null, "data_format": "channels_last", "kernel_constraint": {"config": {"max_value": 2.0, "axis": 0}, "class_name": "MaxNorm"}, "kernel_initializer": {"config": {"scale": 1.0, "seed": null, "distribution": "normal", "mode": "fan_avg"}, "class_name": "VarianceScaling"}}, "name": "conv2d_15", "inbound_nodes": [[["dropout_6", 0, 0, {}]]], "class_name": "Conv2D"}, {"config": {"trainable": true, "name": "add_6"}, "name": "add_6", "inbound_nodes": [[["conv2d_15", 0, 0, {}], ["elu_14", 0, 0, {}]]], "class_name": "Add"}, {"config": {"beta_constraint": null, "center": true, "trainable": true, "axis": -1, "moving_variance_initializer": {"config": {}, "class_name": "Ones"}, "scale": true, "beta_initializer": {"config": {}, "class_name": "Zeros"}, "gamma_constraint": null, "gamma_initializer": {"config": {}, "class_name": "Ones"}, "momentum": 0.99, "name": "batch_normalization_15", "gamma_regularizer": null, "epsilon": 0.001, "beta_regularizer": null, "moving_mean_initializer": {"config": {}, "class_name": "Zeros"}}, "name": "batch_normalization_15", "inbound_nodes": [[["add_6", 0, 0, {}]]], "class_name": "BatchNormalization"}, {"config": {"alpha": 1.0, "trainable": true, "name": "elu_16"}, "name": "elu_16", "inbound_nodes": [[["batch_normalization_15", 0, 0, {}]]], "class_name": "ELU"}, {"config": {"dilation_rate": [1, 1], "bias_initializer": {"config": {}, "class_name": "Zeros"}, "filters": 64, "padding": "same", "trainable": true, "bias_constraint": null, "strides": [1, 1], "name": "conv2d_16", "bias_regularizer": null, "kernel_regularizer": null, "activation": "linear", "use_bias": true, "kernel_size": [3, 3], "activity_regularizer": null, "data_format": "channels_last", "kernel_constraint": {"config": {"max_value": 2.0, "axis": 0}, "class_name": "MaxNorm"}, "kernel_initializer": {"config": {"scale": 1.0, "seed": null, "distribution": "normal", "mode": "fan_avg"}, "class_name": "VarianceScaling"}}, "name": "conv2d_16", "inbound_nodes": [[["elu_16", 0, 0, {}]]], "class_name": "Conv2D"}, {"config": {"beta_constraint": null, "center": true, "trainable": true, "axis": -1, "moving_variance_initializer": {"config": {}, "class_name": "Ones"}, "scale": true, "beta_initializer": {"config": {}, "class_name": "Zeros"}, "gamma_constraint": null, "gamma_initializer": {"config": {}, "class_name": "Ones"}, "momentum": 0.99, "name": "batch_normalization_16", "gamma_regularizer": null, "epsilon": 0.001, "beta_regularizer": null, "moving_mean_initializer": {"config": {}, "class_name": "Zeros"}}, "name": "batch_normalization_16", "inbound_nodes": [[["conv2d_16", 0, 0, {}]]], "class_name": "BatchNormalization"}, {"config": {"alpha": 1.0, "trainable": true, "name": "elu_17"}, "name": "elu_17", "inbound_nodes": [[["batch_normalization_16", 0, 0, {}]]], "class_name": "ELU"}, {"config": {"trainable": true, "rate": 0.5, "name": "dropout_7"}, "name": "dropout_7", "inbound_nodes": [[["elu_17", 0, 0, {}]]], "class_name": "Dropout"}, {"config": {"dilation_rate": [1, 1], "bias_initializer": {"config": {}, "class_name": "Zeros"}, "filters": 64, "padding": "same", "trainable": true, "bias_constraint": null, "strides": [1, 1], "name": "conv2d_17", "bias_regularizer": null, "kernel_regularizer": null, "activation": "linear", "use_bias": true, "kernel_size": [3, 3], "activity_regularizer": null, "data_format": "channels_last", "kernel_constraint": {"config": {"max_value": 2.0, "axis": 0}, "class_name": "MaxNorm"}, "kernel_initializer": {"config": {"scale": 1.0, "seed": null, "distribution": "normal", "mode": "fan_avg"}, "class_name": "VarianceScaling"}}, "name": "conv2d_17", "inbound_nodes": [[["dropout_7", 0, 0, {}]]], "class_name": "Conv2D"}, {"config": {"trainable": true, "name": "add_7"}, "name": "add_7", "inbound_nodes": [[["conv2d_17", 0, 0, {}], ["elu_16", 0, 0, {}]]], "class_name": "Add"}, {"config": {"beta_constraint": null, "center": true, "trainable": true, "axis": -1, "moving_variance_initializer": {"config": {}, "class_name": "Ones"}, "scale": true, "beta_initializer": {"config": {}, "class_name": "Zeros"}, "gamma_constraint": null, "gamma_initializer": {"config": {}, "class_name": "Ones"}, "momentum": 0.99, "name": "batch_normalization_17", "gamma_regularizer": null, "epsilon": 0.001, "beta_regularizer": null, "moving_mean_initializer": {"config": {}, "class_name": "Zeros"}}, "name": "batch_normalization_17", "inbound_nodes": [[["add_7", 0, 0, {}]]], "class_name": "BatchNormalization"}, {"config": {"alpha": 1.0, "trainable": true, "name": "elu_18"}, "name": "elu_18", "inbound_nodes": [[["batch_normalization_17", 0, 0, {}]]], "class_name": "ELU"}, {"config": {"dilation_rate": [1, 1], "bias_initializer": {"config": {}, "class_name": "Zeros"}, "filters": 64, "padding": "same", "trainable": true, "bias_constraint": null, "strides": [1, 1], "name": "conv2d_18", "bias_regularizer": null, "kernel_regularizer": null, "activation": "linear", "use_bias": true, "kernel_size": [3, 3], "activity_regularizer": null, "data_format": "channels_last", "kernel_constraint": {"config": {"max_value": 2.0, "axis": 0}, "class_name": "MaxNorm"}, "kernel_initializer": {"config": {"scale": 1.0, "seed": null, "distribution": "normal", "mode": "fan_avg"}, "class_name": "VarianceScaling"}}, "name": "conv2d_18", "inbound_nodes": [[["elu_18", 0, 0, {}]]], "class_name": "Conv2D"}, {"config": {"beta_constraint": null, "center": true, "trainable": true, "axis": -1, "moving_variance_initializer": {"config": {}, "class_name": "Ones"}, "scale": true, "beta_initializer": {"config": {}, "class_name": "Zeros"}, "gamma_constraint": null, "gamma_initializer": {"config": {}, "class_name": "Ones"}, "momentum": 0.99, "name": "batch_normalization_18", "gamma_regularizer": null, "epsilon": 0.001, "beta_regularizer": null, "moving_mean_initializer": {"config": {}, "class_name": "Zeros"}}, "name": "batch_normalization_18", "inbound_nodes": [[["conv2d_18", 0, 0, {}]]], "class_name": "BatchNormalization"}, {"config": {"alpha": 1.0, "trainable": true, "name": "elu_19"}, "name": "elu_19", "inbound_nodes": [[["batch_normalization_18", 0, 0, {}]]], "class_name": "ELU"}, {"config": {"trainable": true, "rate": 0.5, "name": "dropout_8"}, "name": "dropout_8", "inbound_nodes": [[["elu_19", 0, 0, {}]]], "class_name": "Dropout"}, {"config": {"dilation_rate": [1, 1], "bias_initializer": {"config": {}, "class_name": "Zeros"}, "filters": 64, "padding": "same", "trainable": true, "bias_constraint": null, "strides": [1, 1], "name": "conv2d_19", "bias_regularizer": null, "kernel_regularizer": null, "activation": "linear", "use_bias": true, "kernel_size": [3, 3], "activity_regularizer": null, "data_format": "channels_last", "kernel_constraint": {"config": {"max_value": 2.0, "axis": 0}, "class_name": "MaxNorm"}, "kernel_initializer": {"config": {"scale": 1.0, "seed": null, "distribution": "normal", "mode": "fan_avg"}, "class_name": "VarianceScaling"}}, "name": "conv2d_19", "inbound_nodes": [[["dropout_8", 0, 0, {}]]], "class_name": "Conv2D"}, {"config": {"trainable": true, "name": "add_8"}, "name": "add_8", "inbound_nodes": [[["conv2d_19", 0, 0, {}], ["elu_18", 0, 0, {}]]], "class_name": "Add"}, {"config": {"beta_constraint": null, "center": true, "trainable": true, "axis": -1, "moving_variance_initializer": {"config": {}, "class_name": "Ones"}, "scale": true, "beta_initializer": {"config": {}, "class_name": "Zeros"}, "gamma_constraint": null, "gamma_initializer": {"config": {}, "class_name": "Ones"}, "momentum": 0.99, "name": "batch_normalization_19", "gamma_regularizer": null, "epsilon": 0.001, "beta_regularizer": null, "moving_mean_initializer": {"config": {}, "class_name": "Zeros"}}, "name": "batch_normalization_19", "inbound_nodes": [[["add_8", 0, 0, {}]]], "class_name": "BatchNormalization"}, {"config": {"alpha": 1.0, "trainable": true, "name": "elu_20"}, "name": "elu_20", "inbound_nodes": [[["batch_normalization_19", 0, 0, {}]]], "class_name": "ELU"}, {"config": {"dilation_rate": [1, 1], "bias_initializer": {"config": {}, "class_name": "Zeros"}, "filters": 64, "padding": "same", "trainable": true, "bias_constraint": null, "strides": [1, 1], "name": "conv2d_20", "bias_regularizer": null, "kernel_regularizer": null, "activation": "linear", "use_bias": true, "kernel_size": [3, 3], "activity_regularizer": null, "data_format": "channels_last", "kernel_constraint": {"config": {"max_value": 2.0, "axis": 0}, "class_name": "MaxNorm"}, "kernel_initializer": {"config": {"scale": 1.0, "seed": null, "distribution": "normal", "mode": "fan_avg"}, "class_name": "VarianceScaling"}}, "name": "conv2d_20", "inbound_nodes": [[["elu_20", 0, 0, {}]]], "class_name": "Conv2D"}, {"config": {"beta_constraint": null, "center": true, "trainable": true, "axis": -1, "moving_variance_initializer": {"config": {}, "class_name": "Ones"}, "scale": true, "beta_initializer": {"config": {}, "class_name": "Zeros"}, "gamma_constraint": null, "gamma_initializer": {"config": {}, "class_name": "Ones"}, "momentum": 0.99, "name": "batch_normalization_20", "gamma_regularizer": null, "epsilon": 0.001, "beta_regularizer": null, "moving_mean_initializer": {"config": {}, "class_name": "Zeros"}}, "name": "batch_normalization_20", "inbound_nodes": [[["conv2d_20", 0, 0, {}]]], "class_name": "BatchNormalization"}, {"config": {"alpha": 1.0, "trainable": true, "name": "elu_21"}, "name": "elu_21", "inbound_nodes": [[["batch_normalization_20", 0, 0, {}]]], "class_name": "ELU"}, {"config": {"trainable": true, "rate": 0.5, "name": "dropout_9"}, "name": "dropout_9", "inbound_nodes": [[["elu_21", 0, 0, {}]]], "class_name": "Dropout"}, {"config": {"dilation_rate": [1, 1], "bias_initializer": {"config": {}, "class_name": "Zeros"}, "filters": 64, "padding": "same", "trainable": true, "bias_constraint": null, "strides": [1, 1], "name": "conv2d_21", "bias_regularizer": null, "kernel_regularizer": null, "activation": "linear", "use_bias": true, "kernel_size": [3, 3], "activity_regularizer": null, "data_format": "channels_last", "kernel_constraint": {"config": {"max_value": 2.0, "axis": 0}, "class_name": "MaxNorm"}, "kernel_initializer": {"config": {"scale": 1.0, "seed": null, "distribution": "normal", "mode": "fan_avg"}, "class_name": "VarianceScaling"}}, "name": "conv2d_21", "inbound_nodes": [[["dropout_9", 0, 0, {}]]], "class_name": "Conv2D"}, {"config": {"trainable": true, "name": "add_9"}, "name": "add_9", "inbound_nodes": [[["conv2d_21", 0, 0, {}], ["elu_20", 0, 0, {}]]], "class_name": "Add"}, {"config": {"beta_constraint": null, "center": true, "trainable": true, "axis": -1, "moving_variance_initializer": {"config": {}, "class_name": "Ones"}, "scale": true, "beta_initializer": {"config": {}, "class_name": "Zeros"}, "gamma_constraint": null, "gamma_initializer": {"config": {}, "class_name": "Ones"}, "momentum": 0.99, "name": "batch_normalization_21", "gamma_regularizer": null, "epsilon": 0.001, "beta_regularizer": null, "moving_mean_initializer": {"config": {}, "class_name": "Zeros"}}, "name": "batch_normalization_21", "inbound_nodes": [[["add_9", 0, 0, {}]]], "class_name": "BatchNormalization"}, {"config": {"alpha": 1.0, "trainable": true, "name": "elu_22"}, "name": "elu_22", "inbound_nodes": [[["batch_normalization_21", 0, 0, {}]]], "class_name": "ELU"}, {"config": {"dilation_rate": [1, 1], "bias_initializer": {"config": {}, "class_name": "Zeros"}, "filters": 256, "padding": "same", "trainable": true, "bias_constraint": null, "strides": [1, 1], "name": "conv2d_22", "bias_regularizer": null, "kernel_regularizer": null, "activation": "linear", "use_bias": true, "kernel_size": [3, 3], "activity_regularizer": null, "data_format": "channels_last", "kernel_constraint": {"config": {"max_value": 2.0, "axis": 0}, "class_name": "MaxNorm"}, "kernel_initializer": {"config": {"scale": 1.0, "seed": null, "distribution": "normal", "mode": "fan_avg"}, "class_name": "VarianceScaling"}}, "name": "conv2d_22", "inbound_nodes": [[["elu_22", 0, 0, {}]]], "class_name": "Conv2D"}, {"config": {"beta_constraint": null, "center": true, "trainable": true, "axis": -1, "moving_variance_initializer": {"config": {}, "class_name": "Ones"}, "scale": true, "beta_initializer": {"config": {}, "class_name": "Zeros"}, "gamma_constraint": null, "gamma_initializer": {"config": {}, "class_name": "Ones"}, "momentum": 0.99, "name": "batch_normalization_22", "gamma_regularizer": null, "epsilon": 0.001, "beta_regularizer": null, "moving_mean_initializer": {"config": {}, "class_name": "Zeros"}}, "name": "batch_normalization_22", "inbound_nodes": [[["conv2d_22", 0, 0, {}]]], "class_name": "BatchNormalization"}, {"config": {"alpha": 1.0, "trainable": true, "name": "elu_23"}, "name": "elu_23", "inbound_nodes": [[["batch_normalization_22", 0, 0, {}]]], "class_name": "ELU"}, {"config": {"trainable": true, "pool_size": [4, 4], "name": "average_pooling2d_2", "strides": [2, 2], "padding": "valid", "data_format": "channels_last"}, "name": "average_pooling2d_2", "inbound_nodes": [[["elu_23", 0, 0, {}]]], "class_name": "AveragePooling2D"}, {"config": {"trainable": true, "name": "flatten_1"}, "name": "flatten_1", "inbound_nodes": [[["average_pooling2d_2", 0, 0, {}]]], "class_name": "Flatten"}, {"config": {"bias_initializer": {"config": {}, "class_name": "Zeros"}, "trainable": true, "bias_constraint": null, "kernel_regularizer": null, "name": "dense_1", "bias_regularizer": null, "units": 1164, "activation": "elu", "use_bias": true, "activity_regularizer": null, "kernel_constraint": {"config": {"max_value": 2.0, "axis": 0}, "class_name": "MaxNorm"}, "kernel_initializer": {"config": {"scale": 1.0, "seed": null, "distribution": "normal", "mode": "fan_avg"}, "class_name": "VarianceScaling"}}, "name": "dense_1", "inbound_nodes": [[["flatten_1", 0, 0, {}]]], "class_name": "Dense"}, {"config": {"bias_initializer": {"config": {}, "class_name": "Zeros"}, "trainable": true, "bias_constraint": null, "kernel_regularizer": null, "name": "dense_2", "bias_regularizer": null, "units": 512, "activation": "linear", "use_bias": true, "activity_regularizer": null, "kernel_constraint": {"config": {"max_value": 2.0, "axis": 0}, "class_name": "MaxNorm"}, "kernel_initializer": {"config": {"scale": 1.0, "seed": null, "distribution": "normal", "mode": "fan_avg"}, "class_name": "VarianceScaling"}}, "name": "dense_2", "inbound_nodes": [[["dense_1", 0, 0, {}]]], "class_name": "Dense"}, {"config": {"bias_initializer": {"config": {}, "class_name": "Zeros"}, "trainable": true, "bias_constraint": null, "kernel_regularizer": null, "name": "dense_3", "bias_regularizer": null, "units": 100, "activation": "linear", "use_bias": true, "activity_regularizer": null, "kernel_constraint": {"config": {"max_value": 2.0, "axis": 0}, "class_name": "MaxNorm"}, "kernel_initializer": {"config": {"scale": 1.0, "seed": null, "distribution": "normal", "mode": "fan_avg"}, "class_name": "VarianceScaling"}}, "name": "dense_3", "inbound_nodes": [[["dense_2", 0, 0, {}]]], "class_name": "Dense"}, {"config": {"bias_initializer": {"config": {}, "class_name": "Zeros"}, "trainable": true, "bias_constraint": null, "kernel_regularizer": null, "name": "dense_4", "bias_regularizer": null, "units": 50, "activation": "linear", "use_bias": true, "activity_regularizer": null, "kernel_constraint": {"config": {"max_value": 2.0, "axis": 0}, "class_name": "MaxNorm"}, "kernel_initializer": {"config": {"scale": 1.0, "seed": null, "distribution": "normal", "mode": "fan_avg"}, "class_name": "VarianceScaling"}}, "name": "dense_4", "inbound_nodes": [[["dense_3", 0, 0, {}]]], "class_name": "Dense"}, {"config": {"bias_initializer": {"config": {}, "class_name": "Zeros"}, "trainable": true, "bias_constraint": null, "kernel_regularizer": null, "name": "dense_5", "bias_regularizer": null, "units": 1, "activation": "linear", "use_bias": true, "activity_regularizer": null, "kernel_constraint": null, "kernel_initializer": {"config": {"scale": 1.0, "seed": null, "distribution": "uniform", "mode": "fan_avg"}, "class_name": "VarianceScaling"}}, "name": "dense_5", "inbound_nodes": [[["dense_4", 0, 0, {}]]], "class_name": "Dense"}, {"config": {"bias_initializer": {"config": {}, "class_name": "Zeros"}, "trainable": true, "bias_constraint": null, "kernel_regularizer": null, "name": "steering_output", "bias_regularizer": null, "units": 1, "activation": "linear", "use_bias": true, "activity_regularizer": null, "kernel_constraint": null, "kernel_initializer": {"config": {"scale": 1.0, "seed": null, "distribution": "uniform", "mode": "fan_avg"}, "class_name": "VarianceScaling"}}, "name": "steering_output", "inbound_nodes": [[["dense_5", 0, 0, {}]]], "class_name": "Dense"}], "name": "model_1"}, "backend": "tensorflow", "keras_version": "2.0.2", "class_name": "Model"}