{"config": {"name": "model_1", "layers": [{"name": "images", "config": {"name": "images", "sparse": false, "dtype": "float32", "batch_input_shape": [null, 80, 80, 3]}, "class_name": "InputLayer", "inbound_nodes": []}, {"name": "lambda_1", "config": {"name": "lambda_1", "output_shape": null, "trainable": true, "arguments": {}, "output_shape_type": "raw", "function": ["\u00e3\u0001\u0000\u0000\u0000\u0000\u0000\u0000\u0000\u0001\u0000\u0000\u0000\u0002\u0000\u0000\u0000S\u0000\u0000\u0000s\f\u0000\u0000\u0000|\u0000\u0000d\u0001\u0000\u001bd\u0002\u0000\u0018S)\u0003Ng\u0000\u0000\u0000\u0000\u0000\u00e0_@g\u0000\u0000\u0000\u0000\u0000\u0000\u00f0?\u00a9\u0000)\u0001\u00da\u0001xr\u0001\u0000\u0000\u0000r\u0001\u0000\u0000\u0000\u00fa\bmodel.py\u00da\b<lambda>\u000e\u0001\u0000\u0000\u00f3\u0000\u0000\u0000\u0000", null, null], "function_type": "lambda"}, "class_name": "Lambda", "inbound_nodes": [[["images", 0, 0, {}]]]}, {"name": "conv2d_1", "config": {"name": "conv2d_1", "kernel_size": [5, 5], "kernel_constraint": null, "bias_constraint": null, "trainable": true, "bias_initializer": {"config": {}, "class_name": "Zeros"}, "kernel_initializer": {"config": {"seed": null, "distribution": "normal", "mode": "fan_avg", "scale": 1.0}, "class_name": "VarianceScaling"}, "kernel_regularizer": {"config": {"l1": 0.0, "l2": 0.0010000000474974513}, "class_name": "L1L2"}, "dilation_rate": [1, 1], "bias_regularizer": null, "use_bias": true, "strides": [2, 2], "activation": "linear", "padding": "same", "data_format": "channels_last", "filters": 32, "activity_regularizer": null}, "class_name": "Conv2D", "inbound_nodes": [[["lambda_1", 0, 0, {}]]]}, {"name": "batch_normalization_1", "config": {"name": "batch_normalization_1", "moving_mean_initializer": {"config": {}, "class_name": "Zeros"}, "beta_initializer": {"config": {}, "class_name": "Zeros"}, "center": true, "momentum": 0.99, "axis": -1, "beta_constraint": null, "beta_regularizer": null, "moving_variance_initializer": {"config": {}, "class_name": "Ones"}, "epsilon": 0.001, "gamma_initializer": {"config": {}, "class_name": "Ones"}, "gamma_constraint": null, "scale": true, "gamma_regularizer": null, "trainable": true}, "class_name": "BatchNormalization", "inbound_nodes": [[["conv2d_1", 0, 0, {}]]]}, {"name": "elu_1", "config": {"name": "elu_1", "alpha": 1.0, "trainable": true}, "class_name": "ELU", "inbound_nodes": [[["batch_normalization_1", 0, 0, {}]]]}, {"name": "conv2d_2", "config": {"name": "conv2d_2", "kernel_size": [5, 5], "kernel_constraint": null, "bias_constraint": null, "trainable": true, "bias_initializer": {"config": {}, "class_name": "Zeros"}, "kernel_initializer": {"config": {"seed": null, "distribution": "normal", "mode": "fan_avg", "scale": 1.0}, "class_name": "VarianceScaling"}, "kernel_regularizer": {"config": {"l1": 0.0, "l2": 0.0010000000474974513}, "class_name": "L1L2"}, "dilation_rate": [1, 1], "bias_regularizer": null, "use_bias": true, "strides": [2, 2], "activation": "linear", "padding": "same", "data_format": "channels_last", "filters": 32, "activity_regularizer": null}, "class_name": "Conv2D", "inbound_nodes": [[["elu_1", 0, 0, {}]]]}, {"name": "batch_normalization_2", "config": {"name": "batch_normalization_2", "moving_mean_initializer": {"config": {}, "class_name": "Zeros"}, "beta_initializer": {"config": {}, "class_name": "Zeros"}, "center": true, "momentum": 0.99, "axis": -1, "beta_constraint": null, "beta_regularizer": null, "moving_variance_initializer": {"config": {}, "class_name": "Ones"}, "epsilon": 0.001, "gamma_initializer": {"config": {}, "class_name": "Ones"}, "gamma_constraint": null, "scale": true, "gamma_regularizer": null, "trainable": true}, "class_name": "BatchNormalization", "inbound_nodes": [[["conv2d_2", 0, 0, {}]]]}, {"name": "elu_2", "config": {"name": "elu_2", "alpha": 1.0, "trainable": true}, "class_name": "ELU", "inbound_nodes": [[["batch_normalization_2", 0, 0, {}]]]}, {"name": "average_pooling2d_1", "config": {"name": "average_pooling2d_1", "pool_size": [4, 4], "trainable": true, "data_format": "channels_last", "padding": "same", "strides": [2, 2]}, "class_name": "AveragePooling2D", "inbound_nodes": [[["elu_2", 0, 0, {}]]]}, {"name": "conv2d_3", "config": {"name": "conv2d_3", "kernel_size": [5, 5], "kernel_constraint": null, "bias_constraint": null, "trainable": true, "bias_initializer": {"config": {}, "class_name": "Zeros"}, "kernel_initializer": {"config": {"seed": null, "distribution": "normal", "mode": "fan_avg", "scale": 1.0}, "class_name": "VarianceScaling"}, "kernel_regularizer": {"config": {"l1": 0.0, "l2": 0.0010000000474974513}, "class_name": "L1L2"}, "dilation_rate": [1, 1], "bias_regularizer": null, "use_bias": true, "strides": [1, 1], "activation": "linear", "padding": "same", "data_format": "channels_last", "filters": 32, "activity_regularizer": null}, "class_name": "Conv2D", "inbound_nodes": [[["average_pooling2d_1", 0, 0, {}]]]}, {"name": "batch_normalization_3", "config": {"name": "batch_normalization_3", "moving_mean_initializer": {"config": {}, "class_name": "Zeros"}, "beta_initializer": {"config": {}, "class_name": "Zeros"}, "center": true, "momentum": 0.99, "axis": -1, "beta_constraint": null, "beta_regularizer": null, "moving_variance_initializer": {"config": {}, "class_name": "Ones"}, "epsilon": 0.001, "gamma_initializer": {"config": {}, "class_name": "Ones"}, "gamma_constraint": null, "scale": true, "gamma_regularizer": null, "trainable": true}, "class_name": "BatchNormalization", "inbound_nodes": [[["conv2d_3", 0, 0, {}]]]}, {"name": "elu_3", "config": {"name": "elu_3", "alpha": 1.0, "trainable": true}, "class_name": "ELU", "inbound_nodes": [[["batch_normalization_3", 0, 0, {}]]]}, {"name": "dropout_1", "config": {"name": "dropout_1", "trainable": true, "rate": 0.5}, "class_name": "Dropout", "inbound_nodes": [[["elu_3", 0, 0, {}]]]}, {"name": "conv2d_4", "config": {"name": "conv2d_4", "kernel_size": [5, 5], "kernel_constraint": null, "bias_constraint": null, "trainable": true, "bias_initializer": {"config": {}, "class_name": "Zeros"}, "kernel_initializer": {"config": {"seed": null, "distribution": "normal", "mode": "fan_avg", "scale": 1.0}, "class_name": "VarianceScaling"}, "kernel_regularizer": {"config": {"l1": 0.0, "l2": 0.0010000000474974513}, "class_name": "L1L2"}, "dilation_rate": [1, 1], "bias_regularizer": null, "use_bias": true, "strides": [1, 1], "activation": "linear", "padding": "same", "data_format": "channels_last", "filters": 32, "activity_regularizer": null}, "class_name": "Conv2D", "inbound_nodes": [[["dropout_1", 0, 0, {}]]]}, {"name": "add_1", "config": {"name": "add_1", "trainable": true}, "class_name": "Add", "inbound_nodes": [[["conv2d_4", 0, 0, {}], ["average_pooling2d_1", 0, 0, {}]]]}, {"name": "batch_normalization_4", "config": {"name": "batch_normalization_4", "moving_mean_initializer": {"config": {}, "class_name": "Zeros"}, "beta_initializer": {"config": {}, "class_name": "Zeros"}, "center": true, "momentum": 0.99, "axis": -1, "beta_constraint": null, "beta_regularizer": null, "moving_variance_initializer": {"config": {}, "class_name": "Ones"}, "epsilon": 0.001, "gamma_initializer": {"config": {}, "class_name": "Ones"}, "gamma_constraint": null, "scale": true, "gamma_regularizer": null, "trainable": true}, "class_name": "BatchNormalization", "inbound_nodes": [[["add_1", 0, 0, {}]]]}, {"name": "elu_4", "config": {"name": "elu_4", "alpha": 1.0, "trainable": true}, "class_name": "ELU", "inbound_nodes": [[["batch_normalization_4", 0, 0, {}]]]}, {"name": "conv2d_5", "config": {"name": "conv2d_5", "kernel_size": [5, 5], "kernel_constraint": null, "bias_constraint": null, "trainable": true, "bias_initializer": {"config": {}, "class_name": "Zeros"}, "kernel_initializer": {"config": {"seed": null, "distribution": "normal", "mode": "fan_avg", "scale": 1.0}, "class_name": "VarianceScaling"}, "kernel_regularizer": {"config": {"l1": 0.0, "l2": 0.0010000000474974513}, "class_name": "L1L2"}, "dilation_rate": [1, 1], "bias_regularizer": null, "use_bias": true, "strides": [1, 1], "activation": "linear", "padding": "same", "data_format": "channels_last", "filters": 32, "activity_regularizer": null}, "class_name": "Conv2D", "inbound_nodes": [[["elu_4", 0, 0, {}]]]}, {"name": "batch_normalization_5", "config": {"name": "batch_normalization_5", "moving_mean_initializer": {"config": {}, "class_name": "Zeros"}, "beta_initializer": {"config": {}, "class_name": "Zeros"}, "center": true, "momentum": 0.99, "axis": -1, "beta_constraint": null, "beta_regularizer": null, "moving_variance_initializer": {"config": {}, "class_name": "Ones"}, "epsilon": 0.001, "gamma_initializer": {"config": {}, "class_name": "Ones"}, "gamma_constraint": null, "scale": true, "gamma_regularizer": null, "trainable": true}, "class_name": "BatchNormalization", "inbound_nodes": [[["conv2d_5", 0, 0, {}]]]}, {"name": "elu_5", "config": {"name": "elu_5", "alpha": 1.0, "trainable": true}, "class_name": "ELU", "inbound_nodes": [[["batch_normalization_5", 0, 0, {}]]]}, {"name": "dropout_2", "config": {"name": "dropout_2", "trainable": true, "rate": 0.5}, "class_name": "Dropout", "inbound_nodes": [[["elu_5", 0, 0, {}]]]}, {"name": "conv2d_6", "config": {"name": "conv2d_6", "kernel_size": [5, 5], "kernel_constraint": null, "bias_constraint": null, "trainable": true, "bias_initializer": {"config": {}, "class_name": "Zeros"}, "kernel_initializer": {"config": {"seed": null, "distribution": "normal", "mode": "fan_avg", "scale": 1.0}, "class_name": "VarianceScaling"}, "kernel_regularizer": {"config": {"l1": 0.0, "l2": 0.0010000000474974513}, "class_name": "L1L2"}, "dilation_rate": [1, 1], "bias_regularizer": null, "use_bias": true, "strides": [1, 1], "activation": "linear", "padding": "same", "data_format": "channels_last", "filters": 32, "activity_regularizer": null}, "class_name": "Conv2D", "inbound_nodes": [[["dropout_2", 0, 0, {}]]]}, {"name": "add_2", "config": {"name": "add_2", "trainable": true}, "class_name": "Add", "inbound_nodes": [[["conv2d_6", 0, 0, {}], ["elu_4", 0, 0, {}]]]}, {"name": "batch_normalization_6", "config": {"name": "batch_normalization_6", "moving_mean_initializer": {"config": {}, "class_name": "Zeros"}, "beta_initializer": {"config": {}, "class_name": "Zeros"}, "center": true, "momentum": 0.99, "axis": -1, "beta_constraint": null, "beta_regularizer": null, "moving_variance_initializer": {"config": {}, "class_name": "Ones"}, "epsilon": 0.001, "gamma_initializer": {"config": {}, "class_name": "Ones"}, "gamma_constraint": null, "scale": true, "gamma_regularizer": null, "trainable": true}, "class_name": "BatchNormalization", "inbound_nodes": [[["add_2", 0, 0, {}]]]}, {"name": "elu_6", "config": {"name": "elu_6", "alpha": 1.0, "trainable": true}, "class_name": "ELU", "inbound_nodes": [[["batch_normalization_6", 0, 0, {}]]]}, {"name": "conv2d_7", "config": {"name": "conv2d_7", "kernel_size": [5, 5], "kernel_constraint": null, "bias_constraint": null, "trainable": true, "bias_initializer": {"config": {}, "class_name": "Zeros"}, "kernel_initializer": {"config": {"seed": null, "distribution": "normal", "mode": "fan_avg", "scale": 1.0}, "class_name": "VarianceScaling"}, "kernel_regularizer": {"config": {"l1": 0.0, "l2": 0.0010000000474974513}, "class_name": "L1L2"}, "dilation_rate": [1, 1], "bias_regularizer": null, "use_bias": true, "strides": [1, 1], "activation": "linear", "padding": "same", "data_format": "channels_last", "filters": 64, "activity_regularizer": null}, "class_name": "Conv2D", "inbound_nodes": [[["elu_6", 0, 0, {}]]]}, {"name": "batch_normalization_7", "config": {"name": "batch_normalization_7", "moving_mean_initializer": {"config": {}, "class_name": "Zeros"}, "beta_initializer": {"config": {}, "class_name": "Zeros"}, "center": true, "momentum": 0.99, "axis": -1, "beta_constraint": null, "beta_regularizer": null, "moving_variance_initializer": {"config": {}, "class_name": "Ones"}, "epsilon": 0.001, "gamma_initializer": {"config": {}, "class_name": "Ones"}, "gamma_constraint": null, "scale": true, "gamma_regularizer": null, "trainable": true}, "class_name": "BatchNormalization", "inbound_nodes": [[["conv2d_7", 0, 0, {}]]]}, {"name": "elu_7", "config": {"name": "elu_7", "alpha": 1.0, "trainable": true}, "class_name": "ELU", "inbound_nodes": [[["batch_normalization_7", 0, 0, {}]]]}, {"name": "conv2d_8", "config": {"name": "conv2d_8", "kernel_size": [3, 3], "kernel_constraint": null, "bias_constraint": null, "trainable": true, "bias_initializer": {"config": {}, "class_name": "Zeros"}, "kernel_initializer": {"config": {"seed": null, "distribution": "normal", "mode": "fan_avg", "scale": 1.0}, "class_name": "VarianceScaling"}, "kernel_regularizer": {"config": {"l1": 0.0, "l2": 0.0010000000474974513}, "class_name": "L1L2"}, "dilation_rate": [1, 1], "bias_regularizer": null, "use_bias": true, "strides": [1, 1], "activation": "linear", "padding": "same", "data_format": "channels_last", "filters": 64, "activity_regularizer": null}, "class_name": "Conv2D", "inbound_nodes": [[["elu_7", 0, 0, {}]]]}, {"name": "batch_normalization_8", "config": {"name": "batch_normalization_8", "moving_mean_initializer": {"config": {}, "class_name": "Zeros"}, "beta_initializer": {"config": {}, "class_name": "Zeros"}, "center": true, "momentum": 0.99, "axis": -1, "beta_constraint": null, "beta_regularizer": null, "moving_variance_initializer": {"config": {}, "class_name": "Ones"}, "epsilon": 0.001, "gamma_initializer": {"config": {}, "class_name": "Ones"}, "gamma_constraint": null, "scale": true, "gamma_regularizer": null, "trainable": true}, "class_name": "BatchNormalization", "inbound_nodes": [[["conv2d_8", 0, 0, {}]]]}, {"name": "elu_8", "config": {"name": "elu_8", "alpha": 1.0, "trainable": true}, "class_name": "ELU", "inbound_nodes": [[["batch_normalization_8", 0, 0, {}]]]}, {"name": "dropout_3", "config": {"name": "dropout_3", "trainable": true, "rate": 0.5}, "class_name": "Dropout", "inbound_nodes": [[["elu_8", 0, 0, {}]]]}, {"name": "conv2d_9", "config": {"name": "conv2d_9", "kernel_size": [3, 3], "kernel_constraint": null, "bias_constraint": null, "trainable": true, "bias_initializer": {"config": {}, "class_name": "Zeros"}, "kernel_initializer": {"config": {"seed": null, "distribution": "normal", "mode": "fan_avg", "scale": 1.0}, "class_name": "VarianceScaling"}, "kernel_regularizer": {"config": {"l1": 0.0, "l2": 0.0010000000474974513}, "class_name": "L1L2"}, "dilation_rate": [1, 1], "bias_regularizer": null, "use_bias": true, "strides": [1, 1], "activation": "linear", "padding": "same", "data_format": "channels_last", "filters": 64, "activity_regularizer": null}, "class_name": "Conv2D", "inbound_nodes": [[["dropout_3", 0, 0, {}]]]}, {"name": "add_3", "config": {"name": "add_3", "trainable": true}, "class_name": "Add", "inbound_nodes": [[["conv2d_9", 0, 0, {}], ["elu_7", 0, 0, {}]]]}, {"name": "batch_normalization_9", "config": {"name": "batch_normalization_9", "moving_mean_initializer": {"config": {}, "class_name": "Zeros"}, "beta_initializer": {"config": {}, "class_name": "Zeros"}, "center": true, "momentum": 0.99, "axis": -1, "beta_constraint": null, "beta_regularizer": null, "moving_variance_initializer": {"config": {}, "class_name": "Ones"}, "epsilon": 0.001, "gamma_initializer": {"config": {}, "class_name": "Ones"}, "gamma_constraint": null, "scale": true, "gamma_regularizer": null, "trainable": true}, "class_name": "BatchNormalization", "inbound_nodes": [[["add_3", 0, 0, {}]]]}, {"name": "elu_9", "config": {"name": "elu_9", "alpha": 1.0, "trainable": true}, "class_name": "ELU", "inbound_nodes": [[["batch_normalization_9", 0, 0, {}]]]}, {"name": "elu_10", "config": {"name": "elu_10", "alpha": 1.0, "trainable": true}, "class_name": "ELU", "inbound_nodes": [[["elu_9", 0, 0, {}]]]}, {"name": "conv2d_10", "config": {"name": "conv2d_10", "kernel_size": [3, 3], "kernel_constraint": null, "bias_constraint": null, "trainable": true, "bias_initializer": {"config": {}, "class_name": "Zeros"}, "kernel_initializer": {"config": {"seed": null, "distribution": "normal", "mode": "fan_avg", "scale": 1.0}, "class_name": "VarianceScaling"}, "kernel_regularizer": {"config": {"l1": 0.0, "l2": 0.0010000000474974513}, "class_name": "L1L2"}, "dilation_rate": [1, 1], "bias_regularizer": null, "use_bias": true, "strides": [1, 1], "activation": "linear", "padding": "same", "data_format": "channels_last", "filters": 64, "activity_regularizer": null}, "class_name": "Conv2D", "inbound_nodes": [[["elu_10", 0, 0, {}]]]}, {"name": "batch_normalization_10", "config": {"name": "batch_normalization_10", "moving_mean_initializer": {"config": {}, "class_name": "Zeros"}, "beta_initializer": {"config": {}, "class_name": "Zeros"}, "center": true, "momentum": 0.99, "axis": -1, "beta_constraint": null, "beta_regularizer": null, "moving_variance_initializer": {"config": {}, "class_name": "Ones"}, "epsilon": 0.001, "gamma_initializer": {"config": {}, "class_name": "Ones"}, "gamma_constraint": null, "scale": true, "gamma_regularizer": null, "trainable": true}, "class_name": "BatchNormalization", "inbound_nodes": [[["conv2d_10", 0, 0, {}]]]}, {"name": "elu_11", "config": {"name": "elu_11", "alpha": 1.0, "trainable": true}, "class_name": "ELU", "inbound_nodes": [[["batch_normalization_10", 0, 0, {}]]]}, {"name": "dropout_4", "config": {"name": "dropout_4", "trainable": true, "rate": 0.5}, "class_name": "Dropout", "inbound_nodes": [[["elu_11", 0, 0, {}]]]}, {"name": "conv2d_11", "config": {"name": "conv2d_11", "kernel_size": [3, 3], "kernel_constraint": null, "bias_constraint": null, "trainable": true, "bias_initializer": {"config": {}, "class_name": "Zeros"}, "kernel_initializer": {"config": {"seed": null, "distribution": "normal", "mode": "fan_avg", "scale": 1.0}, "class_name": "VarianceScaling"}, "kernel_regularizer": {"config": {"l1": 0.0, "l2": 0.0010000000474974513}, "class_name": "L1L2"}, "dilation_rate": [1, 1], "bias_regularizer": null, "use_bias": true, "strides": [1, 1], "activation": "linear", "padding": "same", "data_format": "channels_last", "filters": 64, "activity_regularizer": null}, "class_name": "Conv2D", "inbound_nodes": [[["dropout_4", 0, 0, {}]]]}, {"name": "add_4", "config": {"name": "add_4", "trainable": true}, "class_name": "Add", "inbound_nodes": [[["conv2d_11", 0, 0, {}], ["elu_10", 0, 0, {}]]]}, {"name": "batch_normalization_11", "config": {"name": "batch_normalization_11", "moving_mean_initializer": {"config": {}, "class_name": "Zeros"}, "beta_initializer": {"config": {}, "class_name": "Zeros"}, "center": true, "momentum": 0.99, "axis": -1, "beta_constraint": null, "beta_regularizer": null, "moving_variance_initializer": {"config": {}, "class_name": "Ones"}, "epsilon": 0.001, "gamma_initializer": {"config": {}, "class_name": "Ones"}, "gamma_constraint": null, "scale": true, "gamma_regularizer": null, "trainable": true}, "class_name": "BatchNormalization", "inbound_nodes": [[["add_4", 0, 0, {}]]]}, {"name": "elu_12", "config": {"name": "elu_12", "alpha": 1.0, "trainable": true}, "class_name": "ELU", "inbound_nodes": [[["batch_normalization_11", 0, 0, {}]]]}, {"name": "conv2d_12", "config": {"name": "conv2d_12", "kernel_size": [3, 3], "kernel_constraint": null, "bias_constraint": null, "trainable": true, "bias_initializer": {"config": {}, "class_name": "Zeros"}, "kernel_initializer": {"config": {"seed": null, "distribution": "normal", "mode": "fan_avg", "scale": 1.0}, "class_name": "VarianceScaling"}, "kernel_regularizer": {"config": {"l1": 0.0, "l2": 0.0010000000474974513}, "class_name": "L1L2"}, "dilation_rate": [1, 1], "bias_regularizer": null, "use_bias": true, "strides": [1, 1], "activation": "linear", "padding": "same", "data_format": "channels_last", "filters": 64, "activity_regularizer": null}, "class_name": "Conv2D", "inbound_nodes": [[["elu_12", 0, 0, {}]]]}, {"name": "batch_normalization_12", "config": {"name": "batch_normalization_12", "moving_mean_initializer": {"config": {}, "class_name": "Zeros"}, "beta_initializer": {"config": {}, "class_name": "Zeros"}, "center": true, "momentum": 0.99, "axis": -1, "beta_constraint": null, "beta_regularizer": null, "moving_variance_initializer": {"config": {}, "class_name": "Ones"}, "epsilon": 0.001, "gamma_initializer": {"config": {}, "class_name": "Ones"}, "gamma_constraint": null, "scale": true, "gamma_regularizer": null, "trainable": true}, "class_name": "BatchNormalization", "inbound_nodes": [[["conv2d_12", 0, 0, {}]]]}, {"name": "elu_13", "config": {"name": "elu_13", "alpha": 1.0, "trainable": true}, "class_name": "ELU", "inbound_nodes": [[["batch_normalization_12", 0, 0, {}]]]}, {"name": "dropout_5", "config": {"name": "dropout_5", "trainable": true, "rate": 0.5}, "class_name": "Dropout", "inbound_nodes": [[["elu_13", 0, 0, {}]]]}, {"name": "conv2d_13", "config": {"name": "conv2d_13", "kernel_size": [3, 3], "kernel_constraint": null, "bias_constraint": null, "trainable": true, "bias_initializer": {"config": {}, "class_name": "Zeros"}, "kernel_initializer": {"config": {"seed": null, "distribution": "normal", "mode": "fan_avg", "scale": 1.0}, "class_name": "VarianceScaling"}, "kernel_regularizer": {"config": {"l1": 0.0, "l2": 0.0010000000474974513}, "class_name": "L1L2"}, "dilation_rate": [1, 1], "bias_regularizer": null, "use_bias": true, "strides": [1, 1], "activation": "linear", "padding": "same", "data_format": "channels_last", "filters": 64, "activity_regularizer": null}, "class_name": "Conv2D", "inbound_nodes": [[["dropout_5", 0, 0, {}]]]}, {"name": "add_5", "config": {"name": "add_5", "trainable": true}, "class_name": "Add", "inbound_nodes": [[["conv2d_13", 0, 0, {}], ["elu_12", 0, 0, {}]]]}, {"name": "batch_normalization_13", "config": {"name": "batch_normalization_13", "moving_mean_initializer": {"config": {}, "class_name": "Zeros"}, "beta_initializer": {"config": {}, "class_name": "Zeros"}, "center": true, "momentum": 0.99, "axis": -1, "beta_constraint": null, "beta_regularizer": null, "moving_variance_initializer": {"config": {}, "class_name": "Ones"}, "epsilon": 0.001, "gamma_initializer": {"config": {}, "class_name": "Ones"}, "gamma_constraint": null, "scale": true, "gamma_regularizer": null, "trainable": true}, "class_name": "BatchNormalization", "inbound_nodes": [[["add_5", 0, 0, {}]]]}, {"name": "elu_14", "config": {"name": "elu_14", "alpha": 1.0, "trainable": true}, "class_name": "ELU", "inbound_nodes": [[["batch_normalization_13", 0, 0, {}]]]}, {"name": "conv2d_14", "config": {"name": "conv2d_14", "kernel_size": [3, 3], "kernel_constraint": null, "bias_constraint": null, "trainable": true, "bias_initializer": {"config": {}, "class_name": "Zeros"}, "kernel_initializer": {"config": {"seed": null, "distribution": "normal", "mode": "fan_avg", "scale": 1.0}, "class_name": "VarianceScaling"}, "kernel_regularizer": {"config": {"l1": 0.0, "l2": 0.0010000000474974513}, "class_name": "L1L2"}, "dilation_rate": [1, 1], "bias_regularizer": null, "use_bias": true, "strides": [1, 1], "activation": "linear", "padding": "same", "data_format": "channels_last", "filters": 64, "activity_regularizer": null}, "class_name": "Conv2D", "inbound_nodes": [[["elu_14", 0, 0, {}]]]}, {"name": "batch_normalization_14", "config": {"name": "batch_normalization_14", "moving_mean_initializer": {"config": {}, "class_name": "Zeros"}, "beta_initializer": {"config": {}, "class_name": "Zeros"}, "center": true, "momentum": 0.99, "axis": -1, "beta_constraint": null, "beta_regularizer": null, "moving_variance_initializer": {"config": {}, "class_name": "Ones"}, "epsilon": 0.001, "gamma_initializer": {"config": {}, "class_name": "Ones"}, "gamma_constraint": null, "scale": true, "gamma_regularizer": null, "trainable": true}, "class_name": "BatchNormalization", "inbound_nodes": [[["conv2d_14", 0, 0, {}]]]}, {"name": "elu_15", "config": {"name": "elu_15", "alpha": 1.0, "trainable": true}, "class_name": "ELU", "inbound_nodes": [[["batch_normalization_14", 0, 0, {}]]]}, {"name": "dropout_6", "config": {"name": "dropout_6", "trainable": true, "rate": 0.5}, "class_name": "Dropout", "inbound_nodes": [[["elu_15", 0, 0, {}]]]}, {"name": "conv2d_15", "config": {"name": "conv2d_15", "kernel_size": [3, 3], "kernel_constraint": null, "bias_constraint": null, "trainable": true, "bias_initializer": {"config": {}, "class_name": "Zeros"}, "kernel_initializer": {"config": {"seed": null, "distribution": "normal", "mode": "fan_avg", "scale": 1.0}, "class_name": "VarianceScaling"}, "kernel_regularizer": {"config": {"l1": 0.0, "l2": 0.0010000000474974513}, "class_name": "L1L2"}, "dilation_rate": [1, 1], "bias_regularizer": null, "use_bias": true, "strides": [1, 1], "activation": "linear", "padding": "same", "data_format": "channels_last", "filters": 64, "activity_regularizer": null}, "class_name": "Conv2D", "inbound_nodes": [[["dropout_6", 0, 0, {}]]]}, {"name": "add_6", "config": {"name": "add_6", "trainable": true}, "class_name": "Add", "inbound_nodes": [[["conv2d_15", 0, 0, {}], ["elu_14", 0, 0, {}]]]}, {"name": "batch_normalization_15", "config": {"name": "batch_normalization_15", "moving_mean_initializer": {"config": {}, "class_name": "Zeros"}, "beta_initializer": {"config": {}, "class_name": "Zeros"}, "center": true, "momentum": 0.99, "axis": -1, "beta_constraint": null, "beta_regularizer": null, "moving_variance_initializer": {"config": {}, "class_name": "Ones"}, "epsilon": 0.001, "gamma_initializer": {"config": {}, "class_name": "Ones"}, "gamma_constraint": null, "scale": true, "gamma_regularizer": null, "trainable": true}, "class_name": "BatchNormalization", "inbound_nodes": [[["add_6", 0, 0, {}]]]}, {"name": "elu_16", "config": {"name": "elu_16", "alpha": 1.0, "trainable": true}, "class_name": "ELU", "inbound_nodes": [[["batch_normalization_15", 0, 0, {}]]]}, {"name": "conv2d_16", "config": {"name": "conv2d_16", "kernel_size": [3, 3], "kernel_constraint": null, "bias_constraint": null, "trainable": true, "bias_initializer": {"config": {}, "class_name": "Zeros"}, "kernel_initializer": {"config": {"seed": null, "distribution": "normal", "mode": "fan_avg", "scale": 1.0}, "class_name": "VarianceScaling"}, "kernel_regularizer": {"config": {"l1": 0.0, "l2": 0.0010000000474974513}, "class_name": "L1L2"}, "dilation_rate": [1, 1], "bias_regularizer": null, "use_bias": true, "strides": [1, 1], "activation": "linear", "padding": "same", "data_format": "channels_last", "filters": 64, "activity_regularizer": null}, "class_name": "Conv2D", "inbound_nodes": [[["elu_16", 0, 0, {}]]]}, {"name": "batch_normalization_16", "config": {"name": "batch_normalization_16", "moving_mean_initializer": {"config": {}, "class_name": "Zeros"}, "beta_initializer": {"config": {}, "class_name": "Zeros"}, "center": true, "momentum": 0.99, "axis": -1, "beta_constraint": null, "beta_regularizer": null, "moving_variance_initializer": {"config": {}, "class_name": "Ones"}, "epsilon": 0.001, "gamma_initializer": {"config": {}, "class_name": "Ones"}, "gamma_constraint": null, "scale": true, "gamma_regularizer": null, "trainable": true}, "class_name": "BatchNormalization", "inbound_nodes": [[["conv2d_16", 0, 0, {}]]]}, {"name": "elu_17", "config": {"name": "elu_17", "alpha": 1.0, "trainable": true}, "class_name": "ELU", "inbound_nodes": [[["batch_normalization_16", 0, 0, {}]]]}, {"name": "dropout_7", "config": {"name": "dropout_7", "trainable": true, "rate": 0.5}, "class_name": "Dropout", "inbound_nodes": [[["elu_17", 0, 0, {}]]]}, {"name": "conv2d_17", "config": {"name": "conv2d_17", "kernel_size": [3, 3], "kernel_constraint": null, "bias_constraint": null, "trainable": true, "bias_initializer": {"config": {}, "class_name": "Zeros"}, "kernel_initializer": {"config": {"seed": null, "distribution": "normal", "mode": "fan_avg", "scale": 1.0}, "class_name": "VarianceScaling"}, "kernel_regularizer": {"config": {"l1": 0.0, "l2": 0.0010000000474974513}, "class_name": "L1L2"}, "dilation_rate": [1, 1], "bias_regularizer": null, "use_bias": true, "strides": [1, 1], "activation": "linear", "padding": "same", "data_format": "channels_last", "filters": 64, "activity_regularizer": null}, "class_name": "Conv2D", "inbound_nodes": [[["dropout_7", 0, 0, {}]]]}, {"name": "add_7", "config": {"name": "add_7", "trainable": true}, "class_name": "Add", "inbound_nodes": [[["conv2d_17", 0, 0, {}], ["elu_16", 0, 0, {}]]]}, {"name": "batch_normalization_17", "config": {"name": "batch_normalization_17", "moving_mean_initializer": {"config": {}, "class_name": "Zeros"}, "beta_initializer": {"config": {}, "class_name": "Zeros"}, "center": true, "momentum": 0.99, "axis": -1, "beta_constraint": null, "beta_regularizer": null, "moving_variance_initializer": {"config": {}, "class_name": "Ones"}, "epsilon": 0.001, "gamma_initializer": {"config": {}, "class_name": "Ones"}, "gamma_constraint": null, "scale": true, "gamma_regularizer": null, "trainable": true}, "class_name": "BatchNormalization", "inbound_nodes": [[["add_7", 0, 0, {}]]]}, {"name": "elu_18", "config": {"name": "elu_18", "alpha": 1.0, "trainable": true}, "class_name": "ELU", "inbound_nodes": [[["batch_normalization_17", 0, 0, {}]]]}, {"name": "conv2d_18", "config": {"name": "conv2d_18", "kernel_size": [3, 3], "kernel_constraint": null, "bias_constraint": null, "trainable": true, "bias_initializer": {"config": {}, "class_name": "Zeros"}, "kernel_initializer": {"config": {"seed": null, "distribution": "normal", "mode": "fan_avg", "scale": 1.0}, "class_name": "VarianceScaling"}, "kernel_regularizer": {"config": {"l1": 0.0, "l2": 0.0010000000474974513}, "class_name": "L1L2"}, "dilation_rate": [1, 1], "bias_regularizer": null, "use_bias": true, "strides": [1, 1], "activation": "linear", "padding": "same", "data_format": "channels_last", "filters": 256, "activity_regularizer": null}, "class_name": "Conv2D", "inbound_nodes": [[["elu_18", 0, 0, {}]]]}, {"name": "batch_normalization_18", "config": {"name": "batch_normalization_18", "moving_mean_initializer": {"config": {}, "class_name": "Zeros"}, "beta_initializer": {"config": {}, "class_name": "Zeros"}, "center": true, "momentum": 0.99, "axis": -1, "beta_constraint": null, "beta_regularizer": null, "moving_variance_initializer": {"config": {}, "class_name": "Ones"}, "epsilon": 0.001, "gamma_initializer": {"config": {}, "class_name": "Ones"}, "gamma_constraint": null, "scale": true, "gamma_regularizer": null, "trainable": true}, "class_name": "BatchNormalization", "inbound_nodes": [[["conv2d_18", 0, 0, {}]]]}, {"name": "elu_19", "config": {"name": "elu_19", "alpha": 1.0, "trainable": true}, "class_name": "ELU", "inbound_nodes": [[["batch_normalization_18", 0, 0, {}]]]}, {"name": "average_pooling2d_2", "config": {"name": "average_pooling2d_2", "pool_size": [4, 4], "trainable": true, "data_format": "channels_last", "padding": "valid", "strides": [2, 2]}, "class_name": "AveragePooling2D", "inbound_nodes": [[["elu_19", 0, 0, {}]]]}, {"name": "flatten_1", "config": {"name": "flatten_1", "trainable": true}, "class_name": "Flatten", "inbound_nodes": [[["average_pooling2d_2", 0, 0, {}]]]}, {"name": "dense_1", "config": {"name": "dense_1", "bias_initializer": {"config": {}, "class_name": "Zeros"}, "kernel_constraint": null, "bias_constraint": null, "trainable": true, "units": 1164, "kernel_initializer": {"config": {"seed": null, "distribution": "normal", "mode": "fan_avg", "scale": 1.0}, "class_name": "VarianceScaling"}, "kernel_regularizer": {"config": {"l1": 0.0, "l2": 0.0010000000474974513}, "class_name": "L1L2"}, "bias_regularizer": null, "use_bias": true, "activation": "elu", "activity_regularizer": null}, "class_name": "Dense", "inbound_nodes": [[["flatten_1", 0, 0, {}]]]}, {"name": "dense_2", "config": {"name": "dense_2", "bias_initializer": {"config": {}, "class_name": "Zeros"}, "kernel_constraint": null, "bias_constraint": null, "trainable": true, "units": 512, "kernel_initializer": {"config": {"seed": null, "distribution": "normal", "mode": "fan_avg", "scale": 1.0}, "class_name": "VarianceScaling"}, "kernel_regularizer": {"config": {"l1": 0.0, "l2": 0.0010000000474974513}, "class_name": "L1L2"}, "bias_regularizer": null, "use_bias": true, "activation": "linear", "activity_regularizer": null}, "class_name": "Dense", "inbound_nodes": [[["dense_1", 0, 0, {}]]]}, {"name": "dense_3", "config": {"name": "dense_3", "bias_initializer": {"config": {}, "class_name": "Zeros"}, "kernel_constraint": null, "bias_constraint": null, "trainable": true, "units": 100, "kernel_initializer": {"config": {"seed": null, "distribution": "normal", "mode": "fan_avg", "scale": 1.0}, "class_name": "VarianceScaling"}, "kernel_regularizer": {"config": {"l1": 0.0, "l2": 0.0010000000474974513}, "class_name": "L1L2"}, "bias_regularizer": null, "use_bias": true, "activation": "linear", "activity_regularizer": null}, "class_name": "Dense", "inbound_nodes": [[["dense_2", 0, 0, {}]]]}, {"name": "dense_4", "config": {"name": "dense_4", "bias_initializer": {"config": {}, "class_name": "Zeros"}, "kernel_constraint": null, "bias_constraint": null, "trainable": true, "units": 50, "kernel_initializer": {"config": {"seed": null, "distribution": "normal", "mode": "fan_avg", "scale": 1.0}, "class_name": "VarianceScaling"}, "kernel_regularizer": {"config": {"l1": 0.0, "l2": 0.0010000000474974513}, "class_name": "L1L2"}, "bias_regularizer": null, "use_bias": true, "activation": "linear", "activity_regularizer": null}, "class_name": "Dense", "inbound_nodes": [[["dense_3", 0, 0, {}]]]}, {"name": "dense_5", "config": {"name": "dense_5", "bias_initializer": {"config": {}, "class_name": "Zeros"}, "kernel_constraint": null, "bias_constraint": null, "trainable": true, "units": 1, "kernel_initializer": {"config": {"seed": null, "distribution": "uniform", "mode": "fan_avg", "scale": 1.0}, "class_name": "VarianceScaling"}, "kernel_regularizer": null, "bias_regularizer": null, "use_bias": true, "activation": "tanh", "activity_regularizer": null}, "class_name": "Dense", "inbound_nodes": [[["dense_4", 0, 0, {}]]]}, {"name": "steering_output", "config": {"name": "steering_output", "bias_initializer": {"config": {}, "class_name": "Zeros"}, "kernel_constraint": null, "bias_constraint": null, "trainable": true, "units": 1, "kernel_initializer": {"config": {"seed": null, "distribution": "uniform", "mode": "fan_avg", "scale": 1.0}, "class_name": "VarianceScaling"}, "kernel_regularizer": null, "bias_regularizer": null, "use_bias": true, "activation": "linear", "activity_regularizer": null}, "class_name": "Dense", "inbound_nodes": [[["dense_5", 0, 0, {}]]]}], "input_layers": [["images", 0, 0]], "output_layers": [["steering_output", 0, 0]]}, "backend": "tensorflow", "class_name": "Model", "keras_version": "2.0.2"}