{"backend": "tensorflow", "config": {"name": "model_1", "input_layers": [["images", 0, 0]], "output_layers": [["steering_output", 0, 0]], "layers": [{"name": "images", "config": {"sparse": false, "dtype": "float32", "batch_input_shape": [null, 80, 80, 3], "name": "images"}, "class_name": "InputLayer", "inbound_nodes": []}, {"name": "lambda_1", "config": {"trainable": true, "name": "lambda_1", "function_type": "lambda", "output_shape": null, "arguments": {}, "output_shape_type": "raw", "function": ["\u00e3\u0001\u0000\u0000\u0000\u0000\u0000\u0000\u0000\u0001\u0000\u0000\u0000\u0002\u0000\u0000\u0000S\u0000\u0000\u0000s\f\u0000\u0000\u0000|\u0000\u0000d\u0001\u0000\u001bd\u0002\u0000\u0018S)\u0003N\u00e7\u0000\u0000\u0000\u0000\u0000\u00e0_@\u00e7\u0000\u0000\u0000\u0000\u0000\u0000\u00f0?\u00a9\u0000)\u0001\u00da\u0001xr\u0003\u0000\u0000\u0000r\u0003\u0000\u0000\u0000\u00fa\bmodel.py\u00da\b<lambda>\u00f6\u0000\u0000\u0000s\u0000\u0000\u0000\u0000", null, null]}, "class_name": "Lambda", "inbound_nodes": [[["images", 0, 0, {}]]]}, {"name": "conv2d_1", "config": {"activity_regularizer": null, "padding": "same", "kernel_size": [5, 5], "filters": 32, "bias_initializer": {"config": {}, "class_name": "Zeros"}, "strides": [2, 2], "activation": "linear", "kernel_initializer": {"config": {"seed": null, "mode": "fan_avg", "distribution": "normal", "scale": 1.0}, "class_name": "VarianceScaling"}, "kernel_constraint": null, "use_bias": true, "name": "conv2d_1", "bias_constraint": null, "dilation_rate": [1, 1], "data_format": "channels_last", "trainable": true, "bias_regularizer": null, "kernel_regularizer": {"config": {"l1": 0.0, "l2": 0.0010000000474974513}, "class_name": "L1L2"}}, "class_name": "Conv2D", "inbound_nodes": [[["lambda_1", 0, 0, {}]]]}, {"name": "batch_normalization_1", "config": {"center": true, "moving_mean_initializer": {"config": {}, "class_name": "Zeros"}, "beta_constraint": null, "scale": true, "beta_initializer": {"config": {}, "class_name": "Zeros"}, "moving_variance_initializer": {"config": {}, "class_name": "Ones"}, "trainable": true, "name": "batch_normalization_1", "epsilon": 0.001, "gamma_constraint": null, "gamma_regularizer": null, "momentum": 0.99, "gamma_initializer": {"config": {}, "class_name": "Ones"}, "beta_regularizer": null, "axis": -1}, "class_name": "BatchNormalization", "inbound_nodes": [[["conv2d_1", 0, 0, {}]]]}, {"name": "elu_1", "config": {"trainable": true, "name": "elu_1", "alpha": 1.0}, "class_name": "ELU", "inbound_nodes": [[["batch_normalization_1", 0, 0, {}]]]}, {"name": "conv2d_2", "config": {"activity_regularizer": null, "padding": "same", "kernel_size": [5, 5], "filters": 32, "bias_initializer": {"config": {}, "class_name": "Zeros"}, "strides": [2, 2], "activation": "linear", "kernel_initializer": {"config": {"seed": null, "mode": "fan_avg", "distribution": "normal", "scale": 1.0}, "class_name": "VarianceScaling"}, "kernel_constraint": null, "use_bias": true, "name": "conv2d_2", "bias_constraint": null, "dilation_rate": [1, 1], "data_format": "channels_last", "trainable": true, "bias_regularizer": null, "kernel_regularizer": {"config": {"l1": 0.0, "l2": 0.0010000000474974513}, "class_name": "L1L2"}}, "class_name": "Conv2D", "inbound_nodes": [[["elu_1", 0, 0, {}]]]}, {"name": "batch_normalization_2", "config": {"center": true, "moving_mean_initializer": {"config": {}, "class_name": "Zeros"}, "beta_constraint": null, "scale": true, "beta_initializer": {"config": {}, "class_name": "Zeros"}, "moving_variance_initializer": {"config": {}, "class_name": "Ones"}, "trainable": true, "name": "batch_normalization_2", "epsilon": 0.001, "gamma_constraint": null, "gamma_regularizer": null, "momentum": 0.99, "gamma_initializer": {"config": {}, "class_name": "Ones"}, "beta_regularizer": null, "axis": -1}, "class_name": "BatchNormalization", "inbound_nodes": [[["conv2d_2", 0, 0, {}]]]}, {"name": "elu_2", "config": {"trainable": true, "name": "elu_2", "alpha": 1.0}, "class_name": "ELU", "inbound_nodes": [[["batch_normalization_2", 0, 0, {}]]]}, {"name": "average_pooling2d_1", "config": {"trainable": true, "name": "average_pooling2d_1", "pool_size": [4, 4], "padding": "same", "data_format": "channels_last", "strides": [2, 2]}, "class_name": "AveragePooling2D", "inbound_nodes": [[["elu_2", 0, 0, {}]]]}, {"name": "conv2d_3", "config": {"activity_regularizer": null, "padding": "same", "kernel_size": [5, 5], "filters": 32, "bias_initializer": {"config": {}, "class_name": "Zeros"}, "strides": [1, 1], "activation": "linear", "kernel_initializer": {"config": {"seed": null, "mode": "fan_avg", "distribution": "normal", "scale": 1.0}, "class_name": "VarianceScaling"}, "kernel_constraint": null, "use_bias": true, "name": "conv2d_3", "bias_constraint": null, "dilation_rate": [1, 1], "data_format": "channels_last", "trainable": true, "bias_regularizer": null, "kernel_regularizer": {"config": {"l1": 0.0, "l2": 0.0010000000474974513}, "class_name": "L1L2"}}, "class_name": "Conv2D", "inbound_nodes": [[["average_pooling2d_1", 0, 0, {}]]]}, {"name": "batch_normalization_3", "config": {"center": true, "moving_mean_initializer": {"config": {}, "class_name": "Zeros"}, "beta_constraint": null, "scale": true, "beta_initializer": {"config": {}, "class_name": "Zeros"}, "moving_variance_initializer": {"config": {}, "class_name": "Ones"}, "trainable": true, "name": "batch_normalization_3", "epsilon": 0.001, "gamma_constraint": null, "gamma_regularizer": null, "momentum": 0.99, "gamma_initializer": {"config": {}, "class_name": "Ones"}, "beta_regularizer": null, "axis": -1}, "class_name": "BatchNormalization", "inbound_nodes": [[["conv2d_3", 0, 0, {}]]]}, {"name": "elu_3", "config": {"trainable": true, "name": "elu_3", "alpha": 1.0}, "class_name": "ELU", "inbound_nodes": [[["batch_normalization_3", 0, 0, {}]]]}, {"name": "dropout_1", "config": {"trainable": true, "name": "dropout_1", "rate": 0.5}, "class_name": "Dropout", "inbound_nodes": [[["elu_3", 0, 0, {}]]]}, {"name": "conv2d_4", "config": {"activity_regularizer": null, "padding": "same", "kernel_size": [5, 5], "filters": 32, "bias_initializer": {"config": {}, "class_name": "Zeros"}, "strides": [1, 1], "activation": "linear", "kernel_initializer": {"config": {"seed": null, "mode": "fan_avg", "distribution": "normal", "scale": 1.0}, "class_name": "VarianceScaling"}, "kernel_constraint": null, "use_bias": true, "name": "conv2d_4", "bias_constraint": null, "dilation_rate": [1, 1], "data_format": "channels_last", "trainable": true, "bias_regularizer": null, "kernel_regularizer": {"config": {"l1": 0.0, "l2": 0.0010000000474974513}, "class_name": "L1L2"}}, "class_name": "Conv2D", "inbound_nodes": [[["dropout_1", 0, 0, {}]]]}, {"name": "add_1", "config": {"trainable": true, "name": "add_1"}, "class_name": "Add", "inbound_nodes": [[["conv2d_4", 0, 0, {}], ["average_pooling2d_1", 0, 0, {}]]]}, {"name": "batch_normalization_4", "config": {"center": true, "moving_mean_initializer": {"config": {}, "class_name": "Zeros"}, "beta_constraint": null, "scale": true, "beta_initializer": {"config": {}, "class_name": "Zeros"}, "moving_variance_initializer": {"config": {}, "class_name": "Ones"}, "trainable": true, "name": "batch_normalization_4", "epsilon": 0.001, "gamma_constraint": null, "gamma_regularizer": null, "momentum": 0.99, "gamma_initializer": {"config": {}, "class_name": "Ones"}, "beta_regularizer": null, "axis": -1}, "class_name": "BatchNormalization", "inbound_nodes": [[["add_1", 0, 0, {}]]]}, {"name": "elu_4", "config": {"trainable": true, "name": "elu_4", "alpha": 1.0}, "class_name": "ELU", "inbound_nodes": [[["batch_normalization_4", 0, 0, {}]]]}, {"name": "conv2d_5", "config": {"activity_regularizer": null, "padding": "same", "kernel_size": [5, 5], "filters": 32, "bias_initializer": {"config": {}, "class_name": "Zeros"}, "strides": [1, 1], "activation": "linear", "kernel_initializer": {"config": {"seed": null, "mode": "fan_avg", "distribution": "normal", "scale": 1.0}, "class_name": "VarianceScaling"}, "kernel_constraint": null, "use_bias": true, "name": "conv2d_5", "bias_constraint": null, "dilation_rate": [1, 1], "data_format": "channels_last", "trainable": true, "bias_regularizer": null, "kernel_regularizer": {"config": {"l1": 0.0, "l2": 0.0010000000474974513}, "class_name": "L1L2"}}, "class_name": "Conv2D", "inbound_nodes": [[["elu_4", 0, 0, {}]]]}, {"name": "batch_normalization_5", "config": {"center": true, "moving_mean_initializer": {"config": {}, "class_name": "Zeros"}, "beta_constraint": null, "scale": true, "beta_initializer": {"config": {}, "class_name": "Zeros"}, "moving_variance_initializer": {"config": {}, "class_name": "Ones"}, "trainable": true, "name": "batch_normalization_5", "epsilon": 0.001, "gamma_constraint": null, "gamma_regularizer": null, "momentum": 0.99, "gamma_initializer": {"config": {}, "class_name": "Ones"}, "beta_regularizer": null, "axis": -1}, "class_name": "BatchNormalization", "inbound_nodes": [[["conv2d_5", 0, 0, {}]]]}, {"name": "elu_5", "config": {"trainable": true, "name": "elu_5", "alpha": 1.0}, "class_name": "ELU", "inbound_nodes": [[["batch_normalization_5", 0, 0, {}]]]}, {"name": "dropout_2", "config": {"trainable": true, "name": "dropout_2", "rate": 0.5}, "class_name": "Dropout", "inbound_nodes": [[["elu_5", 0, 0, {}]]]}, {"name": "conv2d_6", "config": {"activity_regularizer": null, "padding": "same", "kernel_size": [5, 5], "filters": 32, "bias_initializer": {"config": {}, "class_name": "Zeros"}, "strides": [1, 1], "activation": "linear", "kernel_initializer": {"config": {"seed": null, "mode": "fan_avg", "distribution": "normal", "scale": 1.0}, "class_name": "VarianceScaling"}, "kernel_constraint": null, "use_bias": true, "name": "conv2d_6", "bias_constraint": null, "dilation_rate": [1, 1], "data_format": "channels_last", "trainable": true, "bias_regularizer": null, "kernel_regularizer": {"config": {"l1": 0.0, "l2": 0.0010000000474974513}, "class_name": "L1L2"}}, "class_name": "Conv2D", "inbound_nodes": [[["dropout_2", 0, 0, {}]]]}, {"name": "add_2", "config": {"trainable": true, "name": "add_2"}, "class_name": "Add", "inbound_nodes": [[["conv2d_6", 0, 0, {}], ["elu_4", 0, 0, {}]]]}, {"name": "batch_normalization_6", "config": {"center": true, "moving_mean_initializer": {"config": {}, "class_name": "Zeros"}, "beta_constraint": null, "scale": true, "beta_initializer": {"config": {}, "class_name": "Zeros"}, "moving_variance_initializer": {"config": {}, "class_name": "Ones"}, "trainable": true, "name": "batch_normalization_6", "epsilon": 0.001, "gamma_constraint": null, "gamma_regularizer": null, "momentum": 0.99, "gamma_initializer": {"config": {}, "class_name": "Ones"}, "beta_regularizer": null, "axis": -1}, "class_name": "BatchNormalization", "inbound_nodes": [[["add_2", 0, 0, {}]]]}, {"name": "elu_6", "config": {"trainable": true, "name": "elu_6", "alpha": 1.0}, "class_name": "ELU", "inbound_nodes": [[["batch_normalization_6", 0, 0, {}]]]}, {"name": "conv2d_7", "config": {"activity_regularizer": null, "padding": "same", "kernel_size": [5, 5], "filters": 64, "bias_initializer": {"config": {}, "class_name": "Zeros"}, "strides": [1, 1], "activation": "linear", "kernel_initializer": {"config": {"seed": null, "mode": "fan_avg", "distribution": "normal", "scale": 1.0}, "class_name": "VarianceScaling"}, "kernel_constraint": null, "use_bias": true, "name": "conv2d_7", "bias_constraint": null, "dilation_rate": [1, 1], "data_format": "channels_last", "trainable": true, "bias_regularizer": null, "kernel_regularizer": {"config": {"l1": 0.0, "l2": 0.0010000000474974513}, "class_name": "L1L2"}}, "class_name": "Conv2D", "inbound_nodes": [[["elu_6", 0, 0, {}]]]}, {"name": "batch_normalization_7", "config": {"center": true, "moving_mean_initializer": {"config": {}, "class_name": "Zeros"}, "beta_constraint": null, "scale": true, "beta_initializer": {"config": {}, "class_name": "Zeros"}, "moving_variance_initializer": {"config": {}, "class_name": "Ones"}, "trainable": true, "name": "batch_normalization_7", "epsilon": 0.001, "gamma_constraint": null, "gamma_regularizer": null, "momentum": 0.99, "gamma_initializer": {"config": {}, "class_name": "Ones"}, "beta_regularizer": null, "axis": -1}, "class_name": "BatchNormalization", "inbound_nodes": [[["conv2d_7", 0, 0, {}]]]}, {"name": "elu_7", "config": {"trainable": true, "name": "elu_7", "alpha": 1.0}, "class_name": "ELU", "inbound_nodes": [[["batch_normalization_7", 0, 0, {}]]]}, {"name": "conv2d_8", "config": {"activity_regularizer": null, "padding": "same", "kernel_size": [3, 3], "filters": 64, "bias_initializer": {"config": {}, "class_name": "Zeros"}, "strides": [1, 1], "activation": "linear", "kernel_initializer": {"config": {"seed": null, "mode": "fan_avg", "distribution": "normal", "scale": 1.0}, "class_name": "VarianceScaling"}, "kernel_constraint": null, "use_bias": true, "name": "conv2d_8", "bias_constraint": null, "dilation_rate": [1, 1], "data_format": "channels_last", "trainable": true, "bias_regularizer": null, "kernel_regularizer": {"config": {"l1": 0.0, "l2": 0.0010000000474974513}, "class_name": "L1L2"}}, "class_name": "Conv2D", "inbound_nodes": [[["elu_7", 0, 0, {}]]]}, {"name": "batch_normalization_8", "config": {"center": true, "moving_mean_initializer": {"config": {}, "class_name": "Zeros"}, "beta_constraint": null, "scale": true, "beta_initializer": {"config": {}, "class_name": "Zeros"}, "moving_variance_initializer": {"config": {}, "class_name": "Ones"}, "trainable": true, "name": "batch_normalization_8", "epsilon": 0.001, "gamma_constraint": null, "gamma_regularizer": null, "momentum": 0.99, "gamma_initializer": {"config": {}, "class_name": "Ones"}, "beta_regularizer": null, "axis": -1}, "class_name": "BatchNormalization", "inbound_nodes": [[["conv2d_8", 0, 0, {}]]]}, {"name": "elu_8", "config": {"trainable": true, "name": "elu_8", "alpha": 1.0}, "class_name": "ELU", "inbound_nodes": [[["batch_normalization_8", 0, 0, {}]]]}, {"name": "dropout_3", "config": {"trainable": true, "name": "dropout_3", "rate": 0.5}, "class_name": "Dropout", "inbound_nodes": [[["elu_8", 0, 0, {}]]]}, {"name": "conv2d_9", "config": {"activity_regularizer": null, "padding": "same", "kernel_size": [3, 3], "filters": 64, "bias_initializer": {"config": {}, "class_name": "Zeros"}, "strides": [1, 1], "activation": "linear", "kernel_initializer": {"config": {"seed": null, "mode": "fan_avg", "distribution": "normal", "scale": 1.0}, "class_name": "VarianceScaling"}, "kernel_constraint": null, "use_bias": true, "name": "conv2d_9", "bias_constraint": null, "dilation_rate": [1, 1], "data_format": "channels_last", "trainable": true, "bias_regularizer": null, "kernel_regularizer": {"config": {"l1": 0.0, "l2": 0.0010000000474974513}, "class_name": "L1L2"}}, "class_name": "Conv2D", "inbound_nodes": [[["dropout_3", 0, 0, {}]]]}, {"name": "add_3", "config": {"trainable": true, "name": "add_3"}, "class_name": "Add", "inbound_nodes": [[["conv2d_9", 0, 0, {}], ["elu_7", 0, 0, {}]]]}, {"name": "batch_normalization_9", "config": {"center": true, "moving_mean_initializer": {"config": {}, "class_name": "Zeros"}, "beta_constraint": null, "scale": true, "beta_initializer": {"config": {}, "class_name": "Zeros"}, "moving_variance_initializer": {"config": {}, "class_name": "Ones"}, "trainable": true, "name": "batch_normalization_9", "epsilon": 0.001, "gamma_constraint": null, "gamma_regularizer": null, "momentum": 0.99, "gamma_initializer": {"config": {}, "class_name": "Ones"}, "beta_regularizer": null, "axis": -1}, "class_name": "BatchNormalization", "inbound_nodes": [[["add_3", 0, 0, {}]]]}, {"name": "elu_9", "config": {"trainable": true, "name": "elu_9", "alpha": 1.0}, "class_name": "ELU", "inbound_nodes": [[["batch_normalization_9", 0, 0, {}]]]}, {"name": "elu_10", "config": {"trainable": true, "name": "elu_10", "alpha": 1.0}, "class_name": "ELU", "inbound_nodes": [[["elu_9", 0, 0, {}]]]}, {"name": "conv2d_10", "config": {"activity_regularizer": null, "padding": "same", "kernel_size": [3, 3], "filters": 64, "bias_initializer": {"config": {}, "class_name": "Zeros"}, "strides": [1, 1], "activation": "linear", "kernel_initializer": {"config": {"seed": null, "mode": "fan_avg", "distribution": "normal", "scale": 1.0}, "class_name": "VarianceScaling"}, "kernel_constraint": null, "use_bias": true, "name": "conv2d_10", "bias_constraint": null, "dilation_rate": [1, 1], "data_format": "channels_last", "trainable": true, "bias_regularizer": null, "kernel_regularizer": {"config": {"l1": 0.0, "l2": 0.0010000000474974513}, "class_name": "L1L2"}}, "class_name": "Conv2D", "inbound_nodes": [[["elu_10", 0, 0, {}]]]}, {"name": "batch_normalization_10", "config": {"center": true, "moving_mean_initializer": {"config": {}, "class_name": "Zeros"}, "beta_constraint": null, "scale": true, "beta_initializer": {"config": {}, "class_name": "Zeros"}, "moving_variance_initializer": {"config": {}, "class_name": "Ones"}, "trainable": true, "name": "batch_normalization_10", "epsilon": 0.001, "gamma_constraint": null, "gamma_regularizer": null, "momentum": 0.99, "gamma_initializer": {"config": {}, "class_name": "Ones"}, "beta_regularizer": null, "axis": -1}, "class_name": "BatchNormalization", "inbound_nodes": [[["conv2d_10", 0, 0, {}]]]}, {"name": "elu_11", "config": {"trainable": true, "name": "elu_11", "alpha": 1.0}, "class_name": "ELU", "inbound_nodes": [[["batch_normalization_10", 0, 0, {}]]]}, {"name": "dropout_4", "config": {"trainable": true, "name": "dropout_4", "rate": 0.5}, "class_name": "Dropout", "inbound_nodes": [[["elu_11", 0, 0, {}]]]}, {"name": "conv2d_11", "config": {"activity_regularizer": null, "padding": "same", "kernel_size": [3, 3], "filters": 64, "bias_initializer": {"config": {}, "class_name": "Zeros"}, "strides": [1, 1], "activation": "linear", "kernel_initializer": {"config": {"seed": null, "mode": "fan_avg", "distribution": "normal", "scale": 1.0}, "class_name": "VarianceScaling"}, "kernel_constraint": null, "use_bias": true, "name": "conv2d_11", "bias_constraint": null, "dilation_rate": [1, 1], "data_format": "channels_last", "trainable": true, "bias_regularizer": null, "kernel_regularizer": {"config": {"l1": 0.0, "l2": 0.0010000000474974513}, "class_name": "L1L2"}}, "class_name": "Conv2D", "inbound_nodes": [[["dropout_4", 0, 0, {}]]]}, {"name": "add_4", "config": {"trainable": true, "name": "add_4"}, "class_name": "Add", "inbound_nodes": [[["conv2d_11", 0, 0, {}], ["elu_10", 0, 0, {}]]]}, {"name": "batch_normalization_11", "config": {"center": true, "moving_mean_initializer": {"config": {}, "class_name": "Zeros"}, "beta_constraint": null, "scale": true, "beta_initializer": {"config": {}, "class_name": "Zeros"}, "moving_variance_initializer": {"config": {}, "class_name": "Ones"}, "trainable": true, "name": "batch_normalization_11", "epsilon": 0.001, "gamma_constraint": null, "gamma_regularizer": null, "momentum": 0.99, "gamma_initializer": {"config": {}, "class_name": "Ones"}, "beta_regularizer": null, "axis": -1}, "class_name": "BatchNormalization", "inbound_nodes": [[["add_4", 0, 0, {}]]]}, {"name": "elu_12", "config": {"trainable": true, "name": "elu_12", "alpha": 1.0}, "class_name": "ELU", "inbound_nodes": [[["batch_normalization_11", 0, 0, {}]]]}, {"name": "conv2d_12", "config": {"activity_regularizer": null, "padding": "same", "kernel_size": [3, 3], "filters": 64, "bias_initializer": {"config": {}, "class_name": "Zeros"}, "strides": [1, 1], "activation": "linear", "kernel_initializer": {"config": {"seed": null, "mode": "fan_avg", "distribution": "normal", "scale": 1.0}, "class_name": "VarianceScaling"}, "kernel_constraint": null, "use_bias": true, "name": "conv2d_12", "bias_constraint": null, "dilation_rate": [1, 1], "data_format": "channels_last", "trainable": true, "bias_regularizer": null, "kernel_regularizer": {"config": {"l1": 0.0, "l2": 0.0010000000474974513}, "class_name": "L1L2"}}, "class_name": "Conv2D", "inbound_nodes": [[["elu_12", 0, 0, {}]]]}, {"name": "batch_normalization_12", "config": {"center": true, "moving_mean_initializer": {"config": {}, "class_name": "Zeros"}, "beta_constraint": null, "scale": true, "beta_initializer": {"config": {}, "class_name": "Zeros"}, "moving_variance_initializer": {"config": {}, "class_name": "Ones"}, "trainable": true, "name": "batch_normalization_12", "epsilon": 0.001, "gamma_constraint": null, "gamma_regularizer": null, "momentum": 0.99, "gamma_initializer": {"config": {}, "class_name": "Ones"}, "beta_regularizer": null, "axis": -1}, "class_name": "BatchNormalization", "inbound_nodes": [[["conv2d_12", 0, 0, {}]]]}, {"name": "elu_13", "config": {"trainable": true, "name": "elu_13", "alpha": 1.0}, "class_name": "ELU", "inbound_nodes": [[["batch_normalization_12", 0, 0, {}]]]}, {"name": "dropout_5", "config": {"trainable": true, "name": "dropout_5", "rate": 0.5}, "class_name": "Dropout", "inbound_nodes": [[["elu_13", 0, 0, {}]]]}, {"name": "conv2d_13", "config": {"activity_regularizer": null, "padding": "same", "kernel_size": [3, 3], "filters": 64, "bias_initializer": {"config": {}, "class_name": "Zeros"}, "strides": [1, 1], "activation": "linear", "kernel_initializer": {"config": {"seed": null, "mode": "fan_avg", "distribution": "normal", "scale": 1.0}, "class_name": "VarianceScaling"}, "kernel_constraint": null, "use_bias": true, "name": "conv2d_13", "bias_constraint": null, "dilation_rate": [1, 1], "data_format": "channels_last", "trainable": true, "bias_regularizer": null, "kernel_regularizer": {"config": {"l1": 0.0, "l2": 0.0010000000474974513}, "class_name": "L1L2"}}, "class_name": "Conv2D", "inbound_nodes": [[["dropout_5", 0, 0, {}]]]}, {"name": "add_5", "config": {"trainable": true, "name": "add_5"}, "class_name": "Add", "inbound_nodes": [[["conv2d_13", 0, 0, {}], ["elu_12", 0, 0, {}]]]}, {"name": "batch_normalization_13", "config": {"center": true, "moving_mean_initializer": {"config": {}, "class_name": "Zeros"}, "beta_constraint": null, "scale": true, "beta_initializer": {"config": {}, "class_name": "Zeros"}, "moving_variance_initializer": {"config": {}, "class_name": "Ones"}, "trainable": true, "name": "batch_normalization_13", "epsilon": 0.001, "gamma_constraint": null, "gamma_regularizer": null, "momentum": 0.99, "gamma_initializer": {"config": {}, "class_name": "Ones"}, "beta_regularizer": null, "axis": -1}, "class_name": "BatchNormalization", "inbound_nodes": [[["add_5", 0, 0, {}]]]}, {"name": "elu_14", "config": {"trainable": true, "name": "elu_14", "alpha": 1.0}, "class_name": "ELU", "inbound_nodes": [[["batch_normalization_13", 0, 0, {}]]]}, {"name": "conv2d_14", "config": {"activity_regularizer": null, "padding": "same", "kernel_size": [3, 3], "filters": 256, "bias_initializer": {"config": {}, "class_name": "Zeros"}, "strides": [1, 1], "activation": "linear", "kernel_initializer": {"config": {"seed": null, "mode": "fan_avg", "distribution": "normal", "scale": 1.0}, "class_name": "VarianceScaling"}, "kernel_constraint": null, "use_bias": true, "name": "conv2d_14", "bias_constraint": null, "dilation_rate": [1, 1], "data_format": "channels_last", "trainable": true, "bias_regularizer": null, "kernel_regularizer": {"config": {"l1": 0.0, "l2": 0.0010000000474974513}, "class_name": "L1L2"}}, "class_name": "Conv2D", "inbound_nodes": [[["elu_14", 0, 0, {}]]]}, {"name": "batch_normalization_14", "config": {"center": true, "moving_mean_initializer": {"config": {}, "class_name": "Zeros"}, "beta_constraint": null, "scale": true, "beta_initializer": {"config": {}, "class_name": "Zeros"}, "moving_variance_initializer": {"config": {}, "class_name": "Ones"}, "trainable": true, "name": "batch_normalization_14", "epsilon": 0.001, "gamma_constraint": null, "gamma_regularizer": null, "momentum": 0.99, "gamma_initializer": {"config": {}, "class_name": "Ones"}, "beta_regularizer": null, "axis": -1}, "class_name": "BatchNormalization", "inbound_nodes": [[["conv2d_14", 0, 0, {}]]]}, {"name": "elu_15", "config": {"trainable": true, "name": "elu_15", "alpha": 1.0}, "class_name": "ELU", "inbound_nodes": [[["batch_normalization_14", 0, 0, {}]]]}, {"name": "average_pooling2d_2", "config": {"trainable": true, "name": "average_pooling2d_2", "pool_size": [4, 4], "padding": "valid", "data_format": "channels_last", "strides": [2, 2]}, "class_name": "AveragePooling2D", "inbound_nodes": [[["elu_15", 0, 0, {}]]]}, {"name": "flatten_1", "config": {"trainable": true, "name": "flatten_1"}, "class_name": "Flatten", "inbound_nodes": [[["average_pooling2d_2", 0, 0, {}]]]}, {"name": "dense_1", "config": {"activity_regularizer": null, "use_bias": true, "bias_regularizer": null, "activation": "elu", "kernel_initializer": {"config": {"seed": null, "mode": "fan_avg", "distribution": "normal", "scale": 1.0}, "class_name": "VarianceScaling"}, "bias_constraint": null, "bias_initializer": {"config": {}, "class_name": "Zeros"}, "trainable": true, "units": 1164, "name": "dense_1", "kernel_constraint": null, "kernel_regularizer": {"config": {"l1": 0.0, "l2": 0.0010000000474974513}, "class_name": "L1L2"}}, "class_name": "Dense", "inbound_nodes": [[["flatten_1", 0, 0, {}]]]}, {"name": "dense_2", "config": {"activity_regularizer": null, "use_bias": true, "bias_regularizer": null, "activation": "linear", "kernel_initializer": {"config": {"seed": null, "mode": "fan_avg", "distribution": "normal", "scale": 1.0}, "class_name": "VarianceScaling"}, "bias_constraint": null, "bias_initializer": {"config": {}, "class_name": "Zeros"}, "trainable": true, "units": 512, "name": "dense_2", "kernel_constraint": null, "kernel_regularizer": {"config": {"l1": 0.0, "l2": 0.0010000000474974513}, "class_name": "L1L2"}}, "class_name": "Dense", "inbound_nodes": [[["dense_1", 0, 0, {}]]]}, {"name": "dense_3", "config": {"activity_regularizer": null, "use_bias": true, "bias_regularizer": null, "activation": "linear", "kernel_initializer": {"config": {"seed": null, "mode": "fan_avg", "distribution": "normal", "scale": 1.0}, "class_name": "VarianceScaling"}, "bias_constraint": null, "bias_initializer": {"config": {}, "class_name": "Zeros"}, "trainable": true, "units": 100, "name": "dense_3", "kernel_constraint": null, "kernel_regularizer": {"config": {"l1": 0.0, "l2": 0.0010000000474974513}, "class_name": "L1L2"}}, "class_name": "Dense", "inbound_nodes": [[["dense_2", 0, 0, {}]]]}, {"name": "dense_4", "config": {"activity_regularizer": null, "use_bias": true, "bias_regularizer": null, "activation": "linear", "kernel_initializer": {"config": {"seed": null, "mode": "fan_avg", "distribution": "normal", "scale": 1.0}, "class_name": "VarianceScaling"}, "bias_constraint": null, "bias_initializer": {"config": {}, "class_name": "Zeros"}, "trainable": true, "units": 50, "name": "dense_4", "kernel_constraint": null, "kernel_regularizer": {"config": {"l1": 0.0, "l2": 0.0010000000474974513}, "class_name": "L1L2"}}, "class_name": "Dense", "inbound_nodes": [[["dense_3", 0, 0, {}]]]}, {"name": "dense_5", "config": {"activity_regularizer": null, "use_bias": true, "bias_regularizer": null, "activation": "tanh", "kernel_initializer": {"config": {"seed": null, "mode": "fan_avg", "distribution": "uniform", "scale": 1.0}, "class_name": "VarianceScaling"}, "bias_constraint": null, "bias_initializer": {"config": {}, "class_name": "Zeros"}, "trainable": true, "units": 1, "name": "dense_5", "kernel_constraint": null, "kernel_regularizer": null}, "class_name": "Dense", "inbound_nodes": [[["dense_4", 0, 0, {}]]]}, {"name": "steering_output", "config": {"activity_regularizer": null, "use_bias": true, "bias_regularizer": null, "activation": "linear", "kernel_initializer": {"config": {"seed": null, "mode": "fan_avg", "distribution": "uniform", "scale": 1.0}, "class_name": "VarianceScaling"}, "bias_constraint": null, "bias_initializer": {"config": {}, "class_name": "Zeros"}, "trainable": true, "units": 1, "name": "steering_output", "kernel_constraint": null, "kernel_regularizer": null}, "class_name": "Dense", "inbound_nodes": [[["dense_5", 0, 0, {}]]]}]}, "class_name": "Model", "keras_version": "2.0.2"}