{"config": {"name": "model_1", "output_layers": [["steering_output", 0, 0]], "input_layers": [["images", 0, 0]], "layers": [{"inbound_nodes": [], "config": {"name": "images", "sparse": false, "dtype": "float32", "batch_input_shape": [null, 80, 80, 3]}, "name": "images", "class_name": "InputLayer"}, {"inbound_nodes": [[["images", 0, 0, {}]]], "config": {"function": ["\u00e3\u0001\u0000\u0000\u0000\u0000\u0000\u0000\u0000\u0001\u0000\u0000\u0000\u0002\u0000\u0000\u0000S\u0000\u0000\u0000s\f\u0000\u0000\u0000|\u0000\u0000d\u0001\u0000\u001bd\u0002\u0000\u0018S)\u0003Ng\u0000\u0000\u0000\u0000\u0000\u00e0_@g\u0000\u0000\u0000\u0000\u0000\u0000\u00f0?\u00a9\u0000)\u0001\u00da\u0001xr\u0001\u0000\u0000\u0000r\u0001\u0000\u0000\u0000\u00fa\bmodel.py\u00da\b<lambda>\u00ea\u0000\u0000\u0000\u00f3\u0000\u0000\u0000\u0000", null, null], "output_shape": null, "arguments": {}, "trainable": true, "output_shape_type": "raw", "name": "lambda_1", "function_type": "lambda"}, "name": "lambda_1", "class_name": "Lambda"}, {"inbound_nodes": [[["lambda_1", 0, 0, {}]]], "config": {"padding": "same", "kernel_initializer": {"config": {"distribution": "normal", "seed": null, "scale": 1.0, "mode": "fan_avg"}, "class_name": "VarianceScaling"}, "bias_regularizer": null, "trainable": true, "strides": [2, 2], "name": "conv2d_1", "activity_regularizer": null, "bias_initializer": {"config": {}, "class_name": "Zeros"}, "bias_constraint": null, "data_format": "channels_last", "dilation_rate": [1, 1], "kernel_size": [5, 5], "kernel_constraint": null, "filters": 32, "use_bias": true, "kernel_regularizer": {"config": {"l2": 0.0010000000474974513, "l1": 0.0}, "class_name": "L1L2"}, "activation": "linear"}, "name": "conv2d_1", "class_name": "Conv2D"}, {"inbound_nodes": [[["conv2d_1", 0, 0, {}]]], "config": {"gamma_initializer": {"config": {}, "class_name": "Ones"}, "gamma_constraint": null, "trainable": true, "scale": true, "gamma_regularizer": null, "beta_initializer": {"config": {}, "class_name": "Zeros"}, "beta_constraint": null, "name": "batch_normalization_1", "moving_mean_initializer": {"config": {}, "class_name": "Zeros"}, "axis": -1, "moving_variance_initializer": {"config": {}, "class_name": "Ones"}, "epsilon": 0.001, "beta_regularizer": null, "center": true, "momentum": 0.99}, "name": "batch_normalization_1", "class_name": "BatchNormalization"}, {"inbound_nodes": [[["batch_normalization_1", 0, 0, {}]]], "config": {"trainable": true, "alpha": 1.0, "name": "elu_1"}, "name": "elu_1", "class_name": "ELU"}, {"inbound_nodes": [[["elu_1", 0, 0, {}]]], "config": {"padding": "same", "kernel_initializer": {"config": {"distribution": "normal", "seed": null, "scale": 1.0, "mode": "fan_avg"}, "class_name": "VarianceScaling"}, "bias_regularizer": null, "trainable": true, "strides": [2, 2], "name": "conv2d_2", "activity_regularizer": null, "bias_initializer": {"config": {}, "class_name": "Zeros"}, "bias_constraint": null, "data_format": "channels_last", "dilation_rate": [1, 1], "kernel_size": [5, 5], "kernel_constraint": null, "filters": 32, "use_bias": true, "kernel_regularizer": {"config": {"l2": 0.0010000000474974513, "l1": 0.0}, "class_name": "L1L2"}, "activation": "linear"}, "name": "conv2d_2", "class_name": "Conv2D"}, {"inbound_nodes": [[["conv2d_2", 0, 0, {}]]], "config": {"gamma_initializer": {"config": {}, "class_name": "Ones"}, "gamma_constraint": null, "trainable": true, "scale": true, "gamma_regularizer": null, "beta_initializer": {"config": {}, "class_name": "Zeros"}, "beta_constraint": null, "name": "batch_normalization_2", "moving_mean_initializer": {"config": {}, "class_name": "Zeros"}, "axis": -1, "moving_variance_initializer": {"config": {}, "class_name": "Ones"}, "epsilon": 0.001, "beta_regularizer": null, "center": true, "momentum": 0.99}, "name": "batch_normalization_2", "class_name": "BatchNormalization"}, {"inbound_nodes": [[["batch_normalization_2", 0, 0, {}]]], "config": {"trainable": true, "alpha": 1.0, "name": "elu_2"}, "name": "elu_2", "class_name": "ELU"}, {"inbound_nodes": [[["elu_2", 0, 0, {}]]], "config": {"padding": "same", "data_format": "channels_last", "trainable": true, "strides": [2, 2], "pool_size": [4, 4], "name": "average_pooling2d_1"}, "name": "average_pooling2d_1", "class_name": "AveragePooling2D"}, {"inbound_nodes": [[["average_pooling2d_1", 0, 0, {}]]], "config": {"padding": "same", "kernel_initializer": {"config": {"distribution": "normal", "seed": null, "scale": 1.0, "mode": "fan_avg"}, "class_name": "VarianceScaling"}, "bias_regularizer": null, "trainable": true, "strides": [1, 1], "name": "conv2d_3", "activity_regularizer": null, "bias_initializer": {"config": {}, "class_name": "Zeros"}, "bias_constraint": null, "data_format": "channels_last", "dilation_rate": [1, 1], "kernel_size": [5, 5], "kernel_constraint": null, "filters": 32, "use_bias": true, "kernel_regularizer": {"config": {"l2": 0.0010000000474974513, "l1": 0.0}, "class_name": "L1L2"}, "activation": "linear"}, "name": "conv2d_3", "class_name": "Conv2D"}, {"inbound_nodes": [[["conv2d_3", 0, 0, {}]]], "config": {"gamma_initializer": {"config": {}, "class_name": "Ones"}, "gamma_constraint": null, "trainable": true, "scale": true, "gamma_regularizer": null, "beta_initializer": {"config": {}, "class_name": "Zeros"}, "beta_constraint": null, "name": "batch_normalization_3", "moving_mean_initializer": {"config": {}, "class_name": "Zeros"}, "axis": -1, "moving_variance_initializer": {"config": {}, "class_name": "Ones"}, "epsilon": 0.001, "beta_regularizer": null, "center": true, "momentum": 0.99}, "name": "batch_normalization_3", "class_name": "BatchNormalization"}, {"inbound_nodes": [[["batch_normalization_3", 0, 0, {}]]], "config": {"trainable": true, "alpha": 1.0, "name": "elu_3"}, "name": "elu_3", "class_name": "ELU"}, {"inbound_nodes": [[["elu_3", 0, 0, {}]]], "config": {"trainable": true, "name": "dropout_1", "rate": 0.5}, "name": "dropout_1", "class_name": "Dropout"}, {"inbound_nodes": [[["dropout_1", 0, 0, {}]]], "config": {"padding": "same", "kernel_initializer": {"config": {"distribution": "normal", "seed": null, "scale": 1.0, "mode": "fan_avg"}, "class_name": "VarianceScaling"}, "bias_regularizer": null, "trainable": true, "strides": [1, 1], "name": "conv2d_4", "activity_regularizer": null, "bias_initializer": {"config": {}, "class_name": "Zeros"}, "bias_constraint": null, "data_format": "channels_last", "dilation_rate": [1, 1], "kernel_size": [5, 5], "kernel_constraint": null, "filters": 32, "use_bias": true, "kernel_regularizer": {"config": {"l2": 0.0010000000474974513, "l1": 0.0}, "class_name": "L1L2"}, "activation": "linear"}, "name": "conv2d_4", "class_name": "Conv2D"}, {"inbound_nodes": [[["conv2d_4", 0, 0, {}], ["average_pooling2d_1", 0, 0, {}]]], "config": {"name": "add_1", "trainable": true}, "name": "add_1", "class_name": "Add"}, {"inbound_nodes": [[["add_1", 0, 0, {}]]], "config": {"gamma_initializer": {"config": {}, "class_name": "Ones"}, "gamma_constraint": null, "trainable": true, "scale": true, "gamma_regularizer": null, "beta_initializer": {"config": {}, "class_name": "Zeros"}, "beta_constraint": null, "name": "batch_normalization_4", "moving_mean_initializer": {"config": {}, "class_name": "Zeros"}, "axis": -1, "moving_variance_initializer": {"config": {}, "class_name": "Ones"}, "epsilon": 0.001, "beta_regularizer": null, "center": true, "momentum": 0.99}, "name": "batch_normalization_4", "class_name": "BatchNormalization"}, {"inbound_nodes": [[["batch_normalization_4", 0, 0, {}]]], "config": {"trainable": true, "alpha": 1.0, "name": "elu_4"}, "name": "elu_4", "class_name": "ELU"}, {"inbound_nodes": [[["elu_4", 0, 0, {}]]], "config": {"padding": "same", "kernel_initializer": {"config": {"distribution": "normal", "seed": null, "scale": 1.0, "mode": "fan_avg"}, "class_name": "VarianceScaling"}, "bias_regularizer": null, "trainable": true, "strides": [1, 1], "name": "conv2d_5", "activity_regularizer": null, "bias_initializer": {"config": {}, "class_name": "Zeros"}, "bias_constraint": null, "data_format": "channels_last", "dilation_rate": [1, 1], "kernel_size": [5, 5], "kernel_constraint": null, "filters": 32, "use_bias": true, "kernel_regularizer": {"config": {"l2": 0.0010000000474974513, "l1": 0.0}, "class_name": "L1L2"}, "activation": "linear"}, "name": "conv2d_5", "class_name": "Conv2D"}, {"inbound_nodes": [[["conv2d_5", 0, 0, {}]]], "config": {"gamma_initializer": {"config": {}, "class_name": "Ones"}, "gamma_constraint": null, "trainable": true, "scale": true, "gamma_regularizer": null, "beta_initializer": {"config": {}, "class_name": "Zeros"}, "beta_constraint": null, "name": "batch_normalization_5", "moving_mean_initializer": {"config": {}, "class_name": "Zeros"}, "axis": -1, "moving_variance_initializer": {"config": {}, "class_name": "Ones"}, "epsilon": 0.001, "beta_regularizer": null, "center": true, "momentum": 0.99}, "name": "batch_normalization_5", "class_name": "BatchNormalization"}, {"inbound_nodes": [[["batch_normalization_5", 0, 0, {}]]], "config": {"trainable": true, "alpha": 1.0, "name": "elu_5"}, "name": "elu_5", "class_name": "ELU"}, {"inbound_nodes": [[["elu_5", 0, 0, {}]]], "config": {"trainable": true, "name": "dropout_2", "rate": 0.5}, "name": "dropout_2", "class_name": "Dropout"}, {"inbound_nodes": [[["dropout_2", 0, 0, {}]]], "config": {"padding": "same", "kernel_initializer": {"config": {"distribution": "normal", "seed": null, "scale": 1.0, "mode": "fan_avg"}, "class_name": "VarianceScaling"}, "bias_regularizer": null, "trainable": true, "strides": [1, 1], "name": "conv2d_6", "activity_regularizer": null, "bias_initializer": {"config": {}, "class_name": "Zeros"}, "bias_constraint": null, "data_format": "channels_last", "dilation_rate": [1, 1], "kernel_size": [5, 5], "kernel_constraint": null, "filters": 32, "use_bias": true, "kernel_regularizer": {"config": {"l2": 0.0010000000474974513, "l1": 0.0}, "class_name": "L1L2"}, "activation": "linear"}, "name": "conv2d_6", "class_name": "Conv2D"}, {"inbound_nodes": [[["conv2d_6", 0, 0, {}], ["elu_4", 0, 0, {}]]], "config": {"name": "add_2", "trainable": true}, "name": "add_2", "class_name": "Add"}, {"inbound_nodes": [[["add_2", 0, 0, {}]]], "config": {"gamma_initializer": {"config": {}, "class_name": "Ones"}, "gamma_constraint": null, "trainable": true, "scale": true, "gamma_regularizer": null, "beta_initializer": {"config": {}, "class_name": "Zeros"}, "beta_constraint": null, "name": "batch_normalization_6", "moving_mean_initializer": {"config": {}, "class_name": "Zeros"}, "axis": -1, "moving_variance_initializer": {"config": {}, "class_name": "Ones"}, "epsilon": 0.001, "beta_regularizer": null, "center": true, "momentum": 0.99}, "name": "batch_normalization_6", "class_name": "BatchNormalization"}, {"inbound_nodes": [[["batch_normalization_6", 0, 0, {}]]], "config": {"trainable": true, "alpha": 1.0, "name": "elu_6"}, "name": "elu_6", "class_name": "ELU"}, {"inbound_nodes": [[["elu_6", 0, 0, {}]]], "config": {"padding": "same", "kernel_initializer": {"config": {"distribution": "normal", "seed": null, "scale": 1.0, "mode": "fan_avg"}, "class_name": "VarianceScaling"}, "bias_regularizer": null, "trainable": true, "strides": [1, 1], "name": "conv2d_7", "activity_regularizer": null, "bias_initializer": {"config": {}, "class_name": "Zeros"}, "bias_constraint": null, "data_format": "channels_last", "dilation_rate": [1, 1], "kernel_size": [5, 5], "kernel_constraint": null, "filters": 64, "use_bias": true, "kernel_regularizer": {"config": {"l2": 0.0010000000474974513, "l1": 0.0}, "class_name": "L1L2"}, "activation": "linear"}, "name": "conv2d_7", "class_name": "Conv2D"}, {"inbound_nodes": [[["conv2d_7", 0, 0, {}]]], "config": {"gamma_initializer": {"config": {}, "class_name": "Ones"}, "gamma_constraint": null, "trainable": true, "scale": true, "gamma_regularizer": null, "beta_initializer": {"config": {}, "class_name": "Zeros"}, "beta_constraint": null, "name": "batch_normalization_7", "moving_mean_initializer": {"config": {}, "class_name": "Zeros"}, "axis": -1, "moving_variance_initializer": {"config": {}, "class_name": "Ones"}, "epsilon": 0.001, "beta_regularizer": null, "center": true, "momentum": 0.99}, "name": "batch_normalization_7", "class_name": "BatchNormalization"}, {"inbound_nodes": [[["batch_normalization_7", 0, 0, {}]]], "config": {"trainable": true, "alpha": 1.0, "name": "elu_7"}, "name": "elu_7", "class_name": "ELU"}, {"inbound_nodes": [[["elu_7", 0, 0, {}]]], "config": {"padding": "same", "kernel_initializer": {"config": {"distribution": "normal", "seed": null, "scale": 1.0, "mode": "fan_avg"}, "class_name": "VarianceScaling"}, "bias_regularizer": null, "trainable": true, "strides": [1, 1], "name": "conv2d_8", "activity_regularizer": null, "bias_initializer": {"config": {}, "class_name": "Zeros"}, "bias_constraint": null, "data_format": "channels_last", "dilation_rate": [1, 1], "kernel_size": [3, 3], "kernel_constraint": null, "filters": 64, "use_bias": true, "kernel_regularizer": {"config": {"l2": 0.0010000000474974513, "l1": 0.0}, "class_name": "L1L2"}, "activation": "linear"}, "name": "conv2d_8", "class_name": "Conv2D"}, {"inbound_nodes": [[["conv2d_8", 0, 0, {}]]], "config": {"gamma_initializer": {"config": {}, "class_name": "Ones"}, "gamma_constraint": null, "trainable": true, "scale": true, "gamma_regularizer": null, "beta_initializer": {"config": {}, "class_name": "Zeros"}, "beta_constraint": null, "name": "batch_normalization_8", "moving_mean_initializer": {"config": {}, "class_name": "Zeros"}, "axis": -1, "moving_variance_initializer": {"config": {}, "class_name": "Ones"}, "epsilon": 0.001, "beta_regularizer": null, "center": true, "momentum": 0.99}, "name": "batch_normalization_8", "class_name": "BatchNormalization"}, {"inbound_nodes": [[["batch_normalization_8", 0, 0, {}]]], "config": {"trainable": true, "alpha": 1.0, "name": "elu_8"}, "name": "elu_8", "class_name": "ELU"}, {"inbound_nodes": [[["elu_8", 0, 0, {}]]], "config": {"trainable": true, "name": "dropout_3", "rate": 0.5}, "name": "dropout_3", "class_name": "Dropout"}, {"inbound_nodes": [[["dropout_3", 0, 0, {}]]], "config": {"padding": "same", "kernel_initializer": {"config": {"distribution": "normal", "seed": null, "scale": 1.0, "mode": "fan_avg"}, "class_name": "VarianceScaling"}, "bias_regularizer": null, "trainable": true, "strides": [1, 1], "name": "conv2d_9", "activity_regularizer": null, "bias_initializer": {"config": {}, "class_name": "Zeros"}, "bias_constraint": null, "data_format": "channels_last", "dilation_rate": [1, 1], "kernel_size": [3, 3], "kernel_constraint": null, "filters": 64, "use_bias": true, "kernel_regularizer": {"config": {"l2": 0.0010000000474974513, "l1": 0.0}, "class_name": "L1L2"}, "activation": "linear"}, "name": "conv2d_9", "class_name": "Conv2D"}, {"inbound_nodes": [[["conv2d_9", 0, 0, {}], ["elu_7", 0, 0, {}]]], "config": {"name": "add_3", "trainable": true}, "name": "add_3", "class_name": "Add"}, {"inbound_nodes": [[["add_3", 0, 0, {}]]], "config": {"gamma_initializer": {"config": {}, "class_name": "Ones"}, "gamma_constraint": null, "trainable": true, "scale": true, "gamma_regularizer": null, "beta_initializer": {"config": {}, "class_name": "Zeros"}, "beta_constraint": null, "name": "batch_normalization_9", "moving_mean_initializer": {"config": {}, "class_name": "Zeros"}, "axis": -1, "moving_variance_initializer": {"config": {}, "class_name": "Ones"}, "epsilon": 0.001, "beta_regularizer": null, "center": true, "momentum": 0.99}, "name": "batch_normalization_9", "class_name": "BatchNormalization"}, {"inbound_nodes": [[["batch_normalization_9", 0, 0, {}]]], "config": {"trainable": true, "alpha": 1.0, "name": "elu_9"}, "name": "elu_9", "class_name": "ELU"}, {"inbound_nodes": [[["elu_9", 0, 0, {}]]], "config": {"trainable": true, "alpha": 1.0, "name": "elu_10"}, "name": "elu_10", "class_name": "ELU"}, {"inbound_nodes": [[["elu_10", 0, 0, {}]]], "config": {"padding": "same", "kernel_initializer": {"config": {"distribution": "normal", "seed": null, "scale": 1.0, "mode": "fan_avg"}, "class_name": "VarianceScaling"}, "bias_regularizer": null, "trainable": true, "strides": [1, 1], "name": "conv2d_10", "activity_regularizer": null, "bias_initializer": {"config": {}, "class_name": "Zeros"}, "bias_constraint": null, "data_format": "channels_last", "dilation_rate": [1, 1], "kernel_size": [3, 3], "kernel_constraint": null, "filters": 64, "use_bias": true, "kernel_regularizer": {"config": {"l2": 0.0010000000474974513, "l1": 0.0}, "class_name": "L1L2"}, "activation": "linear"}, "name": "conv2d_10", "class_name": "Conv2D"}, {"inbound_nodes": [[["conv2d_10", 0, 0, {}]]], "config": {"gamma_initializer": {"config": {}, "class_name": "Ones"}, "gamma_constraint": null, "trainable": true, "scale": true, "gamma_regularizer": null, "beta_initializer": {"config": {}, "class_name": "Zeros"}, "beta_constraint": null, "name": "batch_normalization_10", "moving_mean_initializer": {"config": {}, "class_name": "Zeros"}, "axis": -1, "moving_variance_initializer": {"config": {}, "class_name": "Ones"}, "epsilon": 0.001, "beta_regularizer": null, "center": true, "momentum": 0.99}, "name": "batch_normalization_10", "class_name": "BatchNormalization"}, {"inbound_nodes": [[["batch_normalization_10", 0, 0, {}]]], "config": {"trainable": true, "alpha": 1.0, "name": "elu_11"}, "name": "elu_11", "class_name": "ELU"}, {"inbound_nodes": [[["elu_11", 0, 0, {}]]], "config": {"trainable": true, "name": "dropout_4", "rate": 0.5}, "name": "dropout_4", "class_name": "Dropout"}, {"inbound_nodes": [[["dropout_4", 0, 0, {}]]], "config": {"padding": "same", "kernel_initializer": {"config": {"distribution": "normal", "seed": null, "scale": 1.0, "mode": "fan_avg"}, "class_name": "VarianceScaling"}, "bias_regularizer": null, "trainable": true, "strides": [1, 1], "name": "conv2d_11", "activity_regularizer": null, "bias_initializer": {"config": {}, "class_name": "Zeros"}, "bias_constraint": null, "data_format": "channels_last", "dilation_rate": [1, 1], "kernel_size": [3, 3], "kernel_constraint": null, "filters": 64, "use_bias": true, "kernel_regularizer": {"config": {"l2": 0.0010000000474974513, "l1": 0.0}, "class_name": "L1L2"}, "activation": "linear"}, "name": "conv2d_11", "class_name": "Conv2D"}, {"inbound_nodes": [[["conv2d_11", 0, 0, {}], ["elu_10", 0, 0, {}]]], "config": {"name": "add_4", "trainable": true}, "name": "add_4", "class_name": "Add"}, {"inbound_nodes": [[["add_4", 0, 0, {}]]], "config": {"gamma_initializer": {"config": {}, "class_name": "Ones"}, "gamma_constraint": null, "trainable": true, "scale": true, "gamma_regularizer": null, "beta_initializer": {"config": {}, "class_name": "Zeros"}, "beta_constraint": null, "name": "batch_normalization_11", "moving_mean_initializer": {"config": {}, "class_name": "Zeros"}, "axis": -1, "moving_variance_initializer": {"config": {}, "class_name": "Ones"}, "epsilon": 0.001, "beta_regularizer": null, "center": true, "momentum": 0.99}, "name": "batch_normalization_11", "class_name": "BatchNormalization"}, {"inbound_nodes": [[["batch_normalization_11", 0, 0, {}]]], "config": {"trainable": true, "alpha": 1.0, "name": "elu_12"}, "name": "elu_12", "class_name": "ELU"}, {"inbound_nodes": [[["elu_12", 0, 0, {}]]], "config": {"padding": "same", "kernel_initializer": {"config": {"distribution": "normal", "seed": null, "scale": 1.0, "mode": "fan_avg"}, "class_name": "VarianceScaling"}, "bias_regularizer": null, "trainable": true, "strides": [1, 1], "name": "conv2d_12", "activity_regularizer": null, "bias_initializer": {"config": {}, "class_name": "Zeros"}, "bias_constraint": null, "data_format": "channels_last", "dilation_rate": [1, 1], "kernel_size": [3, 3], "kernel_constraint": null, "filters": 256, "use_bias": true, "kernel_regularizer": {"config": {"l2": 0.0010000000474974513, "l1": 0.0}, "class_name": "L1L2"}, "activation": "linear"}, "name": "conv2d_12", "class_name": "Conv2D"}, {"inbound_nodes": [[["conv2d_12", 0, 0, {}]]], "config": {"gamma_initializer": {"config": {}, "class_name": "Ones"}, "gamma_constraint": null, "trainable": true, "scale": true, "gamma_regularizer": null, "beta_initializer": {"config": {}, "class_name": "Zeros"}, "beta_constraint": null, "name": "batch_normalization_12", "moving_mean_initializer": {"config": {}, "class_name": "Zeros"}, "axis": -1, "moving_variance_initializer": {"config": {}, "class_name": "Ones"}, "epsilon": 0.001, "beta_regularizer": null, "center": true, "momentum": 0.99}, "name": "batch_normalization_12", "class_name": "BatchNormalization"}, {"inbound_nodes": [[["batch_normalization_12", 0, 0, {}]]], "config": {"trainable": true, "alpha": 1.0, "name": "elu_13"}, "name": "elu_13", "class_name": "ELU"}, {"inbound_nodes": [[["elu_13", 0, 0, {}]]], "config": {"padding": "valid", "data_format": "channels_last", "trainable": true, "strides": [2, 2], "pool_size": [4, 4], "name": "average_pooling2d_2"}, "name": "average_pooling2d_2", "class_name": "AveragePooling2D"}, {"inbound_nodes": [[["average_pooling2d_2", 0, 0, {}]]], "config": {"name": "flatten_1", "trainable": true}, "name": "flatten_1", "class_name": "Flatten"}, {"inbound_nodes": [[["flatten_1", 0, 0, {}]]], "config": {"bias_regularizer": null, "trainable": true, "name": "dense_1", "activity_regularizer": null, "use_bias": true, "bias_constraint": null, "kernel_initializer": {"config": {"distribution": "normal", "seed": null, "scale": 1.0, "mode": "fan_avg"}, "class_name": "VarianceScaling"}, "kernel_constraint": null, "units": 1164, "bias_initializer": {"config": {}, "class_name": "Zeros"}, "kernel_regularizer": {"config": {"l2": 0.0010000000474974513, "l1": 0.0}, "class_name": "L1L2"}, "activation": "elu"}, "name": "dense_1", "class_name": "Dense"}, {"inbound_nodes": [[["dense_1", 0, 0, {}]]], "config": {"bias_regularizer": null, "trainable": true, "name": "dense_2", "activity_regularizer": null, "use_bias": true, "bias_constraint": null, "kernel_initializer": {"config": {"distribution": "normal", "seed": null, "scale": 1.0, "mode": "fan_avg"}, "class_name": "VarianceScaling"}, "kernel_constraint": null, "units": 512, "bias_initializer": {"config": {}, "class_name": "Zeros"}, "kernel_regularizer": {"config": {"l2": 0.0010000000474974513, "l1": 0.0}, "class_name": "L1L2"}, "activation": "linear"}, "name": "dense_2", "class_name": "Dense"}, {"inbound_nodes": [[["dense_2", 0, 0, {}]]], "config": {"bias_regularizer": null, "trainable": true, "name": "dense_3", "activity_regularizer": null, "use_bias": true, "bias_constraint": null, "kernel_initializer": {"config": {"distribution": "normal", "seed": null, "scale": 1.0, "mode": "fan_avg"}, "class_name": "VarianceScaling"}, "kernel_constraint": null, "units": 100, "bias_initializer": {"config": {}, "class_name": "Zeros"}, "kernel_regularizer": {"config": {"l2": 0.0010000000474974513, "l1": 0.0}, "class_name": "L1L2"}, "activation": "linear"}, "name": "dense_3", "class_name": "Dense"}, {"inbound_nodes": [[["dense_3", 0, 0, {}]]], "config": {"bias_regularizer": null, "trainable": true, "name": "dense_4", "activity_regularizer": null, "use_bias": true, "bias_constraint": null, "kernel_initializer": {"config": {"distribution": "normal", "seed": null, "scale": 1.0, "mode": "fan_avg"}, "class_name": "VarianceScaling"}, "kernel_constraint": null, "units": 50, "bias_initializer": {"config": {}, "class_name": "Zeros"}, "kernel_regularizer": {"config": {"l2": 0.0010000000474974513, "l1": 0.0}, "class_name": "L1L2"}, "activation": "linear"}, "name": "dense_4", "class_name": "Dense"}, {"inbound_nodes": [[["dense_4", 0, 0, {}]]], "config": {"bias_regularizer": null, "trainable": true, "name": "dense_5", "activity_regularizer": null, "use_bias": true, "bias_constraint": null, "kernel_initializer": {"config": {"distribution": "uniform", "seed": null, "scale": 1.0, "mode": "fan_avg"}, "class_name": "VarianceScaling"}, "kernel_constraint": null, "units": 1, "bias_initializer": {"config": {}, "class_name": "Zeros"}, "kernel_regularizer": null, "activation": "tanh"}, "name": "dense_5", "class_name": "Dense"}, {"inbound_nodes": [[["dense_5", 0, 0, {}]]], "config": {"bias_regularizer": null, "trainable": true, "name": "steering_output", "activity_regularizer": null, "use_bias": true, "bias_constraint": null, "kernel_initializer": {"config": {"distribution": "uniform", "seed": null, "scale": 1.0, "mode": "fan_avg"}, "class_name": "VarianceScaling"}, "kernel_constraint": null, "units": 1, "bias_initializer": {"config": {}, "class_name": "Zeros"}, "kernel_regularizer": null, "activation": "linear"}, "name": "steering_output", "class_name": "Dense"}]}, "keras_version": "2.0.2", "backend": "tensorflow", "class_name": "Model"}