{"config": {"input_layers": [["images", 0, 0]], "layers": [{"config": {"batch_input_shape": [null, 80, 80, 3], "name": "images", "dtype": "float32", "sparse": false}, "name": "images", "class_name": "InputLayer", "inbound_nodes": []}, {"config": {"trainable": true, "arguments": {}, "function_type": "lambda", "function": ["\u00e3\u0001\u0000\u0000\u0000\u0000\u0000\u0000\u0000\u0001\u0000\u0000\u0000\u0002\u0000\u0000\u0000S\u0000\u0000\u0000s\f\u0000\u0000\u0000|\u0000\u0000d\u0001\u0000\u001bd\u0002\u0000\u0018S)\u0003Ng\u0000\u0000\u0000\u0000\u0000\u00e0_@g\u0000\u0000\u0000\u0000\u0000\u0000\u00f0?\u00a9\u0000)\u0001\u00da\u0001xr\u0001\u0000\u0000\u0000r\u0001\u0000\u0000\u0000\u00fa\bmodel.py\u00da\b<lambda>+\u0001\u0000\u0000\u00f3\u0000\u0000\u0000\u0000", null, null], "output_shape_type": "raw", "name": "lambda_1", "output_shape": null}, "name": "lambda_1", "class_name": "Lambda", "inbound_nodes": [[["images", 0, 0, {}]]]}, {"config": {"kernel_constraint": {"config": {"axis": 0, "max_value": 2.0}, "class_name": "MaxNorm"}, "kernel_initializer": {"config": {"scale": 1.0, "distribution": "normal", "seed": null, "mode": "fan_avg"}, "class_name": "VarianceScaling"}, "bias_initializer": {"config": {}, "class_name": "Zeros"}, "bias_constraint": null, "dilation_rate": [1, 1], "activity_regularizer": null, "strides": [2, 2], "kernel_size": [5, 5], "bias_regularizer": null, "trainable": true, "padding": "same", "activation": "linear", "kernel_regularizer": null, "use_bias": true, "filters": 32, "name": "conv2d_1", "data_format": "channels_last"}, "name": "conv2d_1", "class_name": "Conv2D", "inbound_nodes": [[["lambda_1", 0, 0, {}]]]}, {"config": {"moving_variance_initializer": {"config": {}, "class_name": "Ones"}, "gamma_initializer": {"config": {}, "class_name": "Ones"}, "beta_constraint": null, "name": "batch_normalization_1", "epsilon": 0.001, "gamma_constraint": null, "beta_initializer": {"config": {}, "class_name": "Zeros"}, "trainable": true, "scale": true, "momentum": 0.99, "moving_mean_initializer": {"config": {}, "class_name": "Zeros"}, "beta_regularizer": null, "axis": -1, "gamma_regularizer": null, "center": true}, "name": "batch_normalization_1", "class_name": "BatchNormalization", "inbound_nodes": [[["conv2d_1", 0, 0, {}]]]}, {"config": {"trainable": true, "name": "elu_1", "alpha": 1.0}, "name": "elu_1", "class_name": "ELU", "inbound_nodes": [[["batch_normalization_1", 0, 0, {}]]]}, {"config": {"kernel_constraint": {"config": {"axis": 0, "max_value": 2.0}, "class_name": "MaxNorm"}, "kernel_initializer": {"config": {"scale": 1.0, "distribution": "normal", "seed": null, "mode": "fan_avg"}, "class_name": "VarianceScaling"}, "bias_initializer": {"config": {}, "class_name": "Zeros"}, "bias_constraint": null, "dilation_rate": [1, 1], "activity_regularizer": null, "strides": [2, 2], "kernel_size": [5, 5], "bias_regularizer": null, "trainable": true, "padding": "same", "activation": "linear", "kernel_regularizer": null, "use_bias": true, "filters": 32, "name": "conv2d_2", "data_format": "channels_last"}, "name": "conv2d_2", "class_name": "Conv2D", "inbound_nodes": [[["elu_1", 0, 0, {}]]]}, {"config": {"moving_variance_initializer": {"config": {}, "class_name": "Ones"}, "gamma_initializer": {"config": {}, "class_name": "Ones"}, "beta_constraint": null, "name": "batch_normalization_2", "epsilon": 0.001, "gamma_constraint": null, "beta_initializer": {"config": {}, "class_name": "Zeros"}, "trainable": true, "scale": true, "momentum": 0.99, "moving_mean_initializer": {"config": {}, "class_name": "Zeros"}, "beta_regularizer": null, "axis": -1, "gamma_regularizer": null, "center": true}, "name": "batch_normalization_2", "class_name": "BatchNormalization", "inbound_nodes": [[["conv2d_2", 0, 0, {}]]]}, {"config": {"trainable": true, "name": "elu_2", "alpha": 1.0}, "name": "elu_2", "class_name": "ELU", "inbound_nodes": [[["batch_normalization_2", 0, 0, {}]]]}, {"config": {"trainable": true, "padding": "same", "pool_size": [4, 4], "name": "average_pooling2d_1", "data_format": "channels_last", "strides": [2, 2]}, "name": "average_pooling2d_1", "class_name": "AveragePooling2D", "inbound_nodes": [[["elu_2", 0, 0, {}]]]}, {"config": {"kernel_constraint": {"config": {"axis": 0, "max_value": 2.0}, "class_name": "MaxNorm"}, "kernel_initializer": {"config": {"scale": 1.0, "distribution": "normal", "seed": null, "mode": "fan_avg"}, "class_name": "VarianceScaling"}, "bias_initializer": {"config": {}, "class_name": "Zeros"}, "bias_constraint": null, "dilation_rate": [1, 1], "activity_regularizer": null, "strides": [1, 1], "kernel_size": [5, 5], "bias_regularizer": null, "trainable": true, "padding": "same", "activation": "linear", "kernel_regularizer": null, "use_bias": true, "filters": 32, "name": "conv2d_3", "data_format": "channels_last"}, "name": "conv2d_3", "class_name": "Conv2D", "inbound_nodes": [[["average_pooling2d_1", 0, 0, {}]]]}, {"config": {"moving_variance_initializer": {"config": {}, "class_name": "Ones"}, "gamma_initializer": {"config": {}, "class_name": "Ones"}, "beta_constraint": null, "name": "batch_normalization_3", "epsilon": 0.001, "gamma_constraint": null, "beta_initializer": {"config": {}, "class_name": "Zeros"}, "trainable": true, "scale": true, "momentum": 0.99, "moving_mean_initializer": {"config": {}, "class_name": "Zeros"}, "beta_regularizer": null, "axis": -1, "gamma_regularizer": null, "center": true}, "name": "batch_normalization_3", "class_name": "BatchNormalization", "inbound_nodes": [[["conv2d_3", 0, 0, {}]]]}, {"config": {"trainable": true, "name": "elu_3", "alpha": 1.0}, "name": "elu_3", "class_name": "ELU", "inbound_nodes": [[["batch_normalization_3", 0, 0, {}]]]}, {"config": {"trainable": true, "rate": 0.5, "name": "dropout_1"}, "name": "dropout_1", "class_name": "Dropout", "inbound_nodes": [[["elu_3", 0, 0, {}]]]}, {"config": {"kernel_constraint": {"config": {"axis": 0, "max_value": 2.0}, "class_name": "MaxNorm"}, "kernel_initializer": {"config": {"scale": 1.0, "distribution": "normal", "seed": null, "mode": "fan_avg"}, "class_name": "VarianceScaling"}, "bias_initializer": {"config": {}, "class_name": "Zeros"}, "bias_constraint": null, "dilation_rate": [1, 1], "activity_regularizer": null, "strides": [1, 1], "kernel_size": [5, 5], "bias_regularizer": null, "trainable": true, "padding": "same", "activation": "linear", "kernel_regularizer": null, "use_bias": true, "filters": 32, "name": "conv2d_4", "data_format": "channels_last"}, "name": "conv2d_4", "class_name": "Conv2D", "inbound_nodes": [[["dropout_1", 0, 0, {}]]]}, {"config": {"trainable": true, "name": "add_1"}, "name": "add_1", "class_name": "Add", "inbound_nodes": [[["conv2d_4", 0, 0, {}], ["average_pooling2d_1", 0, 0, {}]]]}, {"config": {"moving_variance_initializer": {"config": {}, "class_name": "Ones"}, "gamma_initializer": {"config": {}, "class_name": "Ones"}, "beta_constraint": null, "name": "batch_normalization_4", "epsilon": 0.001, "gamma_constraint": null, "beta_initializer": {"config": {}, "class_name": "Zeros"}, "trainable": true, "scale": true, "momentum": 0.99, "moving_mean_initializer": {"config": {}, "class_name": "Zeros"}, "beta_regularizer": null, "axis": -1, "gamma_regularizer": null, "center": true}, "name": "batch_normalization_4", "class_name": "BatchNormalization", "inbound_nodes": [[["add_1", 0, 0, {}]]]}, {"config": {"trainable": true, "name": "elu_4", "alpha": 1.0}, "name": "elu_4", "class_name": "ELU", "inbound_nodes": [[["batch_normalization_4", 0, 0, {}]]]}, {"config": {"kernel_constraint": {"config": {"axis": 0, "max_value": 2.0}, "class_name": "MaxNorm"}, "kernel_initializer": {"config": {"scale": 1.0, "distribution": "normal", "seed": null, "mode": "fan_avg"}, "class_name": "VarianceScaling"}, "bias_initializer": {"config": {}, "class_name": "Zeros"}, "bias_constraint": null, "dilation_rate": [1, 1], "activity_regularizer": null, "strides": [1, 1], "kernel_size": [5, 5], "bias_regularizer": null, "trainable": true, "padding": "same", "activation": "linear", "kernel_regularizer": null, "use_bias": true, "filters": 32, "name": "conv2d_5", "data_format": "channels_last"}, "name": "conv2d_5", "class_name": "Conv2D", "inbound_nodes": [[["elu_4", 0, 0, {}]]]}, {"config": {"moving_variance_initializer": {"config": {}, "class_name": "Ones"}, "gamma_initializer": {"config": {}, "class_name": "Ones"}, "beta_constraint": null, "name": "batch_normalization_5", "epsilon": 0.001, "gamma_constraint": null, "beta_initializer": {"config": {}, "class_name": "Zeros"}, "trainable": true, "scale": true, "momentum": 0.99, "moving_mean_initializer": {"config": {}, "class_name": "Zeros"}, "beta_regularizer": null, "axis": -1, "gamma_regularizer": null, "center": true}, "name": "batch_normalization_5", "class_name": "BatchNormalization", "inbound_nodes": [[["conv2d_5", 0, 0, {}]]]}, {"config": {"trainable": true, "name": "elu_5", "alpha": 1.0}, "name": "elu_5", "class_name": "ELU", "inbound_nodes": [[["batch_normalization_5", 0, 0, {}]]]}, {"config": {"trainable": true, "rate": 0.5, "name": "dropout_2"}, "name": "dropout_2", "class_name": "Dropout", "inbound_nodes": [[["elu_5", 0, 0, {}]]]}, {"config": {"kernel_constraint": {"config": {"axis": 0, "max_value": 2.0}, "class_name": "MaxNorm"}, "kernel_initializer": {"config": {"scale": 1.0, "distribution": "normal", "seed": null, "mode": "fan_avg"}, "class_name": "VarianceScaling"}, "bias_initializer": {"config": {}, "class_name": "Zeros"}, "bias_constraint": null, "dilation_rate": [1, 1], "activity_regularizer": null, "strides": [1, 1], "kernel_size": [5, 5], "bias_regularizer": null, "trainable": true, "padding": "same", "activation": "linear", "kernel_regularizer": null, "use_bias": true, "filters": 32, "name": "conv2d_6", "data_format": "channels_last"}, "name": "conv2d_6", "class_name": "Conv2D", "inbound_nodes": [[["dropout_2", 0, 0, {}]]]}, {"config": {"trainable": true, "name": "add_2"}, "name": "add_2", "class_name": "Add", "inbound_nodes": [[["conv2d_6", 0, 0, {}], ["elu_4", 0, 0, {}]]]}, {"config": {"moving_variance_initializer": {"config": {}, "class_name": "Ones"}, "gamma_initializer": {"config": {}, "class_name": "Ones"}, "beta_constraint": null, "name": "batch_normalization_6", "epsilon": 0.001, "gamma_constraint": null, "beta_initializer": {"config": {}, "class_name": "Zeros"}, "trainable": true, "scale": true, "momentum": 0.99, "moving_mean_initializer": {"config": {}, "class_name": "Zeros"}, "beta_regularizer": null, "axis": -1, "gamma_regularizer": null, "center": true}, "name": "batch_normalization_6", "class_name": "BatchNormalization", "inbound_nodes": [[["add_2", 0, 0, {}]]]}, {"config": {"trainable": true, "name": "elu_6", "alpha": 1.0}, "name": "elu_6", "class_name": "ELU", "inbound_nodes": [[["batch_normalization_6", 0, 0, {}]]]}, {"config": {"kernel_constraint": {"config": {"axis": 0, "max_value": 2.0}, "class_name": "MaxNorm"}, "kernel_initializer": {"config": {"scale": 1.0, "distribution": "normal", "seed": null, "mode": "fan_avg"}, "class_name": "VarianceScaling"}, "bias_initializer": {"config": {}, "class_name": "Zeros"}, "bias_constraint": null, "dilation_rate": [1, 1], "activity_regularizer": null, "strides": [1, 1], "kernel_size": [5, 5], "bias_regularizer": null, "trainable": true, "padding": "same", "activation": "linear", "kernel_regularizer": null, "use_bias": true, "filters": 64, "name": "conv2d_7", "data_format": "channels_last"}, "name": "conv2d_7", "class_name": "Conv2D", "inbound_nodes": [[["elu_6", 0, 0, {}]]]}, {"config": {"moving_variance_initializer": {"config": {}, "class_name": "Ones"}, "gamma_initializer": {"config": {}, "class_name": "Ones"}, "beta_constraint": null, "name": "batch_normalization_7", "epsilon": 0.001, "gamma_constraint": null, "beta_initializer": {"config": {}, "class_name": "Zeros"}, "trainable": true, "scale": true, "momentum": 0.99, "moving_mean_initializer": {"config": {}, "class_name": "Zeros"}, "beta_regularizer": null, "axis": -1, "gamma_regularizer": null, "center": true}, "name": "batch_normalization_7", "class_name": "BatchNormalization", "inbound_nodes": [[["conv2d_7", 0, 0, {}]]]}, {"config": {"trainable": true, "name": "elu_7", "alpha": 1.0}, "name": "elu_7", "class_name": "ELU", "inbound_nodes": [[["batch_normalization_7", 0, 0, {}]]]}, {"config": {"kernel_constraint": {"config": {"axis": 0, "max_value": 2.0}, "class_name": "MaxNorm"}, "kernel_initializer": {"config": {"scale": 1.0, "distribution": "normal", "seed": null, "mode": "fan_avg"}, "class_name": "VarianceScaling"}, "bias_initializer": {"config": {}, "class_name": "Zeros"}, "bias_constraint": null, "dilation_rate": [1, 1], "activity_regularizer": null, "strides": [1, 1], "kernel_size": [3, 3], "bias_regularizer": null, "trainable": true, "padding": "same", "activation": "linear", "kernel_regularizer": null, "use_bias": true, "filters": 64, "name": "conv2d_8", "data_format": "channels_last"}, "name": "conv2d_8", "class_name": "Conv2D", "inbound_nodes": [[["elu_7", 0, 0, {}]]]}, {"config": {"moving_variance_initializer": {"config": {}, "class_name": "Ones"}, "gamma_initializer": {"config": {}, "class_name": "Ones"}, "beta_constraint": null, "name": "batch_normalization_8", "epsilon": 0.001, "gamma_constraint": null, "beta_initializer": {"config": {}, "class_name": "Zeros"}, "trainable": true, "scale": true, "momentum": 0.99, "moving_mean_initializer": {"config": {}, "class_name": "Zeros"}, "beta_regularizer": null, "axis": -1, "gamma_regularizer": null, "center": true}, "name": "batch_normalization_8", "class_name": "BatchNormalization", "inbound_nodes": [[["conv2d_8", 0, 0, {}]]]}, {"config": {"trainable": true, "name": "elu_8", "alpha": 1.0}, "name": "elu_8", "class_name": "ELU", "inbound_nodes": [[["batch_normalization_8", 0, 0, {}]]]}, {"config": {"trainable": true, "rate": 0.5, "name": "dropout_3"}, "name": "dropout_3", "class_name": "Dropout", "inbound_nodes": [[["elu_8", 0, 0, {}]]]}, {"config": {"kernel_constraint": {"config": {"axis": 0, "max_value": 2.0}, "class_name": "MaxNorm"}, "kernel_initializer": {"config": {"scale": 1.0, "distribution": "normal", "seed": null, "mode": "fan_avg"}, "class_name": "VarianceScaling"}, "bias_initializer": {"config": {}, "class_name": "Zeros"}, "bias_constraint": null, "dilation_rate": [1, 1], "activity_regularizer": null, "strides": [1, 1], "kernel_size": [3, 3], "bias_regularizer": null, "trainable": true, "padding": "same", "activation": "linear", "kernel_regularizer": null, "use_bias": true, "filters": 64, "name": "conv2d_9", "data_format": "channels_last"}, "name": "conv2d_9", "class_name": "Conv2D", "inbound_nodes": [[["dropout_3", 0, 0, {}]]]}, {"config": {"trainable": true, "name": "add_3"}, "name": "add_3", "class_name": "Add", "inbound_nodes": [[["conv2d_9", 0, 0, {}], ["elu_7", 0, 0, {}]]]}, {"config": {"moving_variance_initializer": {"config": {}, "class_name": "Ones"}, "gamma_initializer": {"config": {}, "class_name": "Ones"}, "beta_constraint": null, "name": "batch_normalization_9", "epsilon": 0.001, "gamma_constraint": null, "beta_initializer": {"config": {}, "class_name": "Zeros"}, "trainable": true, "scale": true, "momentum": 0.99, "moving_mean_initializer": {"config": {}, "class_name": "Zeros"}, "beta_regularizer": null, "axis": -1, "gamma_regularizer": null, "center": true}, "name": "batch_normalization_9", "class_name": "BatchNormalization", "inbound_nodes": [[["add_3", 0, 0, {}]]]}, {"config": {"trainable": true, "name": "elu_9", "alpha": 1.0}, "name": "elu_9", "class_name": "ELU", "inbound_nodes": [[["batch_normalization_9", 0, 0, {}]]]}, {"config": {"trainable": true, "name": "elu_10", "alpha": 1.0}, "name": "elu_10", "class_name": "ELU", "inbound_nodes": [[["elu_9", 0, 0, {}]]]}, {"config": {"kernel_constraint": {"config": {"axis": 0, "max_value": 2.0}, "class_name": "MaxNorm"}, "kernel_initializer": {"config": {"scale": 1.0, "distribution": "normal", "seed": null, "mode": "fan_avg"}, "class_name": "VarianceScaling"}, "bias_initializer": {"config": {}, "class_name": "Zeros"}, "bias_constraint": null, "dilation_rate": [1, 1], "activity_regularizer": null, "strides": [1, 1], "kernel_size": [3, 3], "bias_regularizer": null, "trainable": true, "padding": "same", "activation": "linear", "kernel_regularizer": null, "use_bias": true, "filters": 64, "name": "conv2d_10", "data_format": "channels_last"}, "name": "conv2d_10", "class_name": "Conv2D", "inbound_nodes": [[["elu_10", 0, 0, {}]]]}, {"config": {"moving_variance_initializer": {"config": {}, "class_name": "Ones"}, "gamma_initializer": {"config": {}, "class_name": "Ones"}, "beta_constraint": null, "name": "batch_normalization_10", "epsilon": 0.001, "gamma_constraint": null, "beta_initializer": {"config": {}, "class_name": "Zeros"}, "trainable": true, "scale": true, "momentum": 0.99, "moving_mean_initializer": {"config": {}, "class_name": "Zeros"}, "beta_regularizer": null, "axis": -1, "gamma_regularizer": null, "center": true}, "name": "batch_normalization_10", "class_name": "BatchNormalization", "inbound_nodes": [[["conv2d_10", 0, 0, {}]]]}, {"config": {"trainable": true, "name": "elu_11", "alpha": 1.0}, "name": "elu_11", "class_name": "ELU", "inbound_nodes": [[["batch_normalization_10", 0, 0, {}]]]}, {"config": {"trainable": true, "rate": 0.5, "name": "dropout_4"}, "name": "dropout_4", "class_name": "Dropout", "inbound_nodes": [[["elu_11", 0, 0, {}]]]}, {"config": {"kernel_constraint": {"config": {"axis": 0, "max_value": 2.0}, "class_name": "MaxNorm"}, "kernel_initializer": {"config": {"scale": 1.0, "distribution": "normal", "seed": null, "mode": "fan_avg"}, "class_name": "VarianceScaling"}, "bias_initializer": {"config": {}, "class_name": "Zeros"}, "bias_constraint": null, "dilation_rate": [1, 1], "activity_regularizer": null, "strides": [1, 1], "kernel_size": [3, 3], "bias_regularizer": null, "trainable": true, "padding": "same", "activation": "linear", "kernel_regularizer": null, "use_bias": true, "filters": 64, "name": "conv2d_11", "data_format": "channels_last"}, "name": "conv2d_11", "class_name": "Conv2D", "inbound_nodes": [[["dropout_4", 0, 0, {}]]]}, {"config": {"trainable": true, "name": "add_4"}, "name": "add_4", "class_name": "Add", "inbound_nodes": [[["conv2d_11", 0, 0, {}], ["elu_10", 0, 0, {}]]]}, {"config": {"moving_variance_initializer": {"config": {}, "class_name": "Ones"}, "gamma_initializer": {"config": {}, "class_name": "Ones"}, "beta_constraint": null, "name": "batch_normalization_11", "epsilon": 0.001, "gamma_constraint": null, "beta_initializer": {"config": {}, "class_name": "Zeros"}, "trainable": true, "scale": true, "momentum": 0.99, "moving_mean_initializer": {"config": {}, "class_name": "Zeros"}, "beta_regularizer": null, "axis": -1, "gamma_regularizer": null, "center": true}, "name": "batch_normalization_11", "class_name": "BatchNormalization", "inbound_nodes": [[["add_4", 0, 0, {}]]]}, {"config": {"trainable": true, "name": "elu_12", "alpha": 1.0}, "name": "elu_12", "class_name": "ELU", "inbound_nodes": [[["batch_normalization_11", 0, 0, {}]]]}, {"config": {"kernel_constraint": {"config": {"axis": 0, "max_value": 2.0}, "class_name": "MaxNorm"}, "kernel_initializer": {"config": {"scale": 1.0, "distribution": "normal", "seed": null, "mode": "fan_avg"}, "class_name": "VarianceScaling"}, "bias_initializer": {"config": {}, "class_name": "Zeros"}, "bias_constraint": null, "dilation_rate": [1, 1], "activity_regularizer": null, "strides": [1, 1], "kernel_size": [3, 3], "bias_regularizer": null, "trainable": true, "padding": "same", "activation": "linear", "kernel_regularizer": null, "use_bias": true, "filters": 64, "name": "conv2d_12", "data_format": "channels_last"}, "name": "conv2d_12", "class_name": "Conv2D", "inbound_nodes": [[["elu_12", 0, 0, {}]]]}, {"config": {"moving_variance_initializer": {"config": {}, "class_name": "Ones"}, "gamma_initializer": {"config": {}, "class_name": "Ones"}, "beta_constraint": null, "name": "batch_normalization_12", "epsilon": 0.001, "gamma_constraint": null, "beta_initializer": {"config": {}, "class_name": "Zeros"}, "trainable": true, "scale": true, "momentum": 0.99, "moving_mean_initializer": {"config": {}, "class_name": "Zeros"}, "beta_regularizer": null, "axis": -1, "gamma_regularizer": null, "center": true}, "name": "batch_normalization_12", "class_name": "BatchNormalization", "inbound_nodes": [[["conv2d_12", 0, 0, {}]]]}, {"config": {"trainable": true, "name": "elu_13", "alpha": 1.0}, "name": "elu_13", "class_name": "ELU", "inbound_nodes": [[["batch_normalization_12", 0, 0, {}]]]}, {"config": {"trainable": true, "rate": 0.5, "name": "dropout_5"}, "name": "dropout_5", "class_name": "Dropout", "inbound_nodes": [[["elu_13", 0, 0, {}]]]}, {"config": {"kernel_constraint": {"config": {"axis": 0, "max_value": 2.0}, "class_name": "MaxNorm"}, "kernel_initializer": {"config": {"scale": 1.0, "distribution": "normal", "seed": null, "mode": "fan_avg"}, "class_name": "VarianceScaling"}, "bias_initializer": {"config": {}, "class_name": "Zeros"}, "bias_constraint": null, "dilation_rate": [1, 1], "activity_regularizer": null, "strides": [1, 1], "kernel_size": [3, 3], "bias_regularizer": null, "trainable": true, "padding": "same", "activation": "linear", "kernel_regularizer": null, "use_bias": true, "filters": 64, "name": "conv2d_13", "data_format": "channels_last"}, "name": "conv2d_13", "class_name": "Conv2D", "inbound_nodes": [[["dropout_5", 0, 0, {}]]]}, {"config": {"trainable": true, "name": "add_5"}, "name": "add_5", "class_name": "Add", "inbound_nodes": [[["conv2d_13", 0, 0, {}], ["elu_12", 0, 0, {}]]]}, {"config": {"moving_variance_initializer": {"config": {}, "class_name": "Ones"}, "gamma_initializer": {"config": {}, "class_name": "Ones"}, "beta_constraint": null, "name": "batch_normalization_13", "epsilon": 0.001, "gamma_constraint": null, "beta_initializer": {"config": {}, "class_name": "Zeros"}, "trainable": true, "scale": true, "momentum": 0.99, "moving_mean_initializer": {"config": {}, "class_name": "Zeros"}, "beta_regularizer": null, "axis": -1, "gamma_regularizer": null, "center": true}, "name": "batch_normalization_13", "class_name": "BatchNormalization", "inbound_nodes": [[["add_5", 0, 0, {}]]]}, {"config": {"trainable": true, "name": "elu_14", "alpha": 1.0}, "name": "elu_14", "class_name": "ELU", "inbound_nodes": [[["batch_normalization_13", 0, 0, {}]]]}, {"config": {"kernel_constraint": {"config": {"axis": 0, "max_value": 2.0}, "class_name": "MaxNorm"}, "kernel_initializer": {"config": {"scale": 1.0, "distribution": "normal", "seed": null, "mode": "fan_avg"}, "class_name": "VarianceScaling"}, "bias_initializer": {"config": {}, "class_name": "Zeros"}, "bias_constraint": null, "dilation_rate": [1, 1], "activity_regularizer": null, "strides": [1, 1], "kernel_size": [3, 3], "bias_regularizer": null, "trainable": true, "padding": "same", "activation": "linear", "kernel_regularizer": null, "use_bias": true, "filters": 64, "name": "conv2d_14", "data_format": "channels_last"}, "name": "conv2d_14", "class_name": "Conv2D", "inbound_nodes": [[["elu_14", 0, 0, {}]]]}, {"config": {"moving_variance_initializer": {"config": {}, "class_name": "Ones"}, "gamma_initializer": {"config": {}, "class_name": "Ones"}, "beta_constraint": null, "name": "batch_normalization_14", "epsilon": 0.001, "gamma_constraint": null, "beta_initializer": {"config": {}, "class_name": "Zeros"}, "trainable": true, "scale": true, "momentum": 0.99, "moving_mean_initializer": {"config": {}, "class_name": "Zeros"}, "beta_regularizer": null, "axis": -1, "gamma_regularizer": null, "center": true}, "name": "batch_normalization_14", "class_name": "BatchNormalization", "inbound_nodes": [[["conv2d_14", 0, 0, {}]]]}, {"config": {"trainable": true, "name": "elu_15", "alpha": 1.0}, "name": "elu_15", "class_name": "ELU", "inbound_nodes": [[["batch_normalization_14", 0, 0, {}]]]}, {"config": {"trainable": true, "rate": 0.5, "name": "dropout_6"}, "name": "dropout_6", "class_name": "Dropout", "inbound_nodes": [[["elu_15", 0, 0, {}]]]}, {"config": {"kernel_constraint": {"config": {"axis": 0, "max_value": 2.0}, "class_name": "MaxNorm"}, "kernel_initializer": {"config": {"scale": 1.0, "distribution": "normal", "seed": null, "mode": "fan_avg"}, "class_name": "VarianceScaling"}, "bias_initializer": {"config": {}, "class_name": "Zeros"}, "bias_constraint": null, "dilation_rate": [1, 1], "activity_regularizer": null, "strides": [1, 1], "kernel_size": [3, 3], "bias_regularizer": null, "trainable": true, "padding": "same", "activation": "linear", "kernel_regularizer": null, "use_bias": true, "filters": 64, "name": "conv2d_15", "data_format": "channels_last"}, "name": "conv2d_15", "class_name": "Conv2D", "inbound_nodes": [[["dropout_6", 0, 0, {}]]]}, {"config": {"trainable": true, "name": "add_6"}, "name": "add_6", "class_name": "Add", "inbound_nodes": [[["conv2d_15", 0, 0, {}], ["elu_14", 0, 0, {}]]]}, {"config": {"moving_variance_initializer": {"config": {}, "class_name": "Ones"}, "gamma_initializer": {"config": {}, "class_name": "Ones"}, "beta_constraint": null, "name": "batch_normalization_15", "epsilon": 0.001, "gamma_constraint": null, "beta_initializer": {"config": {}, "class_name": "Zeros"}, "trainable": true, "scale": true, "momentum": 0.99, "moving_mean_initializer": {"config": {}, "class_name": "Zeros"}, "beta_regularizer": null, "axis": -1, "gamma_regularizer": null, "center": true}, "name": "batch_normalization_15", "class_name": "BatchNormalization", "inbound_nodes": [[["add_6", 0, 0, {}]]]}, {"config": {"trainable": true, "name": "elu_16", "alpha": 1.0}, "name": "elu_16", "class_name": "ELU", "inbound_nodes": [[["batch_normalization_15", 0, 0, {}]]]}, {"config": {"kernel_constraint": {"config": {"axis": 0, "max_value": 2.0}, "class_name": "MaxNorm"}, "kernel_initializer": {"config": {"scale": 1.0, "distribution": "normal", "seed": null, "mode": "fan_avg"}, "class_name": "VarianceScaling"}, "bias_initializer": {"config": {}, "class_name": "Zeros"}, "bias_constraint": null, "dilation_rate": [1, 1], "activity_regularizer": null, "strides": [1, 1], "kernel_size": [3, 3], "bias_regularizer": null, "trainable": true, "padding": "same", "activation": "linear", "kernel_regularizer": null, "use_bias": true, "filters": 64, "name": "conv2d_16", "data_format": "channels_last"}, "name": "conv2d_16", "class_name": "Conv2D", "inbound_nodes": [[["elu_16", 0, 0, {}]]]}, {"config": {"moving_variance_initializer": {"config": {}, "class_name": "Ones"}, "gamma_initializer": {"config": {}, "class_name": "Ones"}, "beta_constraint": null, "name": "batch_normalization_16", "epsilon": 0.001, "gamma_constraint": null, "beta_initializer": {"config": {}, "class_name": "Zeros"}, "trainable": true, "scale": true, "momentum": 0.99, "moving_mean_initializer": {"config": {}, "class_name": "Zeros"}, "beta_regularizer": null, "axis": -1, "gamma_regularizer": null, "center": true}, "name": "batch_normalization_16", "class_name": "BatchNormalization", "inbound_nodes": [[["conv2d_16", 0, 0, {}]]]}, {"config": {"trainable": true, "name": "elu_17", "alpha": 1.0}, "name": "elu_17", "class_name": "ELU", "inbound_nodes": [[["batch_normalization_16", 0, 0, {}]]]}, {"config": {"trainable": true, "rate": 0.5, "name": "dropout_7"}, "name": "dropout_7", "class_name": "Dropout", "inbound_nodes": [[["elu_17", 0, 0, {}]]]}, {"config": {"kernel_constraint": {"config": {"axis": 0, "max_value": 2.0}, "class_name": "MaxNorm"}, "kernel_initializer": {"config": {"scale": 1.0, "distribution": "normal", "seed": null, "mode": "fan_avg"}, "class_name": "VarianceScaling"}, "bias_initializer": {"config": {}, "class_name": "Zeros"}, "bias_constraint": null, "dilation_rate": [1, 1], "activity_regularizer": null, "strides": [1, 1], "kernel_size": [3, 3], "bias_regularizer": null, "trainable": true, "padding": "same", "activation": "linear", "kernel_regularizer": null, "use_bias": true, "filters": 64, "name": "conv2d_17", "data_format": "channels_last"}, "name": "conv2d_17", "class_name": "Conv2D", "inbound_nodes": [[["dropout_7", 0, 0, {}]]]}, {"config": {"trainable": true, "name": "add_7"}, "name": "add_7", "class_name": "Add", "inbound_nodes": [[["conv2d_17", 0, 0, {}], ["elu_16", 0, 0, {}]]]}, {"config": {"moving_variance_initializer": {"config": {}, "class_name": "Ones"}, "gamma_initializer": {"config": {}, "class_name": "Ones"}, "beta_constraint": null, "name": "batch_normalization_17", "epsilon": 0.001, "gamma_constraint": null, "beta_initializer": {"config": {}, "class_name": "Zeros"}, "trainable": true, "scale": true, "momentum": 0.99, "moving_mean_initializer": {"config": {}, "class_name": "Zeros"}, "beta_regularizer": null, "axis": -1, "gamma_regularizer": null, "center": true}, "name": "batch_normalization_17", "class_name": "BatchNormalization", "inbound_nodes": [[["add_7", 0, 0, {}]]]}, {"config": {"trainable": true, "name": "elu_18", "alpha": 1.0}, "name": "elu_18", "class_name": "ELU", "inbound_nodes": [[["batch_normalization_17", 0, 0, {}]]]}, {"config": {"kernel_constraint": {"config": {"axis": 0, "max_value": 2.0}, "class_name": "MaxNorm"}, "kernel_initializer": {"config": {"scale": 1.0, "distribution": "normal", "seed": null, "mode": "fan_avg"}, "class_name": "VarianceScaling"}, "bias_initializer": {"config": {}, "class_name": "Zeros"}, "bias_constraint": null, "dilation_rate": [1, 1], "activity_regularizer": null, "strides": [1, 1], "kernel_size": [3, 3], "bias_regularizer": null, "trainable": true, "padding": "same", "activation": "linear", "kernel_regularizer": null, "use_bias": true, "filters": 64, "name": "conv2d_18", "data_format": "channels_last"}, "name": "conv2d_18", "class_name": "Conv2D", "inbound_nodes": [[["elu_18", 0, 0, {}]]]}, {"config": {"moving_variance_initializer": {"config": {}, "class_name": "Ones"}, "gamma_initializer": {"config": {}, "class_name": "Ones"}, "beta_constraint": null, "name": "batch_normalization_18", "epsilon": 0.001, "gamma_constraint": null, "beta_initializer": {"config": {}, "class_name": "Zeros"}, "trainable": true, "scale": true, "momentum": 0.99, "moving_mean_initializer": {"config": {}, "class_name": "Zeros"}, "beta_regularizer": null, "axis": -1, "gamma_regularizer": null, "center": true}, "name": "batch_normalization_18", "class_name": "BatchNormalization", "inbound_nodes": [[["conv2d_18", 0, 0, {}]]]}, {"config": {"trainable": true, "name": "elu_19", "alpha": 1.0}, "name": "elu_19", "class_name": "ELU", "inbound_nodes": [[["batch_normalization_18", 0, 0, {}]]]}, {"config": {"trainable": true, "rate": 0.5, "name": "dropout_8"}, "name": "dropout_8", "class_name": "Dropout", "inbound_nodes": [[["elu_19", 0, 0, {}]]]}, {"config": {"kernel_constraint": {"config": {"axis": 0, "max_value": 2.0}, "class_name": "MaxNorm"}, "kernel_initializer": {"config": {"scale": 1.0, "distribution": "normal", "seed": null, "mode": "fan_avg"}, "class_name": "VarianceScaling"}, "bias_initializer": {"config": {}, "class_name": "Zeros"}, "bias_constraint": null, "dilation_rate": [1, 1], "activity_regularizer": null, "strides": [1, 1], "kernel_size": [3, 3], "bias_regularizer": null, "trainable": true, "padding": "same", "activation": "linear", "kernel_regularizer": null, "use_bias": true, "filters": 64, "name": "conv2d_19", "data_format": "channels_last"}, "name": "conv2d_19", "class_name": "Conv2D", "inbound_nodes": [[["dropout_8", 0, 0, {}]]]}, {"config": {"trainable": true, "name": "add_8"}, "name": "add_8", "class_name": "Add", "inbound_nodes": [[["conv2d_19", 0, 0, {}], ["elu_18", 0, 0, {}]]]}, {"config": {"moving_variance_initializer": {"config": {}, "class_name": "Ones"}, "gamma_initializer": {"config": {}, "class_name": "Ones"}, "beta_constraint": null, "name": "batch_normalization_19", "epsilon": 0.001, "gamma_constraint": null, "beta_initializer": {"config": {}, "class_name": "Zeros"}, "trainable": true, "scale": true, "momentum": 0.99, "moving_mean_initializer": {"config": {}, "class_name": "Zeros"}, "beta_regularizer": null, "axis": -1, "gamma_regularizer": null, "center": true}, "name": "batch_normalization_19", "class_name": "BatchNormalization", "inbound_nodes": [[["add_8", 0, 0, {}]]]}, {"config": {"trainable": true, "name": "elu_20", "alpha": 1.0}, "name": "elu_20", "class_name": "ELU", "inbound_nodes": [[["batch_normalization_19", 0, 0, {}]]]}, {"config": {"kernel_constraint": {"config": {"axis": 0, "max_value": 2.0}, "class_name": "MaxNorm"}, "kernel_initializer": {"config": {"scale": 1.0, "distribution": "normal", "seed": null, "mode": "fan_avg"}, "class_name": "VarianceScaling"}, "bias_initializer": {"config": {}, "class_name": "Zeros"}, "bias_constraint": null, "dilation_rate": [1, 1], "activity_regularizer": null, "strides": [1, 1], "kernel_size": [3, 3], "bias_regularizer": null, "trainable": true, "padding": "same", "activation": "linear", "kernel_regularizer": null, "use_bias": true, "filters": 64, "name": "conv2d_20", "data_format": "channels_last"}, "name": "conv2d_20", "class_name": "Conv2D", "inbound_nodes": [[["elu_20", 0, 0, {}]]]}, {"config": {"moving_variance_initializer": {"config": {}, "class_name": "Ones"}, "gamma_initializer": {"config": {}, "class_name": "Ones"}, "beta_constraint": null, "name": "batch_normalization_20", "epsilon": 0.001, "gamma_constraint": null, "beta_initializer": {"config": {}, "class_name": "Zeros"}, "trainable": true, "scale": true, "momentum": 0.99, "moving_mean_initializer": {"config": {}, "class_name": "Zeros"}, "beta_regularizer": null, "axis": -1, "gamma_regularizer": null, "center": true}, "name": "batch_normalization_20", "class_name": "BatchNormalization", "inbound_nodes": [[["conv2d_20", 0, 0, {}]]]}, {"config": {"trainable": true, "name": "elu_21", "alpha": 1.0}, "name": "elu_21", "class_name": "ELU", "inbound_nodes": [[["batch_normalization_20", 0, 0, {}]]]}, {"config": {"trainable": true, "rate": 0.5, "name": "dropout_9"}, "name": "dropout_9", "class_name": "Dropout", "inbound_nodes": [[["elu_21", 0, 0, {}]]]}, {"config": {"kernel_constraint": {"config": {"axis": 0, "max_value": 2.0}, "class_name": "MaxNorm"}, "kernel_initializer": {"config": {"scale": 1.0, "distribution": "normal", "seed": null, "mode": "fan_avg"}, "class_name": "VarianceScaling"}, "bias_initializer": {"config": {}, "class_name": "Zeros"}, "bias_constraint": null, "dilation_rate": [1, 1], "activity_regularizer": null, "strides": [1, 1], "kernel_size": [3, 3], "bias_regularizer": null, "trainable": true, "padding": "same", "activation": "linear", "kernel_regularizer": null, "use_bias": true, "filters": 64, "name": "conv2d_21", "data_format": "channels_last"}, "name": "conv2d_21", "class_name": "Conv2D", "inbound_nodes": [[["dropout_9", 0, 0, {}]]]}, {"config": {"trainable": true, "name": "add_9"}, "name": "add_9", "class_name": "Add", "inbound_nodes": [[["conv2d_21", 0, 0, {}], ["elu_20", 0, 0, {}]]]}, {"config": {"moving_variance_initializer": {"config": {}, "class_name": "Ones"}, "gamma_initializer": {"config": {}, "class_name": "Ones"}, "beta_constraint": null, "name": "batch_normalization_21", "epsilon": 0.001, "gamma_constraint": null, "beta_initializer": {"config": {}, "class_name": "Zeros"}, "trainable": true, "scale": true, "momentum": 0.99, "moving_mean_initializer": {"config": {}, "class_name": "Zeros"}, "beta_regularizer": null, "axis": -1, "gamma_regularizer": null, "center": true}, "name": "batch_normalization_21", "class_name": "BatchNormalization", "inbound_nodes": [[["add_9", 0, 0, {}]]]}, {"config": {"trainable": true, "name": "elu_22", "alpha": 1.0}, "name": "elu_22", "class_name": "ELU", "inbound_nodes": [[["batch_normalization_21", 0, 0, {}]]]}, {"config": {"kernel_constraint": {"config": {"axis": 0, "max_value": 2.0}, "class_name": "MaxNorm"}, "kernel_initializer": {"config": {"scale": 1.0, "distribution": "normal", "seed": null, "mode": "fan_avg"}, "class_name": "VarianceScaling"}, "bias_initializer": {"config": {}, "class_name": "Zeros"}, "bias_constraint": null, "dilation_rate": [1, 1], "activity_regularizer": null, "strides": [1, 1], "kernel_size": [3, 3], "bias_regularizer": null, "trainable": true, "padding": "same", "activation": "linear", "kernel_regularizer": null, "use_bias": true, "filters": 256, "name": "conv2d_22", "data_format": "channels_last"}, "name": "conv2d_22", "class_name": "Conv2D", "inbound_nodes": [[["elu_22", 0, 0, {}]]]}, {"config": {"moving_variance_initializer": {"config": {}, "class_name": "Ones"}, "gamma_initializer": {"config": {}, "class_name": "Ones"}, "beta_constraint": null, "name": "batch_normalization_22", "epsilon": 0.001, "gamma_constraint": null, "beta_initializer": {"config": {}, "class_name": "Zeros"}, "trainable": true, "scale": true, "momentum": 0.99, "moving_mean_initializer": {"config": {}, "class_name": "Zeros"}, "beta_regularizer": null, "axis": -1, "gamma_regularizer": null, "center": true}, "name": "batch_normalization_22", "class_name": "BatchNormalization", "inbound_nodes": [[["conv2d_22", 0, 0, {}]]]}, {"config": {"trainable": true, "name": "elu_23", "alpha": 1.0}, "name": "elu_23", "class_name": "ELU", "inbound_nodes": [[["batch_normalization_22", 0, 0, {}]]]}, {"config": {"trainable": true, "padding": "valid", "pool_size": [4, 4], "name": "average_pooling2d_2", "data_format": "channels_last", "strides": [2, 2]}, "name": "average_pooling2d_2", "class_name": "AveragePooling2D", "inbound_nodes": [[["elu_23", 0, 0, {}]]]}, {"config": {"trainable": true, "name": "flatten_1"}, "name": "flatten_1", "class_name": "Flatten", "inbound_nodes": [[["average_pooling2d_2", 0, 0, {}]]]}, {"config": {"kernel_constraint": {"config": {"axis": 0, "max_value": 2.0}, "class_name": "MaxNorm"}, "kernel_initializer": {"config": {"scale": 1.0, "distribution": "normal", "seed": null, "mode": "fan_avg"}, "class_name": "VarianceScaling"}, "use_bias": true, "bias_constraint": null, "name": "dense_1", "bias_regularizer": null, "activity_regularizer": null, "trainable": true, "activation": "elu", "kernel_regularizer": null, "bias_initializer": {"config": {}, "class_name": "Zeros"}, "units": 1164}, "name": "dense_1", "class_name": "Dense", "inbound_nodes": [[["flatten_1", 0, 0, {}]]]}, {"config": {"kernel_constraint": {"config": {"axis": 0, "max_value": 2.0}, "class_name": "MaxNorm"}, "kernel_initializer": {"config": {"scale": 1.0, "distribution": "normal", "seed": null, "mode": "fan_avg"}, "class_name": "VarianceScaling"}, "use_bias": true, "bias_constraint": null, "name": "dense_2", "bias_regularizer": null, "activity_regularizer": null, "trainable": true, "activation": "linear", "kernel_regularizer": null, "bias_initializer": {"config": {}, "class_name": "Zeros"}, "units": 512}, "name": "dense_2", "class_name": "Dense", "inbound_nodes": [[["dense_1", 0, 0, {}]]]}, {"config": {"kernel_constraint": {"config": {"axis": 0, "max_value": 2.0}, "class_name": "MaxNorm"}, "kernel_initializer": {"config": {"scale": 1.0, "distribution": "normal", "seed": null, "mode": "fan_avg"}, "class_name": "VarianceScaling"}, "use_bias": true, "bias_constraint": null, "name": "dense_3", "bias_regularizer": null, "activity_regularizer": null, "trainable": true, "activation": "linear", "kernel_regularizer": null, "bias_initializer": {"config": {}, "class_name": "Zeros"}, "units": 100}, "name": "dense_3", "class_name": "Dense", "inbound_nodes": [[["dense_2", 0, 0, {}]]]}, {"config": {"kernel_constraint": {"config": {"axis": 0, "max_value": 2.0}, "class_name": "MaxNorm"}, "kernel_initializer": {"config": {"scale": 1.0, "distribution": "normal", "seed": null, "mode": "fan_avg"}, "class_name": "VarianceScaling"}, "use_bias": true, "bias_constraint": null, "name": "dense_4", "bias_regularizer": null, "activity_regularizer": null, "trainable": true, "activation": "linear", "kernel_regularizer": null, "bias_initializer": {"config": {}, "class_name": "Zeros"}, "units": 50}, "name": "dense_4", "class_name": "Dense", "inbound_nodes": [[["dense_3", 0, 0, {}]]]}, {"config": {"kernel_constraint": null, "kernel_initializer": {"config": {"scale": 1.0, "distribution": "uniform", "seed": null, "mode": "fan_avg"}, "class_name": "VarianceScaling"}, "use_bias": true, "bias_constraint": null, "name": "dense_5", "bias_regularizer": null, "activity_regularizer": null, "trainable": true, "activation": "linear", "kernel_regularizer": null, "bias_initializer": {"config": {}, "class_name": "Zeros"}, "units": 1}, "name": "dense_5", "class_name": "Dense", "inbound_nodes": [[["dense_4", 0, 0, {}]]]}, {"config": {"kernel_constraint": null, "kernel_initializer": {"config": {"scale": 1.0, "distribution": "uniform", "seed": null, "mode": "fan_avg"}, "class_name": "VarianceScaling"}, "use_bias": true, "bias_constraint": null, "name": "steering_output", "bias_regularizer": null, "activity_regularizer": null, "trainable": true, "activation": "linear", "kernel_regularizer": null, "bias_initializer": {"config": {}, "class_name": "Zeros"}, "units": 1}, "name": "steering_output", "class_name": "Dense", "inbound_nodes": [[["dense_5", 0, 0, {}]]]}], "output_layers": [["steering_output", 0, 0]], "name": "model_1"}, "backend": "tensorflow", "class_name": "Model", "keras_version": "2.0.2"}