…
pciBusID 0000:00:1e.0
Total memory: 11.17GiB
Free memory: 11.11GiB
I tensorflow/core/common_runtime/gpu/gpu_device.cc:906] DMA: 0 
I tensorflow/core/common_runtime/gpu/gpu_device.cc:916] 0:   Y 
I tensorflow/core/common_runtime/gpu/gpu_device.cc:975] Creating TensorFlow device (/gpu:0) -> (device: 0, name: Tesla K80, pci bus id: 0000:00:1e.0)
Loading model from model.json
_________________________________________________________________
Layer (type)                 Output Shape              Param #   
=================================================================
images (InputLayer)          (None, 80, 80, 3)         0         
_________________________________________________________________
lambda_1 (Lambda)            (None, 80, 80, 3)         0         
_________________________________________________________________
conv2d_1 (Conv2D)            (None, 40, 40, 32)        2432      
_________________________________________________________________
batch_normalization_1 (Batch (None, 40, 40, 32)        128       
_________________________________________________________________
elu_1 (ELU)                  (None, 40, 40, 32)        0         
_________________________________________________________________
conv2d_2 (Conv2D)            (None, 20, 20, 32)        25632     
_________________________________________________________________
batch_normalization_2 (Batch (None, 20, 20, 32)        128       
_________________________________________________________________
elu_2 (ELU)                  (None, 20, 20, 32)        0         
_________________________________________________________________
average_pooling2d_1 (Average (None, 10, 10, 32)        0         
_________________________________________________________________
conv2d_3 (Conv2D)            (None, 10, 10, 32)        25632     
_________________________________________________________________
batch_normalization_3 (Batch (None, 10, 10, 32)        128       
_________________________________________________________________
elu_3 (ELU)                  (None, 10, 10, 32)        0         
_________________________________________________________________
dropout_1 (Dropout)          (None, 10, 10, 32)        0         
_________________________________________________________________
conv2d_4 (Conv2D)            (None, 10, 10, 32)        25632     
_________________________________________________________________
add_1 (Add)                  (None, 10, 10, 32)        0         
_________________________________________________________________
batch_normalization_4 (Batch (None, 10, 10, 32)        128       
_________________________________________________________________
elu_4 (ELU)                  (None, 10, 10, 32)        0         
_________________________________________________________________
conv2d_5 (Conv2D)            (None, 10, 10, 32)        25632     
_________________________________________________________________
batch_normalization_5 (Batch (None, 10, 10, 32)        128       
_________________________________________________________________
elu_5 (ELU)                  (None, 10, 10, 32)        0         
_________________________________________________________________
dropout_2 (Dropout)          (None, 10, 10, 32)        0         
_________________________________________________________________
conv2d_6 (Conv2D)            (None, 10, 10, 32)        25632     
_________________________________________________________________
add_2 (Add)                  (None, 10, 10, 32)        0         
_________________________________________________________________
batch_normalization_6 (Batch (None, 10, 10, 32)        128       
_________________________________________________________________
elu_6 (ELU)                  (None, 10, 10, 32)        0         
_________________________________________________________________
conv2d_7 (Conv2D)            (None, 10, 10, 64)        51264     
_________________________________________________________________
batch_normalization_7 (Batch (None, 10, 10, 64)        256       
_________________________________________________________________
elu_7 (ELU)                  (None, 10, 10, 64)        0         
_________________________________________________________________
conv2d_8 (Conv2D)            (None, 10, 10, 64)        36928     
_________________________________________________________________
batch_normalization_8 (Batch (None, 10, 10, 64)        256       
_________________________________________________________________
elu_8 (ELU)                  (None, 10, 10, 64)        0         
_________________________________________________________________
dropout_3 (Dropout)          (None, 10, 10, 64)        0         
_________________________________________________________________
conv2d_9 (Conv2D)            (None, 10, 10, 64)        36928     
_________________________________________________________________
add_3 (Add)                  (None, 10, 10, 64)        0         
_________________________________________________________________
batch_normalization_9 (Batch (None, 10, 10, 64)        256       
_________________________________________________________________
elu_9 (ELU)                  (None, 10, 10, 64)        0         
_________________________________________________________________
elu_10 (ELU)                 (None, 10, 10, 64)        0         
_________________________________________________________________
conv2d_10 (Conv2D)           (None, 10, 10, 64)        36928     
_________________________________________________________________
batch_normalization_10 (Batc (None, 10, 10, 64)        256       
_________________________________________________________________
elu_11 (ELU)                 (None, 10, 10, 64)        0         
_________________________________________________________________
dropout_4 (Dropout)          (None, 10, 10, 64)        0         
_________________________________________________________________
conv2d_11 (Conv2D)           (None, 10, 10, 64)        36928     
_________________________________________________________________
add_4 (Add)                  (None, 10, 10, 64)        0         
_________________________________________________________________
batch_normalization_11 (Batc (None, 10, 10, 64)        256       
_________________________________________________________________
elu_12 (ELU)                 (None, 10, 10, 64)        0         
_________________________________________________________________
conv2d_12 (Conv2D)           (None, 10, 10, 64)        36928     
_________________________________________________________________
batch_normalization_12 (Batc (None, 10, 10, 64)        256       
_________________________________________________________________
elu_13 (ELU)                 (None, 10, 10, 64)        0         
_________________________________________________________________
dropout_5 (Dropout)          (None, 10, 10, 64)        0         
_________________________________________________________________
conv2d_13 (Conv2D)           (None, 10, 10, 64)        36928     
_________________________________________________________________
add_5 (Add)                  (None, 10, 10, 64)        0         
_________________________________________________________________
batch_normalization_13 (Batc (None, 10, 10, 64)        256       
_________________________________________________________________
elu_14 (ELU)                 (None, 10, 10, 64)        0         
_________________________________________________________________
conv2d_14 (Conv2D)           (None, 10, 10, 256)       147712    
_________________________________________________________________
batch_normalization_14 (Batc (None, 10, 10, 256)       1024      
_________________________________________________________________
elu_15 (ELU)                 (None, 10, 10, 256)       0         
_________________________________________________________________
average_pooling2d_2 (Average (None, 4, 4, 256)         0         
_________________________________________________________________
flatten_1 (Flatten)          (None, 4096)              0         
_________________________________________________________________
dense_1 (Dense)              (None, 1164)              4768908   
_________________________________________________________________
dense_2 (Dense)              (None, 512)               596480    
_________________________________________________________________
dense_3 (Dense)              (None, 100)               51300     
_________________________________________________________________
dense_4 (Dense)              (None, 50)                5050      
_________________________________________________________________
dense_5 (Dense)              (None, 1)                 51        
_________________________________________________________________
steering_output (Dense)      (None, 1)                 2         
=================================================================
Total params: 5,976,511.0
Trainable params: 5,974,719.0
Non-trainable params: 1,792.0
_________________________________________________________________
None
Train on 116575 samples, validate on 12953 samples
Epoch 1/150
  1024/116575 [..............................] - ETA: 433s - loss: 0.0208
…
