…
it [00:42, 182.78it/s]7825it [00:42, 182.23it/s]7844it [00:42, 182.44it/s]7863it [00:42, 182.80it/s]7882it [00:42, 183.51it/s]7901it [00:43, 183.91it/s]7920it [00:43, 184.28it/s]7939it [00:43, 185.09it/s]7958it [00:43, 185.51it/s]7977it [00:43, 185.87it/s]7996it [00:43, 186.17it/s]8015it [00:43, 186.15it/s]8034it [00:43, 185.97it/s]8037it [00:43, 183.64it/s]_________________________________________________________________
Layer (type)                 Output Shape              Param #   
=================================================================
images (InputLayer)          (None, 80, 80, 3)         0         
_________________________________________________________________
lambda_1 (Lambda)            (None, 80, 80, 3)         0         
_________________________________________________________________
conv2d_1 (Conv2D)            (None, 80, 80, 32)        2432      
_________________________________________________________________
batch_normalization_1 (Batch (None, 80, 80, 32)        128       
_________________________________________________________________
elu_1 (ELU)                  (None, 80, 80, 32)        0         
_________________________________________________________________
conv2d_2 (Conv2D)            (None, 80, 80, 32)        25632     
_________________________________________________________________
batch_normalization_2 (Batch (None, 80, 80, 32)        128       
_________________________________________________________________
elu_2 (ELU)                  (None, 80, 80, 32)        0         
_________________________________________________________________
average_pooling2d_1 (Average (None, 20, 20, 32)        0         
_________________________________________________________________
conv2d_3 (Conv2D)            (None, 20, 20, 32)        25632     
_________________________________________________________________
batch_normalization_3 (Batch (None, 20, 20, 32)        128       
_________________________________________________________________
elu_3 (ELU)                  (None, 20, 20, 32)        0         
_________________________________________________________________
dropout_1 (Dropout)          (None, 20, 20, 32)        0         
_________________________________________________________________
conv2d_4 (Conv2D)            (None, 20, 20, 32)        25632     
_________________________________________________________________
add_1 (Add)                  (None, 20, 20, 32)        0         
_________________________________________________________________
batch_normalization_4 (Batch (None, 20, 20, 32)        128       
_________________________________________________________________
elu_4 (ELU)                  (None, 20, 20, 32)        0         
_________________________________________________________________
conv2d_5 (Conv2D)            (None, 20, 20, 32)        25632     
_________________________________________________________________
batch_normalization_5 (Batch (None, 20, 20, 32)        128       
_________________________________________________________________
elu_5 (ELU)                  (None, 20, 20, 32)        0         
_________________________________________________________________
dropout_2 (Dropout)          (None, 20, 20, 32)        0         
_________________________________________________________________
conv2d_6 (Conv2D)            (None, 20, 20, 32)        25632     
_________________________________________________________________
add_2 (Add)                  (None, 20, 20, 32)        0         
_________________________________________________________________
batch_normalization_6 (Batch (None, 20, 20, 32)        128       
_________________________________________________________________
elu_6 (ELU)                  (None, 20, 20, 32)        0         
_________________________________________________________________
conv2d_7 (Conv2D)            (None, 20, 20, 64)        51264     
_________________________________________________________________
batch_normalization_7 (Batch (None, 20, 20, 64)        256       
_________________________________________________________________
elu_7 (ELU)                  (None, 20, 20, 64)        0         
_________________________________________________________________
conv2d_8 (Conv2D)            (None, 20, 20, 64)        36928     
_________________________________________________________________
batch_normalization_8 (Batch (None, 20, 20, 64)        256       
_________________________________________________________________
elu_8 (ELU)                  (None, 20, 20, 64)        0         
_________________________________________________________________
dropout_3 (Dropout)          (None, 20, 20, 64)        0         
_________________________________________________________________
conv2d_9 (Conv2D)            (None, 20, 20, 64)        36928     
_________________________________________________________________
add_3 (Add)                  (None, 20, 20, 64)        0         
_________________________________________________________________
batch_normalization_9 (Batch (None, 20, 20, 64)        256       
_________________________________________________________________
elu_9 (ELU)                  (None, 20, 20, 64)        0         
_________________________________________________________________
elu_10 (ELU)                 (None, 20, 20, 64)        0         
_________________________________________________________________
conv2d_10 (Conv2D)           (None, 20, 20, 64)        36928     
_________________________________________________________________
batch_normalization_10 (Batc (None, 20, 20, 64)        256       
_________________________________________________________________
elu_11 (ELU)                 (None, 20, 20, 64)        0         
_________________________________________________________________
dropout_4 (Dropout)          (None, 20, 20, 64)        0         
_________________________________________________________________
conv2d_11 (Conv2D)           (None, 20, 20, 64)        36928     
_________________________________________________________________
add_4 (Add)                  (None, 20, 20, 64)        0         
_________________________________________________________________
batch_normalization_11 (Batc (None, 20, 20, 64)        256       
_________________________________________________________________
elu_12 (ELU)                 (None, 20, 20, 64)        0         
_________________________________________________________________
conv2d_12 (Conv2D)           (None, 20, 20, 64)        36928     
_________________________________________________________________
batch_normalization_12 (Batc (None, 20, 20, 64)        256       
_________________________________________________________________
elu_13 (ELU)                 (None, 20, 20, 64)        0         
_________________________________________________________________
dropout_5 (Dropout)          (None, 20, 20, 64)        0         
_________________________________________________________________
conv2d_13 (Conv2D)           (None, 20, 20, 64)        36928     
_________________________________________________________________
add_5 (Add)                  (None, 20, 20, 64)        0         
_________________________________________________________________
batch_normalization_13 (Batc (None, 20, 20, 64)        256       
_________________________________________________________________
elu_14 (ELU)                 (None, 20, 20, 64)        0         
_________________________________________________________________
conv2d_14 (Conv2D)           (None, 20, 20, 64)        36928     
_________________________________________________________________
batch_normalization_14 (Batc (None, 20, 20, 64)        256       
_________________________________________________________________
elu_15 (ELU)                 (None, 20, 20, 64)        0         
_________________________________________________________________
dropout_6 (Dropout)          (None, 20, 20, 64)        0         
_________________________________________________________________
conv2d_15 (Conv2D)           (None, 20, 20, 64)        36928     
_________________________________________________________________
add_6 (Add)                  (None, 20, 20, 64)        0         
_________________________________________________________________
batch_normalization_15 (Batc (None, 20, 20, 64)        256       
_________________________________________________________________
elu_16 (ELU)                 (None, 20, 20, 64)        0         
_________________________________________________________________W tensorflow/core/platform/cpu_feature_guard.cc:45] The TensorFlow library wasn't compiled to use SSE3 instructions, but these are available on your machine and could speed up CPU computations.
W tensorflow/core/platform/cpu_feature_guard.cc:45] The TensorFlow library wasn't compiled to use SSE4.1 instructions, but these are available on your machine and could speed up CPU computations.
…
Limit:                 11332668621
InUse:                 11279109376
MaxInUse:              11279254528
NumAllocs:                    1854
MaxAllocSize:           1966080000

W tensorflow/core/common_runtime/bfc_allocator.cc:274] ****************************************************************************************************
W tensorflow/core/common_runtime/bfc_allocator.cc:275] Ran out of memory trying to allocate 100.00MiB.  See logs for memory state.
W tensorflow/core/framework/op_kernel.cc:993] Resource exhausted: OOM when allocating tensor with shape[1024,64,20,20]


conv2d_16 (Conv2D)           (None, 20, 20, 64)        36928     
_________________________________________________________________
batch_normalization_16 (Batc (None, 20, 20, 64)        256       
_________________________________________________________________
elu_17 (ELU)                 (None, 20, 20, 64)        0         
_________________________________________________________________
dropout_7 (Dropout)          (None, 20, 20, 64)        0         
_________________________________________________________________
conv2d_17 (Conv2D)           (None, 20, 20, 64)        36928     
_________________________________________________________________
add_7 (Add)                  (None, 20, 20, 64)        0         
_________________________________________________________________
batch_normalization_17 (Batc (None, 20, 20, 64)        256       
_________________________________________________________________
elu_18 (ELU)                 (None, 20, 20, 64)        0         
_________________________________________________________________
conv2d_18 (Conv2D)           (None, 20, 20, 64)        36928     
_________________________________________________________________
batch_normalization_18 (Batc (None, 20, 20, 64)        256       
_________________________________________________________________
elu_19 (ELU)                 (None, 20, 20, 64)        0         
_________________________________________________________________
dropout_8 (Dropout)          (None, 20, 20, 64)        0         
_________________________________________________________________
conv2d_19 (Conv2D)           (None, 20, 20, 64)        36928     
_________________________________________________________________
add_8 (Add)                  (None, 20, 20, 64)        0         
_________________________________________________________________
batch_normalization_19 (Batc (None, 20, 20, 64)        256       
_________________________________________________________________
elu_20 (ELU)                 (None, 20, 20, 64)        0         
_________________________________________________________________
conv2d_20 (Conv2D)           (None, 20, 20, 64)        36928     
_________________________________________________________________
batch_normalization_20 (Batc (None, 20, 20, 64)        256       
_________________________________________________________________
elu_21 (ELU)                 (None, 20, 20, 64)        0         
_________________________________________________________________
dropout_9 (Dropout)          (None, 20, 20, 64)        0         
_________________________________________________________________
conv2d_21 (Conv2D)           (None, 20, 20, 64)        36928     
_________________________________________________________________
add_9 (Add)                  (None, 20, 20, 64)        0         
_________________________________________________________________
batch_normalization_21 (Batc (None, 20, 20, 64)        256       
_________________________________________________________________
elu_22 (ELU)                 (None, 20, 20, 64)        0         
_________________________________________________________________
conv2d_22 (Conv2D)           (None, 20, 20, 256)       147712    
_________________________________________________________________
batch_normalization_22 (Batc (None, 20, 20, 256)       1024      
_________________________________________________________________
elu_23 (ELU)                 (None, 20, 20, 256)       0         
_________________________________________________________________
average_pooling2d_2 (Average (None, 9, 9, 256)         0         
_________________________________________________________________
flatten_1 (Flatten)          (None, 20736)             0         
_________________________________________________________________
dense_1 (Dense)              (None, 100)               2073700   
_________________________________________________________________
dense_2 (Dense)              (None, 50)                5050      
_________________________________________________________________
dense_3 (Dense)              (None, 1)                 51        
_________________________________________________________________
steering_output (Dense)      (None, 1)                 2         
=================================================================
Total params: 2,930,995.0
Trainable params: 2,928,179.0
Non-trainable params: 2,816.0
_________________________________________________________________
None
Train on 64288 samples, validate on 16072 samples
Epoch 1/150
Traceback (most recent call last):
  File "/home/ubuntu/miniconda3/envs/theano3.5/lib/python3.5/site-packages/tensorflow/python/client/session.py", line 1022, in _do_call
…
