…
it [01:02, 128.45it/s]7870it [01:02, 130.54it/s]7884it [01:02, 133.22it/s]7898it [01:02, 135.10it/s]7912it [01:02, 135.25it/s]7926it [01:02, 136.35it/s]7940it [01:03, 134.90it/s]7955it [01:03, 136.19it/s]7969it [01:03, 133.56it/s]7983it [01:03, 134.12it/s]7997it [01:03, 131.21it/s]8011it [01:03, 132.62it/s]8025it [01:03, 134.33it/s]8037it [01:03, 126.08it/s]_________________________________________________________________
Layer (type)                 Output Shape              Param #   
=================================================================
images (InputLayer)          (None, 80, 80, 3)         0         
_________________________________________________________________
lambda_1 (Lambda)            (None, 80, 80, 3)         0         
_________________________________________________________________
conv2d_1 (Conv2D)            (None, 40, 40, 32)        2432      
_________________________________________________________________
batch_normalization_1 (Batch (None, 40, 40, 32)        128       
_________________________________________________________________
elu_1 (ELU)                  (None, 40, 40, 32)        0         
_________________________________________________________________
conv2d_2 (Conv2D)            (None, 20, 20, 32)        25632     
_________________________________________________________________
batch_normalization_2 (Batch (None, 20, 20, 32)        128       
_________________________________________________________________
elu_2 (ELU)                  (None, 20, 20, 32)        0         
_________________________________________________________________
average_pooling2d_1 (Average (None, 10, 10, 32)        0         
_________________________________________________________________
conv2d_3 (Conv2D)            (None, 10, 10, 32)        25632     
_________________________________________________________________
batch_normalization_3 (Batch (None, 10, 10, 32)        128       
_________________________________________________________________
elu_3 (ELU)                  (None, 10, 10, 32)        0         
_________________________________________________________________
dropout_1 (Dropout)          (None, 10, 10, 32)        0         
_________________________________________________________________
conv2d_4 (Conv2D)            (None, 10, 10, 32)        25632     
_________________________________________________________________
add_1 (Add)                  (None, 10, 10, 32)        0         
_________________________________________________________________
batch_normalization_4 (Batch (None, 10, 10, 32)        128       
_________________________________________________________________
elu_4 (ELU)                  (None, 10, 10, 32)        0         
_________________________________________________________________
conv2d_5 (Conv2D)            (None, 10, 10, 32)        25632     
_________________________________________________________________
batch_normalization_5 (Batch (None, 10, 10, 32)        128       
_________________________________________________________________
elu_5 (ELU)                  (None, 10, 10, 32)        0         
_________________________________________________________________
dropout_2 (Dropout)          (None, 10, 10, 32)        0         
_________________________________________________________________
conv2d_6 (Conv2D)            (None, 10, 10, 32)        25632     
_________________________________________________________________
add_2 (Add)                  (None, 10, 10, 32)        0         
_________________________________________________________________
batch_normalization_6 (Batch (None, 10, 10, 32)        128       
_________________________________________________________________
elu_6 (ELU)                  (None, 10, 10, 32)        0         
_________________________________________________________________
conv2d_7 (Conv2D)            (None, 10, 10, 64)        51264     
_________________________________________________________________
batch_normalization_7 (Batch (None, 10, 10, 64)        256       
_________________________________________________________________
elu_7 (ELU)                  (None, 10, 10, 64)        0         
_________________________________________________________________
conv2d_8 (Conv2D)            (None, 10, 10, 64)        36928     
_________________________________________________________________
batch_normalization_8 (Batch (None, 10, 10, 64)        256       
_________________________________________________________________
elu_8 (ELU)                  (None, 10, 10, 64)        0         
_________________________________________________________________
dropout_3 (Dropout)          (None, 10, 10, 64)        0         
_________________________________________________________________
conv2d_9 (Conv2D)            (None, 10, 10, 64)        36928     
_________________________________________________________________
add_3 (Add)                  (None, 10, 10, 64)        0         
_________________________________________________________________
batch_normalization_9 (Batch (None, 10, 10, 64)        256       
_________________________________________________________________
elu_9 (ELU)                  (None, 10, 10, 64)        0         
_________________________________________________________________
elu_10 (ELU)                 (None, 10, 10, 64)        0         
_________________________________________________________________
conv2d_10 (Conv2D)           (None, 10, 10, 64)        36928     
_________________________________________________________________
batch_normalization_10 (Batc (None, 10, 10, 64)        256       
_________________________________________________________________
elu_11 (ELU)                 (None, 10, 10, 64)        0         
_________________________________________________________________
dropout_4 (Dropout)          (None, 10, 10, 64)        0         
_________________________________________________________________
conv2d_11 (Conv2D)           (None, 10, 10, 64)        36928     
_________________________________________________________________
add_4 (Add)                  (None, 10, 10, 64)        0         
_________________________________________________________________
batch_normalization_11 (Batc (None, 10, 10, 64)        256       
_________________________________________________________________
elu_12 (ELU)                 (None, 10, 10, 64)        0         
_________________________________________________________________
conv2d_12 (Conv2D)           (None, 10, 10, 64)        36928     
_________________________________________________________________
batch_normalization_12 (Batc (None, 10, 10, 64)        256       
_________________________________________________________________
elu_13 (ELU)                 (None, 10, 10, 64)        0         
_________________________________________________________________
dropout_5 (Dropout)          (None, 10, 10, 64)        0         
_________________________________________________________________
conv2d_13 (Conv2D)           (None, 10, 10, 64)        36928     
_________________________________________________________________
add_5 (Add)                  (None, 10, 10, 64)        0         
_________________________________________________________________
batch_normalization_13 (Batc (None, 10, 10, 64)        256       
_________________________________________________________________
elu_14 (ELU)                 (None, 10, 10, 64)        0         
_________________________________________________________________
conv2d_14 (Conv2D)           (None, 10, 10, 64)        36928     
_________________________________________________________________
batch_normalization_14 (Batc (None, 10, 10, 64)        256       
_________________________________________________________________
elu_15 (ELU)                 (None, 10, 10, 64)        0         
_________________________________________________________________
dropout_6 (Dropout)          (None, 10, 10, 64)        0         
_________________________________________________________________
conv2d_15 (Conv2D)           (None, 10, 10, 64)        36928     
_________________________________________________________________
add_6 (Add)                  (None, 10, 10, 64)        0         
_________________________________________________________________
batch_normalization_15 (Batc (None, 10, 10, 64)        256       
_________________________________________________________________
elu_16 (ELU)                 (None, 10, 10, 64)        0         
_________________________________________________________________W tensorflow/core/platform/cpu_feature_guard.cc:45] The TensorFlow library wasn't compiled to use SSE3 instructions, but these are available on your machine and could speed up CPU computations.
W tensorflow/core/platform/cpu_feature_guard.cc:45] The TensorFlow library wasn't compiled to use SSE4.1 instructions, but these are available on your machine and could speed up CPU computations.
…
I tensorflow/stream_executor/cuda/cuda_gpu_executor.cc:910] successful NUMA node read from SysFS had negative value (-1), but there must be at least one NUMA node, so returning NUMA node zero
I tensorflow/core/common_runtime/gpu/gpu_device.cc:885] Found device 0 with properties: 
name: Tesla K80
major: 3 minor: 7 memoryClockRate (GHz) 0.8235
pciBusID 0000:00:1e.0
Total memory: 11.17GiB
Free memory: 11.11GiB
I tensorflow/core/common_runtime/gpu/gpu_device.cc:906] DMA: 0 
I tensorflow/core/common_runtime/gpu/gpu_device.cc:916] 0:   Y 
I tensorflow/core/common_runtime/gpu/gpu_device.cc:975] Creating TensorFlow device (/gpu:0) -> (device: 0, name: Tesla K80, pci bus id: 0000:00:1e.0)

conv2d_16 (Conv2D)           (None, 10, 10, 64)        36928     
_________________________________________________________________
batch_normalization_16 (Batc (None, 10, 10, 64)        256       
_________________________________________________________________
elu_17 (ELU)                 (None, 10, 10, 64)        0         
_________________________________________________________________
dropout_7 (Dropout)          (None, 10, 10, 64)        0         
_________________________________________________________________
conv2d_17 (Conv2D)           (None, 10, 10, 64)        36928     
_________________________________________________________________
add_7 (Add)                  (None, 10, 10, 64)        0         
_________________________________________________________________
batch_normalization_17 (Batc (None, 10, 10, 64)        256       
_________________________________________________________________
elu_18 (ELU)                 (None, 10, 10, 64)        0         
_________________________________________________________________
conv2d_18 (Conv2D)           (None, 10, 10, 256)       147712    
_________________________________________________________________
batch_normalization_18 (Batc (None, 10, 10, 256)       1024      
_________________________________________________________________
elu_19 (ELU)                 (None, 10, 10, 256)       0         
_________________________________________________________________
average_pooling2d_2 (Average (None, 4, 4, 256)         0         
_________________________________________________________________
flatten_1 (Flatten)          (None, 4096)              0         
_________________________________________________________________
dense_1 (Dense)              (None, 1164)              4768908   
_________________________________________________________________
dense_2 (Dense)              (None, 512)               596480    
_________________________________________________________________
dense_3 (Dense)              (None, 100)               51300     
_________________________________________________________________
dense_4 (Dense)              (None, 50)                5050      
_________________________________________________________________
dense_5 (Dense)              (None, 1)                 51        
_________________________________________________________________
steering_output (Dense)      (None, 1)                 2         
=================================================================
Total params: 6,125,247.0
Trainable params: 6,122,943.0
Non-trainable params: 2,304.0
_________________________________________________________________
None
Train on 65091 samples, validate on 7233 samples
Epoch 1/150
 1024/65091 [..............................] - ETA: 547s - loss: 2.8864
…
