…
it [00:44, 179.44it/s]7818it [00:44, 178.97it/s]7836it [00:44, 178.98it/s]7855it [00:44, 179.58it/s]7874it [00:44, 180.03it/s]7893it [00:44, 180.73it/s]7912it [00:44, 181.18it/s]7931it [00:44, 181.67it/s]7950it [00:44, 181.88it/s]7969it [00:45, 182.12it/s]7988it [00:45, 182.12it/s]8007it [00:45, 182.22it/s]8026it [00:45, 182.17it/s]8037it [00:45, 176.73it/s]_________________________________________________________________
Layer (type)                 Output Shape              Param #   
=================================================================
images (InputLayer)          (None, 80, 80, 3)         0         
_________________________________________________________________
lambda_1 (Lambda)            (None, 80, 80, 3)         0         
_________________________________________________________________
conv2d_1 (Conv2D)            (None, 40, 40, 32)        2432      
_________________________________________________________________
batch_normalization_1 (Batch (None, 40, 40, 32)        128       
_________________________________________________________________
elu_1 (ELU)                  (None, 40, 40, 32)        0         
_________________________________________________________________
conv2d_2 (Conv2D)            (None, 20, 20, 32)        25632     
_________________________________________________________________
batch_normalization_2 (Batch (None, 20, 20, 32)        128       
_________________________________________________________________
elu_2 (ELU)                  (None, 20, 20, 32)        0         
_________________________________________________________________
average_pooling2d_1 (Average (None, 10, 10, 32)        0         
_________________________________________________________________
conv2d_3 (Conv2D)            (None, 10, 10, 32)        25632     
_________________________________________________________________
batch_normalization_3 (Batch (None, 10, 10, 32)        128       
_________________________________________________________________
elu_3 (ELU)                  (None, 10, 10, 32)        0         
_________________________________________________________________
dropout_1 (Dropout)          (None, 10, 10, 32)        0         
_________________________________________________________________
conv2d_4 (Conv2D)            (None, 10, 10, 32)        25632     
_________________________________________________________________
add_1 (Add)                  (None, 10, 10, 32)        0         
_________________________________________________________________
batch_normalization_4 (Batch (None, 10, 10, 32)        128       
_________________________________________________________________
elu_4 (ELU)                  (None, 10, 10, 32)        0         
_________________________________________________________________
conv2d_5 (Conv2D)            (None, 10, 10, 32)        25632     
_________________________________________________________________
batch_normalization_5 (Batch (None, 10, 10, 32)        128       
_________________________________________________________________
elu_5 (ELU)                  (None, 10, 10, 32)        0         
_________________________________________________________________
dropout_2 (Dropout)          (None, 10, 10, 32)        0         
_________________________________________________________________
conv2d_6 (Conv2D)            (None, 10, 10, 32)        25632     
_________________________________________________________________
add_2 (Add)                  (None, 10, 10, 32)        0         
_________________________________________________________________
batch_normalization_6 (Batch (None, 10, 10, 32)        128       
_________________________________________________________________
elu_6 (ELU)                  (None, 10, 10, 32)        0         
_________________________________________________________________
conv2d_7 (Conv2D)            (None, 10, 10, 64)        51264     
_________________________________________________________________
batch_normalization_7 (Batch (None, 10, 10, 64)        256       
_________________________________________________________________
elu_7 (ELU)                  (None, 10, 10, 64)        0         
_________________________________________________________________
conv2d_8 (Conv2D)            (None, 10, 10, 64)        36928     
_________________________________________________________________
batch_normalization_8 (Batch (None, 10, 10, 64)        256       
_________________________________________________________________
elu_8 (ELU)                  (None, 10, 10, 64)        0         
_________________________________________________________________
dropout_3 (Dropout)          (None, 10, 10, 64)        0         
_________________________________________________________________
conv2d_9 (Conv2D)            (None, 10, 10, 64)        36928     
_________________________________________________________________
add_3 (Add)                  (None, 10, 10, 64)        0         
_________________________________________________________________
batch_normalization_9 (Batch (None, 10, 10, 64)        256       
_________________________________________________________________
elu_9 (ELU)                  (None, 10, 10, 64)        0         
_________________________________________________________________
elu_10 (ELU)                 (None, 10, 10, 64)        0         
_________________________________________________________________
conv2d_10 (Conv2D)           (None, 10, 10, 64)        36928     
_________________________________________________________________
batch_normalization_10 (Batc (None, 10, 10, 64)        256       
_________________________________________________________________
elu_11 (ELU)                 (None, 10, 10, 64)        0         
_________________________________________________________________
dropout_4 (Dropout)          (None, 10, 10, 64)        0         
_________________________________________________________________
conv2d_11 (Conv2D)           (None, 10, 10, 64)        36928     
_________________________________________________________________
add_4 (Add)                  (None, 10, 10, 64)        0         
_________________________________________________________________
batch_normalization_11 (Batc (None, 10, 10, 64)        256       
_________________________________________________________________
elu_12 (ELU)                 (None, 10, 10, 64)        0         
_________________________________________________________________
conv2d_12 (Conv2D)           (None, 10, 10, 64)        36928     
_________________________________________________________________
batch_normalization_12 (Batc (None, 10, 10, 64)        256       
_________________________________________________________________
elu_13 (ELU)                 (None, 10, 10, 64)        0         
_________________________________________________________________
dropout_5 (Dropout)          (None, 10, 10, 64)        0         
_________________________________________________________________
conv2d_13 (Conv2D)           (None, 10, 10, 64)        36928     
_________________________________________________________________
add_5 (Add)                  (None, 10, 10, 64)        0         
_________________________________________________________________
batch_normalization_13 (Batc (None, 10, 10, 64)        256       
_________________________________________________________________
elu_14 (ELU)                 (None, 10, 10, 64)        0         
_________________________________________________________________
conv2d_14 (Conv2D)           (None, 10, 10, 256)       147712    
_________________________________________________________________
batch_normalization_14 (Batc (None, 10, 10, 256)       1024      
_________________________________________________________________
elu_15 (ELU)                 (None, 10, 10, 256)       0         
_________________________________________________________________
average_pooling2d_2 (Average (None, 4, 4, 256)         0         
_________________________________________________________________
flatten_1 (Flatten)          (None, 4096)              0         
_________________________________________________________________
dense_1 (Dense)              (None, 1164)              4768908   
_________________________________________________________________
dense_2 (Dense)              (None, 512)               596480    
_________________________________________________________________
dense_3 (Dense)              (None, 100)               51300     
_________________________________________________________________W tensorflow/core/platform/cpu_feature_guard.cc:45] The TensorFlow library wasn't compiled to use SSE3 instructions, but these are available on your machine and could speed up CPU computations.
W tensorflow/core/platform/cpu_feature_guard.cc:45] The TensorFlow library wasn't compiled to use SSE4.1 instructions, but these are available on your machine and could speed up CPU computations.
…
